logs/CAE_.pt (torch_old, 51353 bytes, 12 tensors)

conv1.weight f4 [12, 6, 7, 7]
0.075256914 0.04032203 0.05292387 -0.002092176 -0.0061577465 0.012738472 0.0023108206 0.047992304
0.010022801 0.0001797109 -0.028823426 0.02991241 -0.07444294 -0.00822 -0.06248038 -0.060069926
0.02627236 -0.022382924 -0.016023293 0.02001717 -0.00886296 0.02523948 0.0026342815 -0.0066507254
-0.0447566 -0.068910055 -0.023427796 -0.06865935 0.0067130867 0.05252104 0.12492021 -0.029693028
-0.092325926 -0.084855326 -0.015260348 0.001694371 0.061191794 0.094083466 -0.06948461 -0.10544495
-0.0015414855 -0.028580187 -0.13307282 -0.0012066648 -0.022771185 -0.03171715 -0.13510814 -0.030570704
-0.05691486 0.07790316 0.014271542 0.0327459 0.019420208 0.025962928 -0.026702609 -0.059404355
0.027009355 -0.042709712 -0.009519748 -0.061598085 -0.042108864 -0.055242695 -0.045580316 0.008064557
-0.0013555079 0.037689943 -0.04789476 -0.047067944 -0.015407644 -0.07755126 -0.054399043 0.014003907
-0.034935992 -0.07063282 -0.0027263355 -0.024749573 -0.078197874 0.02413874 0.09361674 0.10049601
-0.12045455 -0.1416075 -0.0672184 -0.08916465 0.05726972 0.17168075 0.07381514 -0.069091626
-0.11982495 -0.075632386 -0.046210203 -0.07554344 0.022608005 0.064200185 -0.04728879 -0.13130707
-0.054960333 -0.13396752 0.03974329 0.0328049 -0.031330213 -0.014225799 -0.025082422 0.00070811965
0.05487182 0.016570535 0.01615234 -0.016245905 0.018301656 -0.07345013 0.0061353934 0.023169933
0.015633235 -0.038055737 -0.044549268 -0.0032262215 -0.041133046 0.009671961 0.029767044 -0.06353502
-0.06600297 0.02133196 -0.06189263 0.012112393 0.003524109 0.0060103494 -0.037477236 0.029057771
-0.07142405 -0.035631076 -0.046755917 -0.04529635 0.006347798 -0.03429836 0.073595285 -0.022641812
-0.006820349 0.015443736 0.031316645 0.022775222 -0.17416374 -0.022164574 -0.019196592 -0.06704501
0.012729529 0.044546995 0.0065604975 -0.014625946 -0.00038898637 -0.053227127 0.06859123 0.053963248
0.036390185 0.037015583 0.021108005 -0.06769128 -0.06432086 -0.052412983 -0.00040078457 -0.048272703
-5.6349774e-05 -0.012166686 0.017541232 0.003447385 0.00974862 0.022173928 0.031202525 0.07124138
-0.0015086713 0.02846647 0.0050198645 0.043447763 0.040813036 0.0072807106 0.059392203 -0.0298174
0.0066935853 -0.034451734 -0.03384851 0.022086637 -0.03944984 -0.016086804 -0.08272087 -0.048649136
-0.053527087 0.02556289 -0.0593254 0.05192649 0.010248861 -0.12638238 -0.028346874 -0.053440854
0.041809883 0.042818133 0.07982895 0.013039205 0.037745085 0.060550086 -0.06392106 -0.0026825601
-0.030304104 0.010708468 0.045070644 0.032088406 0.00053372205 -0.0383468 -0.06412278 0.03401634
-0.037903894 0.043158595 0.028131694 -0.0020949214 -0.046700664 0.03206146 -0.04561977 -0.017765913
0.06773496 0.021499734 -0.07026213 0.004759006 -0.007160411 -0.024179405 -0.037321597 -0.027692808
-0.039599597 0.017892743 0.031995125 -0.033139825 -0.0028656968 0.04051627 -0.022226002 -0.022311596
-0.051498547 0.004457654 -0.046959747 -0.044736974 0.06469646 -0.021512266 -0.15198424 -0.08217699
-0.039611477 0.05640305 0.008242241 0.021162923 0.0006983071 -0.0018399539 0.05442453 0.031205656
0.0074254987 -0.021939743 0.04201549 0.07328662 0.0024776617 0.01821501 -0.08201124 -0.01033505
00000000: 4c20 9a3d b728 253d b3c6 583d e31c 09bb
00000010: ecc6 c9bb 06b5 503c 2371 173b 9493 443d
00000020: ad36 243c c770 3c39 1b1f ecbc df0a f53c
00000030: 8a75 98bd 2ead 06bc 6deb 7fbd e20b 76bd
00000040: 2239 d73c 655c b7bc 4843 83bc 0cfb a33c
00000050: f335 11bc 07c3 ce3c e9a3 2c3b 54ee d9bb
00000060: b252 37bd b720 8dbd a6eb bfbc 469d 8cbd
00000070: 74f9 db3b 4d20 573d 2bd6 ff3d cb3e f3bc
00000080: 6015 bdbd a1c8 adbd 8a06 7abc a815 de3a
00000090: 3fa4 7a3d d5ae c03d f24d 8ebd 86f3 d7bd
000000a0: ac0b caba ff20 eabc 3e44 08be f428 9eba
000000b0: a38a babc d8e9 01bd ca59 0abe 6a6f fabc
000000c0: 8e1f 69bd b18b 9f3d 30d3 693c 9120 063d
000000d0: 2117 9f3c 35b0 d43c 6ebf dabc fb51 73bd
000000e0: b942 dd3c 61f0 2ebd b8f8 1bbc 464e 7cbd
000000f0: 587a 2cbd 2a46 62bd 6db2 3abd 3421 043c
00000100: 4cab b1ba c560 1a3d 4c2d 44bd 51ca 40bd
00000110: 5870 7cbc 32d3 9ebd 88d1 5ebd a570 653c
00000120: 0b19 0fbd f1a7 90bd 52ac 32bb 9ebf cabc
00000130: 3526 a0bd 9bbe c53c 22ba bf3d dad0 cd3d
00000140: e0b0 f6bd 8e01 11be cda9 89bd f59b b6bd
00000150: a793 6a3d 14cd 2f3e 642c 973d e97f 8dbd
00000160: c966 f5bd 27e5 9abd e946 3dbd 85b6 9abd
00000170: 6c34 b93c 637b 833d e4b1 41bd 5c75 06be
00000180: 161e 61bd c82e 09be dcc9 223d 6e5e 063d
00000190: 1c54 00bd 5313 69bc a779 cdbc 1ba1 393a
000001a0: 46c1 603d eebe 873c ea51 843c 2216 85bc
000001b0: 5bed 953c 066d 96bd 690b c93b dfce bd3c
000001c0: 4511 803c 55e0 1bbd 4b79 36bd 046f 53bb
000001d0: 207b 28bd 2577 1e3c 04da f33c a61e 82bd
000001e0: 912c 87bd 5dc0 ae3c 2083 7dbd 0f73 463c
000001f0: bdf4 663b 77f2 c43b bb81 19bd 900a ee3c
00000200: c646 92bd e4f1 11bd 2283 3fbd aa88 39bd
00000210: 3001 d03b 707c 0cbd 20b9 963d 527b b9bc
00000220: 3c7d dfbb b907 7d3c e245 003d 1a93 ba3c
00000230: fb57 32be 7b92 b5bc 2c42 9dbc e54e 89bd
00000240: 848f 503c e976 363d 71f9 d63b aaa1 6fbc
00000250: def0 cbb9 b004 5abd 8f79 8c3d 9108 5d3d
00000260: e00d 153d a79d 173d b2ea ac3c baa1 8abd
00000270: a8ba 83bd ffae 56bd 6520 d2b9 99b9 45bd
00000280: 1c59 6cb8 c856 47bc a1b2 8f3c 86ed 613b
00000290: adb8 1f3c 19a6 b53c 709c ff3c 00e7 913d
000002a0: 9cbe c5ba 8432 e93c ad7d a43b 48f6 313d
000002b0: 922b 273d 0793 ee3b 3d45 733d 9f43 f4bc
000002c0: dd55 db3b 431d 0dbd bca4 0abd 09ef b43c
000002d0: 2896 21bd 79c8 83bc 8f69 a9bd 5144 47bd
000002e0: 383f 5bbd 4469 d13c 31ff 72bd dfb0 543d
000002f0: d7ea 273c 626a 01be b437 e8bc cce4 5abd
00000300: d740 2b3d 1162 2f3d 5c7d a33d 64a2 553c
00000310: 979a 1a3d 5e03 783d 0be9 82bd e4cd 2fbb
00000320: 5040 f8bc 9272 2f3c ff9b 383d 226f 033d
00000330: 7be9 0b3a 8911 1dbd ce52 83bd b854 0b3d
00000340: 1d41 1bbd 11c7 303d 7074 e63c f34a 09bb
00000350: 3249 3fbd e152 033d ccdb 3abd d289 91bc
00000360: a0b8 8a3d 3620 b03c 97e5 8fbd 70f1 9b3b
00000370: e2a1 eabb e313 c6bc 88de 18bd 07dc e2bc
00000380: 3033 22bd cd93 923c 520d 033d a0bd 07bd
00000390: 6ace 3bbb 63f4 253d 4e13 b6bc cfc6 b6bc
000003a0: 24f0 52bd 8311 923b dd58 40bd 1e3e 37bd
000003b0: 947f 843d 7e3a b0bc c2a1 1bbe 694c a8bd
000003c0: a53f 22bd e206 673d 770a 073c de5d ad3c
000003d0: 990e 373a 9c2a f1ba 42ec 5e3d 01a3 ff3c
000003e0: 9951 f33b faba b3bc 6f18 2c3d 4c17 963d
000003f0: 4460 223b a537 953c 82f5 a7bd 5754 29bc

conv1.bias f4 [12]
0.42779985 -0.021572253 0.047929037 0.03466476 0.05194888 0.019018047 0.27889237 -0.0012469806
-0.00072494784 0.007887129 -0.022251232 0.030514842
00000000: 9508 db3e 4bb8 b0bc 3d51 443d a3fc 0d3d
00000010: 59c8 543d bccb 9b3c fbca 8e3e ba71 a3ba
00000020: 6d0a 3eba 0439 013c 3748 b6bc 43fa f93c

conv2.weight f4 [8, 12, 5, 5]
-0.062270943 -0.05285801 -0.012314054 -0.008857843 0.023921488 0.02435808 0.017601402 -0.004028343
-0.04481621 -0.010233518 -0.05281 0.00013803493 -0.044021208 -0.0043462445 -0.061627075 -0.017718429
-0.03438382 0.031492483 -0.01445014 0.013890926 0.046154454 -0.06386953 -0.04309064 -0.027646026
0.030832786 -0.044081945 -0.05216487 0.039850365 0.008637521 0.016661385 0.03907966 0.038748562
0.044091076 0.038557876 -0.042560432 0.024731759 -0.025115142 -0.058701787 0.02959998 0.018568048
0.042164925 -0.038542204 0.009959109 0.013858718 -0.008437218 -0.0031404742 -0.00921716 0.017687544
0.0046657184 0.030976731 -0.047485292 -0.07259531 0.038133338 -0.039205935 0.010373626 0.0001664345
-0.028939722 0.023758136 -0.01601261 0.0003507789 -0.03293795 0.0025227757 0.019550517 0.004985867
-0.044668216 -0.027902989 -0.027515309 0.026175618 -0.031150274 -0.036121525 0.03349676 0.035773933
0.014741466 -0.04516796 -0.062086526 -0.067975834 -0.055351976 -0.02314322 0.032453578 -0.009458655
0.025921661 -0.07341439 0.020687664 0.010131795 -0.06301811 -0.041339003 -0.023920774 -0.0016524575
-0.013384835 0.008995206 0.026352065 -0.02496158 0.016148666 -0.0494285 -0.04391799 -0.028561449
-0.063739054 -0.04818788 -0.051618163 0.046952073 0.012933286 -0.071403615 -0.018306565 -0.038352028
-0.020066235 -0.021528045 -0.028621713 0.009949379 -0.028716141 -0.043853734 -0.014869726 -0.008592236
-0.015555941 0.038097456 -0.04889124 0.019308025 -0.045151126 -0.065724075 0.0407992 0.049851872
-0.014046112 -0.052012496 -0.03615958 0.00012980135 -0.040605333 -0.009136276 -0.020482322 0.0046221577
0.009888856 0.006270607 -0.005032806 0.05510421 -0.047507197 0.049325954 0.029188862 0.045172017
-0.031510685 0.050759908 0.023584351 -0.0048815636 -0.050774127 -0.05410201 -0.056303777 0.035017036
-0.034443107 0.01155079 -0.01633805 -0.0570391 -0.035541724 0.054942705 0.007715828 -0.06389521
0.03827987 0.030119061 -0.011168698 -0.027638245 0.013528347 0.00074912806 0.036336165 -0.048132826
0.032196715 0.041951682 -0.06074367 -0.0496107 0.015887117 0.009988473 0.039402597 -0.044109147
0.04337865 -0.028637515 -0.048947264 -0.048108265 -0.017921738 -0.00014042723 0.010078512 0.02185162
-0.030235946 -0.020657985 -0.02939169 0.039395623 -0.03296123 -0.038848393 0.030264283 -0.013416638
-0.05217704 -0.009340113 -0.0116264215 -0.011125051 -0.05485707 0.011896352 0.03552894 -0.011055632
-0.0065727173 -0.06523126 0.009605316 0.0033626151 0.023241509 -0.013344325 0.029983971 -0.059260365
0.002699825 -0.054469947 -0.043768346 -0.0028679778 -0.03210501 0.034753993 -0.009001105 -0.034977358
-0.08524911 0.01991258 0.015929723 -0.010658757 0.03439359 0.0045812004 0.046472564 -0.033464033
-0.01598596 0.028256323 -0.04435409 -0.00018379105 0.047702216 0.025932426 -0.029348204 0.022042453
0.03355671 -0.027568312 0.044847958 -0.023929575 -0.040097807 -0.052285574 0.02403752 0.01010912
-0.031645317 0.03284045 -0.059744716 0.034252677 -0.05290737 0.00837325 -0.008214643 -0.01735972
0.015170152 -0.0084779225 0.019604461 -0.014743099 -0.028501295 -0.029299056 -0.004595733 0.0015883226
0.04861011 -0.048212018 0.040917788 0.053820014 -0.01756931 -0.059897635 0.019523833 0.022191936
00000000: d10f 7fbd a481 58bd e3c0 49bc 7c20 11bc
00000010: fff6 c33c 998a c73c d130 903c 3100 84bb
00000020: 3491 37bd 7caa 27bc 4c4f 58bd 78bd 1039
00000030: 954f 34bd f16a 8ebb ac6c 7cbd 3d26 91bc
00000040: 0cd6 0cbd 43fe 003d 48c0 6cbc c496 633c
00000050: 740c 3d3d 07ce 82bd d07f 30bd eb79 e2bc
00000060: 0a95 fc3c 458f 34bd d5aa 55bd 233a 233d
00000070: 6484 0d3c 757d 883c fe11 203d d0b6 1e3d
00000080: d898 343d ddee 1d3d d953 2ebd 429a ca3c
00000090: 45be cdbc 4971 70bd a87b f23c 051c 983c
000000a0: 21b5 2c3d 6ede 1dbd 882b 233c ad0f 633c
000000b0: 423c 0abc 6ad0 4dbb 9203 17bc 78e5 903c
000000c0: e2e2 983b eac2 fd3c f07f 42bd daac 94bd
000000d0: b431 1c3d 6796 20bd 24f6 293c ec84 2e39
000000e0: ff12 edbc 6ca0 c23c e12c 83bc bfe8 b739
000000f0: f2e9 06bd 2755 253b 6828 a03c 7c60 a33b
00000100: 05f6 36bd cf94 e4bc c967 e1bc 406e d63c
00000110: dc2e ffbc 2af4 13bd e633 093d b087 123d
00000120: 3186 713c 0a02 39bd 714e 7ebd ea36 8bbd
00000130: c1b8 62bd da96 bdbc 0bee 043d 79f8 1abc
00000140: aa59 d43c 495a 96bd 2d79 a93c d4ff 253c
00000150: a40f 81bd 1653 29bd 80f5 c3bc 4697 d8ba
00000160: 114c 5bbc a160 133c 49e0 d73c 3a7c ccbc
00000170: 354a 843c 8a75 4abd 5ae3 33bd b3f9 e9bc
00000180: 9f89 82bd a860 45bd 916d 53bd d150 403d
00000190: 22e6 533c 0f3c 92bd a6f7 95bc 0417 1dbd
000001a0: f261 a4bc 955b b0bc 1578 eabc b802 233c
000001b0: 1d3e ebbc f99f 33bd 27a0 73bc 73c6 0cbc
000001c0: 58de 7ebc 140c 1c3d 2e42 48bd dd2b 9e3c
000001d0: 63f0 38bd 589a 86bd 101d 273d 7a31 4c3d
000001e0: aa21 66bc 0e0b 55bd 111c 14bd 491b 0839
000001f0: c751 26bd 52b0 15bc 8bca a7bc 7875 973b
00000200: de04 223c aa79 cd3b 3dea a4bb f4b4 613d
00000210: e896 42bd 030a 4a3d 7b1d ef3c 4b06 393d
00000220: 5911 01bd 9fe9 4f3d f833 c13c 86f5 9fbb
00000230: 88f8 4fbd 129a 5dbd ca9e 66bd 066e 0f3d
00000240: 3714 0dbd 863f 3d3c 60d7 85bc d5a1 69bd
00000250: 3394 11bd 9a0b 613d 0ed5 fc3b 7edb 82bd
00000260: 5acb 1c3d 40bc f63c eafc 36bc 9a69 e2bc
00000270: 00a6 5d3c 2261 443a 3bd5 143d ed26 45bd
00000280: b4e0 033d 87d5 2b3d 5bce 78bd 9734 4bbd
00000290: b325 823c b1a6 233c 9e64 213d cbab 34bd
000002a0: d0ad 313d 3999 eabc ed7c 48bd 2c0d 45bd
000002b0: 9cd0 92bc a63f 13b9 5820 253c 2b02 b33c
000002c0: 60b1 f7bc ef3a a9bc d7c6 f0bc 4e5d 213d
000002d0: 5b02 07bd 7e1f 1fbd cdec f73c 75d1 5bbc
000002e0: 98b7 55bd 4607 19bc bf7c 3ebc d945 36bc
000002f0: cfb1 60bd ebe8 423c cb86 113d ae22 35bc
00000300: f35f d7bb f897 85bd 9e5f 1d3c 525f 5c3b
00000310: fa64 be3c 28a2 5abc f2a0 f53c ffba 72bd
00000320: 8cef 303b e11b 5fbd 7046 33bd aff4 3bbb
00000330: 8b80 03bd 345a 0e3d 5f79 13bc 6b44 0fbd
00000340: 1697 aebd b51f a33c 0d7f 823c 11a2 2ebc
00000350: 4be0 0c3d e51d 963b 045a 3e3d 9511 09bd
00000360: fdf4 82bc ce79 e73c a2ac 35bd 09b8 40b9
00000370: 6663 433d 3d70 d43c a56b f0bc 6092 b43c
00000380: c372 093d f1d6 e1bc 7eb2 373d f507 c4bc
00000390: 993d 24bd 6629 56bd 55ea c43c b9a0 253c
000003a0: 859e 01bd b583 063d e0b6 74bd 894c 0c3d
000003b0: 66b5 58bd f52f 093c b696 06bc f935 8ebc
000003c0: 3b8c 783c fce6 0abc 8999 a03c 0a8d 71bc
000003d0: 8c7b e9bc 9304 f0bc cd97 96bb 432f d03a
000003e0: 651b 473d f779 45bd 6999 273d 6072 5c3d
000003f0: 83ed 8fbc 3957 75bd 72f0 9f3c ddcb b53c

conv2.bias f4 [8]
-0.0069911224 0.05691816 -0.0008716218 -0.013355191 -0.06666761 0.06796075 0.0060480773 0.007497561
00000000: c915 e5bb 0423 693d 8d7d 64ba bbcf 5abc
00000010: 0789 88bd 012f 8b3d f32e c63b 1aae f53b

conv3.weight f4 [3, 8, 3, 3]
0.08708175 -0.02464813 0.10207173 0.029710628 -0.088991106 -0.07803684 0.012132524 -0.040107105
0.044147063 0.040019475 0.047038667 0.09317307 0.042842396 -0.070581794 -0.08519353 0.10269873
0.044307556 0.08406585 -0.011473263 -0.095317416 -0.002507925 0.064423926 0.12872472 -0.034571223
-0.021717012 0.015840953 -0.08126503 -0.013385758 -0.09887731 0.03818149 -0.027723156 -0.04872789
0.09798891 0.0030175596 -0.10328536 0.08273213 -0.0014573261 -0.022114675 0.10154226 0.07040826
-0.09052727 0.022335298 -0.0924869 0.00067533506 -0.115687214 0.019977106 0.091568165 -0.0467711
0.08090761 0.12798472 -0.08840473 -0.07857749 0.114745885 0.02616502 -0.051211953 0.08389735
0.102545 -0.09059025 -0.077986576 -0.043508027 0.01975141 -0.062486965 0.088510916 -0.025609609
-0.055088826 -0.077909425 -0.110734485 0.09538813 -0.15469518 -0.11067069 -0.01872321 0.0871929
0.039184455 -0.014411937 -0.021684553 -0.046247985 0.07777689 0.027965462 0.1082909 -0.056188412
-0.014917432 -0.09731839 -0.01962472 0.047878154 -0.13176376 0.02701779 0.05256471 0.029643772
0.0094104465 -0.05754648 -0.09758878 -0.16486561 -0.13303879 -0.047424424 0.053267516 -0.06481423
-0.08487292 -0.033219744 -0.07328121 -0.110704236 0.09082321 0.11582754 -0.054733373 -0.0372577
-0.023579784 0.026239745 -0.0068655685 -0.027318731 0.06443145 -0.031066172 -0.020940237 -0.016669162
0.01837065 -0.024725504 -0.094845906 -0.07342468 0.06497016 0.03441136 0.09062359 0.15375498
0.08396726 -0.08486513 -0.034089938 -0.075548075 0.023380753 0.042219542 -0.032365542 -0.016148064
-0.023508636 -0.09639206 -0.034173552 -0.012763765 -0.10356213 -0.12647946 0.061859384 0.07060788
0.050049085 0.13811304 0.14554602 0.07812475 0.06936593 0.10547307 0.004581465 0.089912236
0.06959347 -0.0032336426 -0.09703383 -0.055854168 -0.06502596 -0.0034701582 0.08280004 0.06316999
0.061353836 -0.03427459 0.07110989 0.08541791 0.019070767 0.010574467 0.12255958 -0.010617361
0.05711732 -0.0861867 -0.10416009 0.10861027 0.044772185 0.028539062 -0.03350873 0.10924014
-0.023258522 0.11837074 0.056416746 0.088834874 -0.010850982 -0.08587284 0.0072899973 -0.0906647
-0.06608717 -0.055165123 -0.058223486 -0.0769515 -0.08562881 -0.02868557 -0.08639244 -0.0163881
-0.05143415 0.09015493 -0.025433011 0.038009416 -0.053102452 -0.04629611 0.0051359334 -0.113876164
0.059200298 0.020564828 0.08697563 -0.11981837 0.11785641 0.027388208 0.018569319 0.006333135
-0.11595196 -0.05040357 0.04879506 0.06380909 0.05933057 0.11303321 -0.034205798 0.08439727
-0.09054815 0.11556261 0.071751125 0.053607084 -0.05751643 -0.071134865 -0.1446721 -0.009863485
00000000: eb57 b23d e0ea c9bc fc0a d13d b463 f33c
00000010: f840 b6bd c7d1 9fbd 7ec7 463c 5947 24bd
00000020: 8dd3 343d 76eb 233d 9eab 403d 86d1 be3d
00000030: 827b 2f3d 308d 90bd f279 aebd b653 d23d
00000040: d77b 353d b72a ac3d 5afa 3bbc c735 c3bd
00000050: 005c 24bb b1f0 833d 6ad0 033e 8e9a 0dbd
00000060: e0e7 b1bc e3c4 813c 486e a6bd f04f 5bbc
00000070: 3080 cabd 3264 1c3d ac1b e3bc e596 47bd
00000080: 69ae c83d 40c2 453b 4687 d3bd 776f a93d
00000090: c003 bfba d629 b5bc 63f5 cf3d 3532 903d
000000a0: 5d66 b9bd 84f8 b63c c669 bdbd f808 313a
000000b0: 6bed ecbd 07a7 a33c 1788 bb3d 0e93 3fbd
000000c0: e4b2 a53d 6d0e 033e 8a0d b5bd 3ced a0bd
000000d0: e4ff ea3d 0658 d63c a0c3 51bd 60d2 ab3d
000000e0: 1d03 d23d 6287 b9bd 6db7 9fbd 7935 32bd
000000f0: b5cd a13c 55f2 7fbd 3645 b53d 3ecb d1bc
00000100: d2a4 61bd fa8e 9fbd c3c8 e2bd da5a c33d
00000110: 6a68 1ebe 51a7 e2bd 6b61 99bc 3192 b23d
00000120: e17f 203d 0c20 6cbc cea3 b1bc 876e 3dbd
00000130: 7d49 9f3d d317 e53c 9fc7 dd3d d225 66bd
00000140: 3f68 74bc dd4e c7bd 05c4 a0bc e21b 443d
00000150: 14ed 06be 6a54 dd3c 184e 573d 7fd7 f23c
00000160: 462e 1a3c dcb5 6bbd a0dc c7bd 88d2 28be
00000170: 523b 08be 1d40 42bd 0a2f 5a3d 53bd 84bd
00000180: dad1 adbd 6d11 08bd 7614 96bd e7b8 e2bd
00000190: 8501 ba3d fd36 ed3d 1a30 60bd 889b 18bd
000001a0: 642a c1bc bcf4 d63c 90f8 e0bb 88cb dfbc
000001b0: a3f4 833d 7c7e febc dc8a abbc c48d 88bc
000001c0: 0c7e 963c 248d cabc 923e c2bd ae5f 96bd
000001d0: 130f 853d edf2 0c3d dc98 b93d f271 1d3e
000001e0: 07f7 ab3d c5cd adbd e4a1 0bbd f3b8 9abd
000001f0: fe88 bf3c 66ee 2c3d bb91 04bd f248 84bc
00000200: 2f95 c0bc 3369 c5bd 91f9 0bbd 1c1f 51bc
00000210: 6218 d4bd d583 01be 4460 7d3d dd9a 903d
00000220: 4500 4d3d 816d 0d3e 040a 153e deff 9f3d
00000230: ba0f 8e3d 4402 d83d 1d20 963b e823 b83d
00000240: 0587 8e3d 85eb 53bb acb9 c6bd 57c7 64bd
00000250: 552c 85bd 986b 63bb 1193 a93d 455f 813d
00000260: 294e 7b3d 8363 0cbd 10a2 913d 96ef ae3d
00000270: 4c3a 9c3c 8740 2d3c 8400 fb3d 71f4 2dbc
00000280: daf3 693d a782 b0bd e351 d5bd 106f de3d
00000290: 0a63 373d c0ca e93c 7340 09bd 4bb9 df3d
000002a0: a888 bebc 5c6c f23d 3f15 673d 0fef b53d
000002b0: 51c8 31bc 19de afbd eee0 ee3b 6aae b9bd
000002c0: b658 87bd d3f4 61bd c07b 6ebd bf98 9dbd
000002d0: 285e afbd 00fe eabc 85ee b0bd 5640 86bc
000002e0: 9eac 52bd 26a3 b83d e458 d0bc c3af 1b3d
000002f0: f581 59bd fda0 3dbd 554b a83b e837 e9bd
00000300: 037c 723d 9277 a83c 4720 b23d 5563 f5bd
00000310: b45e f13d 3c5d e03c af1e 983c 3086 cf3b
00000320: 3978 edbd f973 4ebd 54dd 473d 57ae 823d
00000330: 9d04 733d f57d e73d 611b 0cbd 7ad8 ac3d
00000340: 4f71 b9bd 17ac ec3d 41f2 923d 1a93 5b3d
00000350: 5996 6bbd 28af 91bd ec24 14be 749a 21bc

conv3.bias f4 [3]
0.00071074505 -0.040699705 0.0710682
00000000: 4b51 3a3a bcb4 26bd 348c 913d

conv4.weight f4 [8, 3, 3, 3]
-0.140192 -0.18257487 -0.000690043 -0.041967258 -0.02014701 0.063579455 -0.027963057 0.0867639
-0.13983864 -0.16436242 -0.017889902 -0.18454213 0.1405948 -0.1893676 0.06478377 0.10482024
0.16504933 -0.04399994 0.07646839 -0.05421941 -0.11783424 -0.19061705 -0.066368535 -0.13608089
0.043130174 0.12411474 -0.08561839 0.22975528 0.035151802 0.12362929 -0.17006709 0.089544415
0.06161549 0.082712784 0.009700936 -0.0098963175 0.03847817 0.020028086 0.053335328 -0.00085936685
-0.028091196 0.030856397 0.08241604 0.05283097 0.13591748 -0.14803208 0.12575196 0.0057284324
0.16478948 0.19094476 0.053416584 -0.053101946 -0.06904579 -0.052719887 -0.04274922 0.18914084
-0.08113757 -0.094116405 0.761017 0.47208428 -0.09954057 -0.44581103 -0.05899608 0.11052725
0.022209123 -0.15071712 -0.19058523 0.17196117 -0.14644676 -0.13213573 -0.100118265 -0.12634447
-0.3279666 0.0011605544 -0.08151544 -0.4028845 -0.095591955 0.1484791 -0.40084773 0.23526289
-0.09303684 -0.05309562 -0.012761472 -0.016574387 -0.04099137 -0.009532323 -0.1974221 -0.08216039
-0.029973753 0.17373171 -0.0302876 0.019741822 0.050116826 0.238398 -0.04155534 0.22550727
0.09086986 0.07975409 0.044006463 0.037915938 0.031113422 0.00084279425 -0.07764908 0.15877694
-0.09431145 0.07647448 0.029053213 -0.12213136 0.03529391 0.17044443 -0.4579706 -0.27526668
0.11615473 -0.018529546 0.24921602 -0.13869746 -0.031831734 0.15305015 0.14212942 0.036145065
-0.19734618 0.037407003 0.027947301 -0.06598356 0.017179478 -0.22090206 0.027005946 -0.040452935
-0.35361257 -0.005117667 0.13350995 -0.041950535 -0.07618865 0.16238141 0.03349519 0.0028064924
0.2057563 0.2227733 0.09498482 0.22072971 -0.112952285 0.084413484 0.01683094 0.039640352
0.027983636 -0.046704873 0.055000186 0.064194806 0.22387232 0.370183 -0.09417134 0.015767243
0.44356623 -0.07663482 0.006498259 0.16318554 0.06672667 -0.14942485 0.12056775 -0.14127707
-0.054815333 -0.050253768 0.041007925 -0.12636153 0.14065868 -0.11989823 -0.00077431666 -0.073308766
0.06307854 0.34760347 0.08895103 -0.05439147 0.08706919 -0.10760536 -0.15630037 0.048501886
0.29528624 -0.012242807 -0.11014753 0.13851398 0.1641934 -0.0066344193 -0.15746655 0.01745196
-0.1212844 0.15110095 -0.05827546 -0.024111813 0.054684427 0.07396207 0.0583082 -0.045286153
-0.021366604 -0.013347576 -0.03341751 0.03980345 0.32151735 0.057332445 -0.063911274 0.14362963
0.099748336 -0.098085135 -0.09010737 0.29331955 -0.018576555 0.28583777 0.045197595 -0.16570994
-0.22660522 -0.14302537 -0.21020724 0.1063925 0.12604651 0.057867672 0.07916881 0.08679827
00000000: 7e8e 0fbe e8f4 3abe 00e4 34ba dce5 2bbd
00000010: 580b a5bc f235 823d c812 e5bc 46b1 b13d
00000020: dc31 0fbe 9f4e 28be d88d 92bc 9df8 3cbe
00000030: 15f8 0f3e 95e9 41be 5aad 843d feab d63d
00000040: b102 293e 4839 34bd 769b 9c3d 2c15 5ebd
00000050: 1453 f1bd 1e31 43be 3aec 87bd ca58 0bbe
00000060: 44a9 303d de2f fe3d b258 afbd f844 6b3e
00000070: 56fb 0f3d 5a31 fd3d 1126 2ebe 1063 b73d
00000080: 8660 7c3d 5265 a93d adf0 1e3c 2a24 22bc
00000090: 499b 1d3d f111 a43c 2576 5a3d 2247 61ba
000000a0: 821f e6bc 8ec6 fc3c bec9 a83d 4a65 583d
000000b0: f42d 0b3e b995 17be 1fc5 003e 93b5 bb3b
000000c0: 93be 283e 0687 433e 59cb 5a3d 6d81 59bd
000000d0: e167 8dbd cff0 57bd ce19 2fbd 23ae 413e
000000e0: 742b a6bd 1ac0 c0bd 03d2 423f 08b5 f13e
000000f0: eddb cbbd 5841 e4be e0a5 71bd 1c5c e23d
00000100: e8ef b53c 9755 1abe c628 43be 9716 303e
00000110: 24f6 15be 974e 07be ce0a cdbd 7260 01be
00000120: 3deb a7be be1d 983a 91f1 a6bd e146 cebe
00000130: b7c5 c3bd e80a 183e ea3b cdbe c1e8 703e
00000140: 198a bebd cb7a 59bd 7e15 51bc 02c7 87bc
00000150: 91e6 27bd 762d 1cbc 0529 4abe b543 a8bd
00000160: 848b f5bc bae6 313e b31d f8bc 9ab9 a13c
00000170: 4d47 4d3d 9b1e 743e ef35 2abd 61eb 663e
00000180: fa19 ba3d 1d56 a33d 1f40 343d be4d 1b3d
00000190: 93e1 fe3c f7ee 5c3a 7b06 9fbd 6c96 223e
000001a0: 5d26 c1bd a79e 9c3d 0101 ee3c 0220 fabd
000001b0: 5990 103d fc88 2e3e 1f7b eabe c1ef 8cbe
000001c0: 88e2 ed3d 46cb 97bc 7c32 7f3e b506 0ebe
000001d0: fe61 02bd 2eb9 1c3e 608a 113e d90c 143d
000001e0: 1e15 4abe 1638 193d bdf1 e43c 6422 87bd
000001f0: fabb 8c3c 2634 62be 933b dd3c fab1 25bd
00000200: b50c b5be 1ab2 a7bb d5b6 083e 53d4 2bbd
00000210: cc08 9cbd 5047 263e 4132 093d 21ed 373b
00000220: c8b1 523e af1e 643e 6787 c23d f806 623e
00000230: 8753 e7bd fae0 ac3d 0ae1 893c ec5d 223d
00000240: f03d e53c 9c4d 3fbd e047 613d 9178 833d
00000250: c93e 653e a088 bd3e e7dc c0bd 4e2a 813c
00000260: 1d1b e33e b7f2 9cbd 59ef d43b 1c1a 273e
00000270: fea7 883d d402 19be 39ec f63d f0aa 10be
00000280: 0b86 60bd e5d6 4dbd edf7 273d eb64 01be
00000290: d408 103e 348d f5bd 83fb 4aba e822 96bd
000002a0: 522f 813d 15f9 b13e f52b b63d 97c9 5ebd
000002b0: 5551 b23d 3360 dcbd 340d 20be eaa9 463d
000002c0: c22f 973e 0e96 48bc 0795 e1bd 9cd6 0d3e
000002d0: 5122 283e 8b65 d9bb e93e 21be 6af7 8e3c
000002e0: f563 f8bd 35ba 1a3e 40b2 6ebd 2386 c5bc
000002f0: c7fc 5f3d 6d79 973d 94d4 6e3d f97d 39bd
00000300: 0409 afbc cbaf 5abc cde0 08bd f108 233d
00000310: ec9d a43e 6dd5 6a3d eae3 82bd a513 133e
00000320: db48 cc3d dce0 c8bd 368a b8bd fb2d 963e
00000330: dc2d 98bc 5459 923e 1d21 393d deaf 29be
00000340: 330b 68be 3e75 12be 9140 57be 50e4 d93d
00000350: 5612 013e a706 6d3d 4223 a23d 4bc3 b13d

conv4.bias f4 [8]
-0.16381353 -0.11484822 -0.098490745 0.20530538 -0.12920564 0.2022968 0.10581595 0.16059631
00000000: bcbe 27be 8b35 ebbd 84b5 c9bd 933b 523e
00000010: 7c4e 04be e426 4f3e 08b6 d83d 5c73 243e

conv5.weight f4 [12, 8, 5, 5]
-0.03964123 -0.00740923 0.05476571 -0.04831267 0.01699128 -0.06639978 -0.03286738 -0.0453066
0.050494403 0.057184227 0.004248321 -0.030719776 0.026428059 0.045274742 0.055134304 0.04386975
-0.05518396 0.05659961 0.04085777 -0.030788671 -0.016232487 -0.03236134 0.03363222 -0.060819514
0.02922637 -0.12676938 -0.048194848 -0.0067100646 -0.09657285 -0.130876 0.086158395 0.1152969
-0.0021504352 0.03239702 0.028685465 0.087440744 0.18083024 0.14260222 0.13194543 0.10843035
0.082414895 0.057934813 -0.03735222 -0.040448457 -0.050787512 -0.0034242664 -0.03157318 -0.05262285
-0.05608419 -0.09086251 0.0089793345 0.08039585 0.012262091 0.049971543 0.1136757 -0.0001769576
-0.028081149 -0.01233024 0.07573761 0.056306977 -0.11669951 0.0064933267 0.036485754 0.03914175
0.14376491 -0.08157565 -0.0031587686 -0.0038238885 0.10003163 0.13300554 -0.11478099 -0.072421126
0.11740225 0.11007256 0.11800096 -0.016958373 -0.023566801 -0.011561103 -0.015508451 -0.09763892
0.042655863 0.012552473 -0.049511123 0.008960271 -0.07598257 0.04853296 -0.04794358 0.0012292219
-0.0056795483 0.01623953 -0.079547174 0.038881015 -0.072946385 -0.08413274 -0.036597617 -0.0911234
-0.038242567 0.029150352 -0.058074895 -0.048975397 -0.03721041 0.10997628 0.15134604 0.026472103
0.11241404 -0.039493687 0.08817272 0.26201886 0.0691516 0.054945644 0.16653083 0.18036388
0.25821903 0.16258141 0.11890106 0.20378265 0.26614422 0.30441514 0.04644353 0.12896757
0.23747621 0.23188625 0.28971982 -0.02704846 0.019820714 0.00551609 0.014720538 0.025190108
-0.10968458 -0.032458935 -0.054123163 0.04116825 -0.045231853 0.0122076785 -0.014422234 0.033845205
0.0074624154 -0.040091343 0.030229673 -0.019916505 -0.047281504 0.03486417 -0.07217957 -0.09144957
-0.03882783 0.0029600693 -0.07774449 -0.0012979399 0.024927039 0.030241499 -0.020546835 -0.1172748
-0.031895924 -0.07281677 -0.10152179 -0.049343746 -0.05214321 -0.10637145 -0.07999939 -0.0215617
-0.011973654 -0.028850276 0.0035107927 -0.094489254 0.014402998 -0.026417367 -0.02636393 -0.07272325
-0.02996296 -0.10037826 -0.04020134 -0.102037795 0.019879937 -0.044288993 -0.050620582 0.072467074
-0.02124156 -0.050316375 0.006311568 -0.09344377 -0.039298546 -0.061735936 0.0330582 -0.030914722
-0.100026175 0.11365224 -0.007321732 0.11372785 -0.004396231 -0.007480392 0.065840766 -0.007048787
0.05955009 -0.015091485 0.015767891 -0.05413005 -0.053664736 -0.0640571 0.011074671 -0.112704106
0.03979999 -0.069375426 -0.024490524 0.016196772 -0.050056305 0.016319789 0.027697459 0.038826786
-0.002145782 0.045203038 0.039144948 0.06891259 0.00030262023 -0.014621913 -0.0233871 -0.008723665
-0.015105329 0.032671295 -0.037916705 -0.01969545 0.029731452 -0.0334463 0.04792832 -0.057598636
-0.038842488 -0.013870703 0.027205165 0.08085226 0.05798351 -0.014952092 -0.033431638 0.0055202614
0.00472063 0.072873324 0.026010694 0.08101121 0.08878623 0.0734344 -0.01781079 -0.05476676
-0.037707604 0.107632965 0.087693214 0.0067489967 0.028060477 -0.048491344 0.038985714 0.039778236
0.054137595 -0.05707016 -0.088739425 -0.051519852 0.097649425 -0.001614307 0.10634406 -0.10183362
00000000: d85e 22bd 20c9 f2bb 0252 603d 82e3 45bd
00000010: 4c31 8b3c 9cfc 87bd f29f 06bd 6a93 39bd
00000020: 38d3 4e3d 023a 6a3d 8035 8b3b 0aa8 fbbc
00000030: a87f d83c 0272 393d 82d4 613d c4b0 333d
00000040: 9308 62bd fed4 673d 7a5a 273d 8638 fcbc
00000050: fef9 84bc 538d 04bd f0c1 093d e21d 79bd
00000060: 246c ef3c d5cf 01be f667 45bd 1ae0 dbbb
00000070: fdc7 c5bd 5c04 06be d073 b03d c820 ec3d
00000080: 51ee 0cbb bdb2 043d c8fd ea3c 2214 b33d
00000090: 902b 393e 5106 123e b41c 073e bb10 de3d
000000a0: 24c9 a83d 0e4d 6d3d a4fe 18bd 48ad 25bd
000000b0: 9106 50bd a869 60bb e152 01bd 0f8b 57bd
000000c0: 89b8 65bd 2016 babd 0f1e 133c 94a6 a43d
000000d0: f0e6 483c f6ae 4c3d cece e83d b28d 39b9
000000e0: 700a e6bc c604 4abc 521c 9b3d 25a2 663d
000000f0: 2700 efbd f9c5 d43b 1672 153d 1a53 203d
00000100: 1c37 133e 2211 a7bd 5803 4fbb 349a 7abb
00000110: 62dd cc3d 9b32 083e 4c12 ebbd 8751 94bd
00000120: 9770 f03d b96d e13d 7daa f13d 49ec 8abc
00000130: 2a0f c1bc c86a 3dbc 2817 7ebc eaf6 c7bd
00000140: eab7 2e3d e3a8 4d3c 2dcc 4abd 1ace 123c
00000150: c09c 9bbd 7fca 463d 7d60 44bd d81d a13a
00000160: 811b babb c308 853c a1e9 a2bd b341 1f3d
00000170: ea64 95bd c94d acbd 62e7 15bd e89e babd
00000180: 3da4 1cbd b8cc ee3c f1df 6dbd 6d9a 48bd
00000190: f169 18bd 3e3b e13d 75fa 1a3e 06dc d83c
000001a0: 5539 e63d 22c4 21bd e693 b43d 5627 863e
000001b0: 5b9f 8d3d af0e 613d 0f87 2a3e 4fb1 383e
000001c0: 4935 843e be7b 263e 6682 f33d 66ac 503e
000001d0: 0e44 883e 4ddc 9b3e 923b 3e3d 1310 043e
000001e0: f72c 733e 9773 6d3e 2856 943e bb94 ddbc
000001f0: 0d5f a23c 51c0 b43b 692e 713c 7c5b ce3c
00000200: 4fa2 e0bd a9f3 04bd 40b0 5dbd 0aa0 283d
00000210: 0945 39bd b702 483c 3c4b 6cbc 45a1 0a3d
00000220: 4787 f43b d236 24bd 38a4 f73c f027 a3bc
00000230: 40aa 41bd bbcd 0e3d e2d2 93bd ea49 bbbd
00000240: ee09 1fbd b9fd 413b 8138 9fbd a31f aaba
00000250: ca33 cc3c 05bd f73c d651 a8bc c52d f0bd
00000260: 4da5 02bd f520 95bd a8ea cfbd ab1c 4abd
00000270: 1e94 55bd 46d9 d9bd b8d6 a3bd 2aa2 b0bc
00000280: 252d 44bc 6a57 ecbc 5415 663b 9583 c1bd
00000290: 8dfa 6b3c 3c69 d8bc 2bf9 d7bc edef 94bd
000002a0: e274 f5bc 1e93 cdbd 29aa 24bd 31f9 d0bd
000002b0: 40db a23c 6068 35bd 8757 4fbd 9e69 943d
000002c0: c802 aebc 8b18 4ebd 45d1 ce3b 735f bfbd
000002d0: 83f7 20bd d2de 7cbd 0968 073d df40 fdbc
000002e0: 86da ccbd 81c2 e83d 24eb efbb 26ea e83d
000002f0: 420e 90bb 141e f5bb 86d7 863d 83f9 e6bb
00000300: ccea 733d 4742 77bc aa2b 813c 79b7 5dbd
00000310: 8ecf 5bbd 5e30 83bd 8972 353c 69d1 e6bd
00000320: 5005 233d b414 8ebd 5aa0 c8bc 18af 843c
00000330: d707 4dbd 14b1 853c c8e5 e23c d608 1f3d
00000340: 40a0 0cbb d226 393d 7456 203d 0b22 8d3d
00000350: 00a9 9e39 c090 6fbc 4e96 bfbc b4ed 0ebc
00000360: 587c 77bc 56d2 053d 8c4e 1bbd 5a58 a1bc
00000370: 608f f33c fdfe 08bd 7c50 443d 8cec 6bbd
00000380: 4d19 1fbd f241 63bc 5edd de3c df95 a53d
00000390: 1e80 6d3d 9ff9 74bc 9def 08bd 4fe3 b43b
000003a0: 84af 9a3b 9c3e 953d 6114 d53c 35e9 a53d
000003b0: 8ed5 b53d c664 963d efe7 91bc 1c53 60bd
000003c0: 4a73 1abd ac6e dc3d 8098 b33d b026 dd3b
000003d0: 16df e53c dc9e 46bd 7caf 1f3d 81ee 223d
000003e0: 62bf 5d3d 66c2 69bd 04bd b5bd 7b06 53bd
000003f0: 6cfc c73d 2897 d3ba eaca d93d 258e d0bd

conv5.bias f4 [12]
0.07553484 0.010391298 0.053908296 0.048852723 -0.029764537 0.10009627 0.11074819 -0.041569132
0.107669644 -0.07008166 -0.025168328 -0.07695304
00000000: 03b2 9a3d 4340 2a3c f2ce 5c3d cb19 483d
00000010: c2d4 f3bc 46ff cc3d f2cf e23d 6544 2abd
00000020: e781 dc3d f986 8fbd cf2d cebc 8e99 9dbd

conv6.weight f4 [6, 12, 7, 7]
-0.013928591 0.0051297396 0.017060315 0.013631597 0.021779567 -0.007869863 0.006118074 0.029228922
-0.00075676554 -0.0080584 0.05765531 0.0044323993 0.0082121715 0.0041690897 0.071110725 0.08483173
0.03891965 0.06354327 0.031405117 0.036428533 -0.021749737 0.067807585 0.10658747 0.10746504
0.111829616 0.08317787 0.0853592 0.071398765 0.10514503 0.043010898 0.07849598 0.062543385
0.027440296 0.06433024 -0.003625498 0.044241432 0.02421892 0.027769193 0.069095686 0.030739319
-0.029088018 0.024141956 0.0052969335 0.03750601 0.0006743158 0.038357437 0.0031918234 0.0064695887
-0.030878473 0.004879265 0.039865386 0.03927881 -0.016323036 0.03954121 -0.012512252 0.028099922
0.023438657 -0.0047929655 0.035981696 0.0051859436 -0.0019422948 0.035589766 0.00053929136 -0.019598741
0.0075739515 0.0135575095 0.026201833 0.010763188 0.03610919 -0.0142492065 0.015434294 0.0015720921
0.032256745 -0.015027549 -0.015047223 -0.006561708 0.032760285 -0.036808833 -0.017462019 -0.0419774
-0.042125344 0.0347148 0.040420953 -0.007916976 -0.03125986 -0.021526236 -0.037816677 0.0037520106
-0.02678518 0.03711302 -0.04411695 0.00039947176 -0.028863123 -0.008496164 -0.013415085 -0.01106809
0.01708726 -0.008697487 -0.051768944 -0.07205951 -0.07568179 -0.053285282 -0.030389318 0.012074112
-0.070623524 -0.037055925 -0.06664927 -0.04980536 -0.008268569 -0.00084584235 -0.048996966 -0.005172415
-0.041523557 -0.03805758 -0.04695382 -0.050938733 -0.012344621 -0.017343983 -0.014316365 -0.04503854
0.008515756 0.017193979 0.016477393 -0.01688294 0.042400744 -0.006830439 -0.034328606 -0.0033485247
0.024530409 -0.028994245 0.01376732 0.01849522 -0.025800467 -0.0023248105 0.004647078 0.01243979
-0.034610365 0.021394981 0.0108994 -0.010056711 -0.0038450249 -0.00050643826 0.029494341 -0.027652398
-0.0058093257 -0.023322565 0.019442474 -0.014258357 -0.03819456 -0.019462036 -0.07160717 -0.043345727
-0.049201477 -0.027699992 -0.018300166 -0.034366697 -0.027750028 -0.10047122 -0.004666745 -0.02280103
0.005712976 -0.018216833 -0.03151233 -0.059912924 -0.09567746 -0.08224822 -0.05434292 -0.016796175
-0.0550583 -0.06154202 -0.07884897 -0.13793585 -0.042920407 -0.067588225 -0.061214425 -0.050892055
-0.009404721 -0.062933765 -0.071634114 -0.07161662 -0.03446108 -0.0736129 -0.038871188 0.02747718
-0.051697228 -0.06474171 -0.04482974 -0.039103184 -0.016675442 0.03286384 -0.02566877 0.018854706
-0.089937195 -0.027084272 0.017248068 0.007962062 -0.033128325 0.020893803 -0.035041098 0.001423023
0.015225957 0.02084769 0.02782169 -0.0055979537 0.017183473 -0.0055379346 0.035357554 0.008686467
0.01108293 0.032674212 0.009424982 -0.025946576 -0.021812193 0.019257829 0.041572206 0.023712486
0.015374578 0.00928846 0.024886495 -0.021491896 0.032587714 0.0030631651 0.044949416 0.040472653
-0.04786263 -0.008084888 -0.006867014 0.012219925 0.002965789 0.06728669 0.04539895 -0.036179114
-0.0034677126 0.025745124 -0.02091589 0.06714728 -0.003126084 0.021401536 -0.012844791 -0.04017227
-0.0025002903 0.024404138 0.03248349 -0.020258231 -0.020508844 0.024896944 -0.0103622265 -0.0095854895
-0.009205728 0.0038271337 -0.014065591 -0.026918756 0.0010345745 -0.023856534 0.010947285 -0.057312727
00000000: bf34 64bc 6017 a83b 13c2 8b3c 1057 5f3c
00000010: 106b b23c 99f0 00bc 207a c83b 7e71 ef3c
00000020: ad61 46ba 6107 04bc f927 6c3d a93d 913b
00000030: 588c 063c dc9c 883b 80a2 913d 42bc ad3d
00000040: 366a 1f3d f922 823d a7a2 003d 1636 153d
00000050: 812c b2bc b4de 8a3d 884a da3d a216 dc3d
00000060: ed06 e53d 2959 aa3d ced0 ae3d 8439 923d
00000070: 4756 d73d 322c 303d 80c2 a03d bf16 803d
00000080: 79ca e03c 93bf 833d c399 6dbb 8136 353d
00000090: c266 c63c 387c e33c 0a82 8d3d 06d1 fb3c
000000a0: ff49 eebc 5ac5 c53c e691 ad3b e79f 193d
000000b0: 91c4 303a b01c 1d3d e92d 513b d8fe d33b
000000c0: daf4 fcbc 3ee2 9f3b e349 233d d1e2 203d
000000d0: e3b7 85bc f7f5 213d 3000 4dbc cf31 e63c
000000e0: 6d02 c03c 4f0e 9dbb 8b61 133d d9ee a93b
000000f0: 9994 feba 93c6 113d 3b5f 0d3a 8a8d a0bc
00000100: e92e f83b 5120 5e3c 3aa5 d63c 1558 303c
00000110: 3be7 133d 8175 69bc 1fe0 7c3c a80e ce3a
00000120: a61f 043d 1c36 76bc a188 76bc 9903 d7bb
00000130: a62f 063d dcc4 16bd 820c 8fbc 7ff0 2bbd
00000140: a08b 2cbd 1b31 0e3d 7190 253d 34b6 01bc
00000150: 570a 00bd ca57 b0bc a9e5 1abd 4be4 753b
00000160: 986c dbbc d203 183d fab3 34bd 3170 d139
00000170: 5b72 ecbc 7f33 0bbc f2ca 5bbc ef56 35bc
00000180: 95fa 8b3c e87f 0ebc ac0b 54bd f093 93bd
00000190: 0eff 9abd ab41 5abd 05f3 f8bc 7fd2 453c
000001a0: 11a3 90bd f4c7 17bd 6a7f 88bd b500 4cbd
000001b0: e478 07bc 85bb 5dba 0bb1 48bd 5d7d a9bb
000001c0: 9b14 2abd 44e2 1bbd a652 40bd 22a5 50bd
000001d0: 1841 4abc f814 8ebc 308f 6abc 557a 38bd
000001e0: ab85 0b3c 63da 8c3c 99fb 863c 174e 8abc
000001f0: 67ac 2d3d e0d1 dfbb 279c 0cbd ec72 5bbb
00000200: fff3 c83c 5785 edbc 5390 613c 4a83 973c
00000210: 805b d3bc d95b 18bb 8446 983b 43d0 4b3c
00000220: 99c3 0dbd 8744 af3c 6693 323c e7c4 24bc
00000230: d0fc 7bbb 7fc2 04ba 1e9e f13c 4887 e2bc
00000240: 285c bebb f70e bfbc d345 9f3c e29b 69bc
00000250: e671 1cbd d96e 9fbc c8a6 92bd 4a8b 31bd
00000260: 7d87 49bd 18eb e2bc 3bea 95bc 18c4 0cbd
00000270: 0754 e3bc dbc3 cdbd 7feb 98bb 3ac9 babc
00000280: eb33 bb3b 783b 95bc 1313 01bd 4167 75bd
00000290: 8bf2 c3bd c171 a8bd af96 5ebd 2298 89bc
000002a0: d084 61bd 7c13 7cbd 927b a1bd 0e3f 0dbe
000002b0: 4fcd 2fbd b26b 8abd fabb 7abd 3074 50bd
000002c0: 4216 1abc 6be3 80bd e8b4 92bd bcab 92bd
000002d0: 1027 0dbd 5cc2 96bd 6537 1fbd d317 e13c
000002e0: 79c0 53bd 4d97 84bd 649f 37bd a92a 20bd
000002f0: f09a 88bc 3c9c 063d 5047 d2bc 2f75 9a3c
00000300: fe30 b8bd d6df ddbc d24b 8d3c 4f73 023c
00000310: 91b1 07bd 7b29 ab3c 4187 0fbd ba84 ba3a
00000320: 4b76 793c c6c8 aa3c 50ea e33c 0a6f b7bb
00000330: 5bc4 8c3c 9077 b5bb 15d3 103d af51 0e3c
00000340: 2d95 353c 65d5 053d 3d6b 1a3c ea8d d4bc
00000350: 7caf b2bc 98c2 9d3c 9e47 2a3d b040 c23c
00000360: a7e5 7b3c a02e 183c c3de cb3c c60f b0bc
00000370: b27a 053d 62bf 483b e11c 383d a7c6 253d
00000380: 9b0b 44bd 7a76 04bc b004 e1bb 1536 483c
00000390: af5d 423b 9bcd 893d 40f4 393d 8d30 14bd
000003a0: 9042 63bb 70e7 d23c cd57 abbc 8384 893d
000003b0: fdde 4cbb 4652 af3c f572 52bc ae8b 24bd
000003c0: e9db 23bb 30eb c73c 680d 053d 97f4 a5bc
000003d0: 2a02 a8bc adf4 cb3c 54c6 29bc 750c 1dbc
000003e0: 9fd3 16bc a6d0 7a3b 5d73 66bc b984 dcbc
000003f0: 8f9a 873a c76e c3bc 3e5c 333c c0c0 6abd

conv6.bias f4 [6]
-0.07836703 -0.08313635 -0.089040376 -0.04925024 -0.022182565 -0.046405733
00000000: e57e a0bd 6443 aabd cd5a b6bd 9fba 49bd
00000010: 36b8 b5bc f013 3ebd
