logs/CAE_.pt (torch_old, 51353 bytes, 12 tensors)

conv1.weight f4 [12, 6, 7, 7]
0	0x3bd042f5	0.006355638
1	0x3d620a5f	0.055185672
2	0x3d6b3dfa	0.057432152
3	0xbd0a7c63	-0.03381003
4	0x3d2155db	0.03938852
5	0x3cebac93	0.028768813
6	0xbd1c3fdc	-0.03814684
7	0x3c83c4bb	0.01608502
8	0xbcdac5de	-0.026705679
9	0xbcc99392	-0.0246065
10	0x3d2bccd7	0.041943397
11	0xbd30f3f0	-0.043201387
12	0x3d43fa06	0.047845863
13	0xbd573dd8	-0.052549213
14	0xbcfdf3bb	-0.031000009
15	0xbcf79a78	-0.030225024
16	0xbbef630b	-0.007305508
17	0x3d273534	0.040822223
18	0xbcdaaf79	-0.026695
19	0xbd7a3b56	-0.061091743
20	0x3d17eacd	0.037089158
21	0xbd40ace5	-0.047039885
22	0x3d4ac137	0.04950067
23	0xbd0c8079	-0.03430221
24	0x3cf6815c	0.03009098
25	0xbba724a7	-0.005100805
26	0xbcb72e8f	-0.022361068
27	0xbd1d5989	-0.038415466
28	0xbd1d9d0f	-0.03847986
29	0x3cbf91be	0.023384925
30	0xbd1ce3bf	-0.038303133
31	0x3d3ebfc0	0.046569586
32	0x3c8e4c44	0.01737035
33	0xbd442ae3	-0.047892462
34	0x3cafd026	0.021461558
35	0x3cc98e01	0.024603846
36	0xbc8baa89	-0.017049091
37	0xbbe31ceb	-0.0069309375
38	0xbd504849	-0.050850186
39	0xbd504894	-0.050850466
40	0x3c533891	0.012891904
41	0x3b7a4e8b	0.0038193788
42	0xbd66c533	-0.056340408
43	0x3cfc836f	0.030824391
44	0xbd6d6d1a	-0.057965375
45	0x3cbb9046	0.022895943
46	0x3c98e87d	0.018665547
47	0xbb0825cb	-0.002077448
48	0x3af14061	0.0018406027
49	0x3d470608	0.048589736
50	0x3d00a607	0.031408336
51	0xbce39054	-0.027778782
52	0x3ce1663b	0.027514568
53	0x3bc7157d	0.0060755596
54	0xbd4dbe7d	-0.050230492
55	0x3cc3bd8a	0.02389409
56	0xbd43d048	-0.047806054
57	0x3cfee3ef	0.031114547
58	0xbcc20924	-0.023686
59	0xbd73aa72	-0.05948872
60	0x3d3ff8fb	0.046868306
61	0xbcda570f	-0.02665284
62	0x3d2db637	0.0424101
63	0xbd039ca4	-0.032131806
64	0xbc7ad7e4	-0.015310261
65	0xbd550ad2	-0.052012272
66	0xbd382dfe	-0.044965737
67	0xbccb3b7f	-0.024808643
68	0xba05a644	-0.0005098323
69	0xbcb82b2a	-0.02248152
70	0xbd5eb9fa	-0.05437658
71	0x3ca965b9	0.020678388
72	0xbd47b983	-0.048760902
73	0xbc628ba6	-0.01382724
74	0x3c2a890a	0.010408649
75	0xbcd8af20	-0.026450694
76	0x3c9e8fdb	0.019355705
77	0x3c1795f3	0.009252059
78	0xbd1b56e8	-0.037924677
79	0xbd6c90d6	-0.057755314
80	0xbc4a665d	-0.012353507
81	0x3d374338	0.04474184
82	0x3d400833	0.04688282
83	0x3d42a7c5	0.04752328
84	0x3cb7aa90	0.022420198
85	0xbd40afb9	-0.047042582
86	0x3cc0c89a	0.023533154
87	0x3c07641d	0.008263615
88	0x3d0db73d	0.034598578
89	0x3d38eea5	0.045149464
90	0xbd17e4b3	-0.03708334
91	0xbc8f3c4f	-0.017484812
92	0x3d4ab3ea	0.049487986
93	0x3d38cb53	0.04511578
94	0xbbac95d5	-0.005266885
95	0xbd79de30	-0.06100291
96	0x3d256c24	0.040386334
97	0x3c7c0888	0.015382893
98	0xbc9d8da9	-0.019232588
99	0x3d7480f9	0.05969331
100	0x3c37341b	0.0111818565
101	0x3c58e67f	0.013238548
102	0xbd7d1bfd	-0.06179427
103	0xbc692fe4	-0.014232609
104	0xbc844ecb	-0.016150853
105	0xbd55b28a	-0.05217222
106	0xbd07a148	-0.033112794
107	0xbd3e19e0	-0.046411395
108	0x3c91ba1c	0.01778894
109	0xbcd8366d	-0.02639314
110	0x3bdaa8cd	0.0066729547
111	0x3d411932	0.04714317
112	0x3d44e38f	0.04806858
113	0x3ae7d86e	0.0017688402
114	0x3c309e6d	0.010779959
115	0x3d457a52	0.048212357
116	0x3bb0e644	0.0053985436
117	0xbc6f3e03	-0.014602187
118	0xbd04bc5b	-0.032406192
119	0xbb8c5227	-0.0042822543
120	0xbc00157a	-0.00781762
121	0xbd290d5c	-0.041272506
122	0x3c99ee78	0.018790469
123	0x3d465310	0.04841906
124	0xbca26224	-0.019822188
125	0x3c397f26	0.011321818
126	0xbd18c13f	-0.03729367
127	0xbd38ee9c	-0.04514943
128	0xbbdc6ca4	-0.006726818
129	0x3d0ce75c	0.03440033
130	0xbd0af8d1	-0.033928696
131	0xbd280bfc	-0.041027054
132	0xbd117079	-0.035507653
133	0xbd578844	-0.052620187
134	0x3d0b2816	0.033973776
135	0xbd2d262f	-0.042272743
136	0xbc95c256	-0.018281143
137	0x3c9d7bed	0.019224131
138	0xbc54bc04	-0.01298428
139	0x3cdc012f	0.026856033
140	0x3d4b8c92	0.049694605
141	0xbd3e993a	-0.046532847
142	0x3b45bf0b	0.0030173685
143	0xbd2e26ea	-0.04251758
144	0x3b60129f	0.0034190787
145	0x3caf3d50	0.02139154
146	0x3cd4cd90	0.025976926
147	0xbc38f99d	-0.011289981
148	0x3c0e6aa0	0.008692414
149	0xbd63e3de	-0.055637233
150	0x3d22354e	0.039601617
151	0xbd80f7ff	-0.062973015
152	0x3d047b48	0.032344133
153	0xbcf81038	-0.030281171
154	0x3c36df91	0.011161701
155	0xbc91689d	-0.017750079
156	0x3cd44aff	0.025914667
157	0xbd48821c	-0.048952207
158	0xbb2a7e6a	-0.002601529
159	0xbd5f4fcc	-0.05451946
160	0xbccb7e40	-0.024840474
161	0xbd57e1b0	-0.052705467
162	0xbb891020	-0.0041828305
163	0x3cd97acb	0.02654781
164	0x3b7d73a0	0.0038673654
165	0x3d35586e	0.044273786
166	0xbd1298b3	-0.035790157
167	0xbd88b9f2	-0.06676091
168	0xbc39d0c8	-0.011341281
169	0xbcaad5a7	-0.02085383
170	0xbc34f557	-0.011044822
171	0xbd7ed2b2	-0.062212653
172	0x3c8e3798	0.017360494
173	0x3d35530a	0.044268645
174	0xbb8ff627	-0.0043933573
175	0x3d4a46d4	0.049383953
176	0x3d5985d2	0.053106137
177	0xbafcf417	-0.0019298819
178	0xbb946d52	-0.0045296336
179	0xbc6fe6ae	-0.014642401
180	0x3cd5109d	0.026008898
181	0xbd26a576	-0.04068514
182	0xbbfdd78a	-0.0077466415
183	0xbc7fae9e	-0.015605597
184	0xbcab5022	-0.020912234
185	0xbccec12d	-0.025238598
186	0xbd1c6abf	-0.03818774
187	0xbc48bac1	-0.012251557
188	0xbd6cdb54	-0.057826355
189	0x3c0d98ed	0.008642417
190	0xbd1fcef2	-0.039015718
191	0x3cfa9006	0.030586254
192	0x3c797110	0.01522471
193	0xbd66177e	-0.056174748
194	0x3c899323	0.016793793
195	0xbca6f4b3	-0.020380354
196	0xbb881dff	-0.0041539664
197	0xbd4e4271	-0.050356332
198	0xbd1aef56	-0.037825905
199	0xbb5c581c	-0.0033621853
200	0xbd89c8ea	-0.067277744
201	0xbd240b59	-0.040049884
202	0x3bb4aafd	0.0055135475
203	0xbd54fe34	-0.05200024
204	0x3d341e03	0.043973934
205	0x3a799e1b	0.0009522156
206	0x3c8577b9	0.01629244
207	0xbd6406c7	-0.055670526
208	0xbd386952	-0.045022316
209	0x3d2147e0	0.039375186
210	0x3d70da2a	0.058801807
211	0xbc2105eb	-0.009828071
212	0x3cdb9b08	0.026807323
213	0x3ca0a5f7	0.019610388
214	0x3d23455a	0.03986106
215	0xbbb0f390	-0.0054001287
216	0xbd150334	-0.036380008
217	0xbd5976b9	-0.05309174
218	0xbb4ed478	-0.0031559747
219	0xbca7e928	-0.02049692
220	0x3cad2f84	0.021140821
221	0xbd5b9cb5	-0.053616244
222	0xbce771ba	-0.028252471
223	0xbb6d21f8	-0.0036183577
224	0x3d3a15d8	0.045430988
225	0xbd5ec1e4	-0.054384127
226	0xbd1d40d8	-0.038391918
227	0xbd38a5bb	-0.045079928
228	0x3bcd7eee	0.0062712347
229	0x3cadacb3	0.021200513
230	0xbc92e29b	-0.01793032
231	0xbd05bbe9	-0.03264991
232	0x3c8335b8	0.016016826
233	0x3c9ba457	0.018999262
234	0x3ca3f150	0.020012528
235	0xbd6520a8	-0.055939347
236	0xbd7e541d	-0.062091935
237	0x3d070d33	0.032971572
238	0xbd02d1ad	-0.031938244
239	0xbc9815e5	-0.018565128
240	0x3ce78d1c	0.028265528
241	0xbcf1259e	-0.029436883
242	0x3cc8d319	0.024514722
243	0xbc458181	-0.012054802
244	0xbca32f44	-0.019919999
245	0x3c0f6a94	0.008753438
246	0xbcef4473	-0.029207444
247	0xbca6ea17	-0.020375295
248	0xbc87acda	-0.016561914
249	0xbd8614ee	-0.06546961
250	0x3c9fa2bb	0.019486776
251	0x3d2d03a7	0.04223981
252	0x3c4b3886	0.012403613
253	0x3d38761a	0.045034505
254	0xbcf3aaf4	-0.029744603
255	0xbd2757dd	-0.040855277

conv1.bias f4 [12]
0	0xbc0293d3	-0.007969814
1	0xbd03487b	-0.032051545
2	0x3dbec96c	0.09315762
3	0x3e8742fc	0.26418293
4	0xbca732cd	-0.020409966
5	0xbcbef75d	-0.023311311
6	0xbc98e59a	-0.01866417
7	0xbd1433b1	-0.03618211
8	0xbd69e50f	-0.057103213
9	0x3da2ad61	0.07943226
10	0x3e1219b9	0.14267625
11	0x3bc62495	0.0060468414

conv2.weight f4 [8, 12, 5, 5]
0	0xbd2c2dc1	-0.04203582
1	0x3d2c90a4	0.042130128
2	0xbcc97c48	-0.024595395
3	0x3c94119c	0.018074803
4	0x3d0b21dc	0.033967838
5	0xbd2cd6f5	-0.042197186
6	0x3cb94e2e	0.022620287
7	0xbd5ed165	-0.054398913
8	0x3d039d9e	0.032132737
9	0x3b58fb90	0.0033108927
10	0x3d3320d3	0.043732475
11	0x3d117087	0.035507705
12	0xbd172d60	-0.036908507
13	0x3d462ffb	0.0483856
14	0x3c7d8140	0.01547271
15	0xbc407f65	-0.011749123
16	0x3d30114f	0.042985257
17	0xbd47b915	-0.048760492
18	0x3d575740	0.052573442
19	0xbd6a0089	-0.057129417
20	0xbb2e6786	-0.0026611998
21	0x3d09bf46	0.03362968
22	0x3d156d10	0.036480963
23	0x3d4761af	0.048677143
24	0xbc7ee970	-0.0155585855
25	0xbd362e04	-0.044477478
26	0x3d1ec5e5	0.038762946
27	0xbcd80305	-0.026368627
28	0xbca7f4ef	-0.020502536
29	0x3cc60070	0.02417013
30	0x3d1950ab	0.037430447
31	0x3cd0a0e7	0.02546735
32	0x3d68b67b	0.056814652
33	0xbd34fd65	-0.04418697
34	0xbd0d0aa4	-0.034433976
35	0xbc0fd94d	-0.008779836
36	0x3cca111e	0.024666365
37	0xbc6056e2	-0.0136925895
38	0xbce0876d	-0.027408326
39	0x3d0702e0	0.032961726
40	0x3b736b80	0.0037142932
41	0xbd150cf0	-0.03638929
42	0x3d72e845	0.05930354
43	0x3d76a356	0.060214363
44	0xbc89638c	-0.0167711
45	0xbd52702d	-0.05137651
46	0xb9b220a8	-0.00033975136
47	0x3cd42f79	0.025901543
48	0xbcddc096	-0.027069371
49	0x3c88cc82	0.01669908
50	0x3df39e7a	0.118954614
51	0xbd8445ea	-0.064586475
52	0x3b015572	0.0019734767
53	0xbd027687	-0.031851318
54	0xbadf6512	-0.0017043671
55	0x3cdebd3c	0.027189843
56	0xbdd424c9	-0.10358579
57	0x3d080cbd	0.033215273
58	0x3d00e592	0.031468935
59	0x3cf6da84	0.030133493
60	0x3cddea7b	0.027089348
61	0xbcd2d3da	-0.025735784
62	0xbcaa8465	-0.020815084
63	0x3d1518cc	0.0364006
64	0x3b996bbc	0.0046820324
65	0x3dd8c683	0.10584738
66	0x3d19a208	0.03750804
67	0xbd3b9c1f	-0.045803186
68	0xbd8229b0	-0.063556075
69	0x3d384492	0.04498727
70	0x3d5396e2	0.051657565
71	0x3d062de2	0.0327586
72	0xbc8adeee	-0.016952004
73	0x3ce10000	0.02746582
74	0xbc777572	-0.015103685
75	0x3d3d7d7a	0.046262242
76	0x3cec84c3	0.0288719
77	0x3df43773	0.119246386
78	0x3d9c1aec	0.076223224
79	0x3dd08d96	0.101832554
80	0x3b4608db	0.003021768
81	0xbd7d6b20	-0.06186974
82	0xbc534388	-0.012894519
83	0xbd1075ec	-0.03526871
84	0xbbd56987	-0.006512824
85	0xbb468727	-0.003029296
86	0x3db6521b	0.08902379
87	0x3dbfc43b	0.093636
88	0x3c4211df	0.011845081
89	0x3c708303	0.014679673
90	0xbd6e2eb3	-0.058150005
91	0x3d01dbe2	0.031703837
92	0xbc0f3184	-0.008739833
93	0x3ce32ec6	0.027732264
94	0xbd61a77f	-0.055091377
95	0x3c97ebfb	0.018545141
96	0x3c839120	0.016060412
97	0x3cf959dc	0.030438356
98	0xbd5b7d92	-0.05358655
99	0xbc9e6030	-0.019332975
100	0xbd4ac75e	-0.049506538
101	0x3d045552	0.03230793
102	0x3d3ec071	0.046570245
103	0xbc87559f	-0.01652032
104	0xbd24ae80	-0.04020548
105	0x3ccf2209	0.025284784
106	0xbd43335f	-0.047656413
107	0xbc62bfda	-0.013839686
108	0x3cbed9d8	0.023297235
109	0xbbebea20	-0.0071995407
110	0xbd448179	-0.047975037
111	0x3d424025	0.047424454
112	0xbd1d1082	-0.03834582
113	0xbc80bd80	-0.01571536
114	0x3ca5d157	0.020241423
115	0xbd59b7cf	-0.05315381
116	0x3d4e41b3	0.050355624
117	0x3d456058	0.048187584
118	0x3d154cdf	0.036450263
119	0xbd1670c7	-0.036728647
120	0x3d1bcbe2	0.038036235
121	0x3d01655f	0.031590816
122	0xba449aec	-0.0007499892
123	0xbd638b7d	-0.05555295
124	0xbc96b374	-0.018396117
125	0xbd1567a7	-0.036475804
126	0x3d51f038	0.05125448
127	0xbd7d6769	-0.061866198
128	0xbd002a2e	-0.031290226
129	0xbd1a49f6	-0.03766819
130	0xbcabf6cf	-0.020991711
131	0xbd21d151	-0.03950626
132	0x3d52fe3c	0.051511988
133	0xbc3f3169	-0.011669495
134	0xbd28cac0	-0.041208982
135	0x3ac1d925	0.0014789446
136	0xbd759dae	-0.05996483
137	0x3bc58999	0.006028366
138	0xbcded9e8	-0.027203515
139	0x3d36db88	0.044642955
140	0xbc54a7e8	-0.012979485
141	0xbca19ec4	-0.019729026
142	0x3cfe1f4c	0.031020783
143	0x3d2e5193	0.042558264
144	0xbd07871f	-0.033087846
145	0x3d0d0bbb	0.034435015
146	0x3d3743af	0.044742282
147	0xbd71b816	-0.05901345
148	0xbd6b9c96	-0.05752238
149	0x3d571402	0.052509315
150	0x3d462630	0.048376262
151	0x3c6adc8a	0.014334807
152	0xbc6d2c8b	-0.014475952
153	0x3d382b1d	0.04496299
154	0xbd4ade2f	-0.049528297
155	0xbb81ed5b	-0.0039650626
156	0x3cf47205	0.029839525
157	0xbc21b2f2	-0.009869324
158	0x3c8319d0	0.01600352
159	0xbccde738	-0.025134668
160	0xbce1b9f3	-0.027554488
161	0xbc000618	-0.007813953
162	0x3c392317	0.01129987
163	0x3c6db04f	0.014507367
164	0xbc6b1d86	-0.014350301
165	0xbc63e81b	-0.013910319
166	0x3c94c217	0.018158955
167	0x3cea2c3c	0.028585546
168	0xbc74b15c	-0.014934864
169	0xbd296fb3	-0.04136629
170	0xbc05d095	-0.008167406
171	0x3c5fec96	0.013667246
172	0x3cdc3bac	0.026883923
173	0x3d3a0a30	0.04541987
174	0x3b6eaa5a	0.0036417455
175	0xbd001d99	-0.031278227
176	0x3d444dd7	0.047925796
177	0xbd210778	-0.039313763
178	0x3c5e4bff	0.013567924
179	0xbd301533	-0.042988967
180	0x3d1e1a73	0.038599443
181	0xbd4e28cd	-0.05033188
182	0x3d269a22	0.040674336
183	0xbd09c8cb	-0.033638757
184	0xbc1346e9	-0.008989074
185	0x3d1b8a05	0.037973423
186	0x3c00613b	0.007835682
187	0xbcc977d8	-0.024593279
188	0x3c1def66	0.009639597
189	0xbd0a3a65	-0.033747096
190	0x3cb9834d	0.022645617
191	0xbd3fa81e	-0.04679119
192	0x3bb7fb49	0.0056146723
193	0xbc24d678	-0.010060899
194	0x3d09699c	0.033547983
195	0xbc6a6c1b	-0.014308001
196	0x3d71f88c	0.059074923
197	0xbc86ee70	-0.016471118
198	0x3d1f5ff0	0.038909853
199	0x3d02e710	0.03195864
200	0xbd16110a	-0.036637343
201	0x3cb918e8	0.022594884
202	0xbd0a585c	-0.033775672
203	0x3bbdf2ce	0.005796767
204	0x3bd1bacf	0.006400443
205	0xbd631d2b	-0.05544774
206	0x3d12df03	0.03585721
207	0xbc334c37	-0.010943464
208	0xbc142140	-0.009041131
209	0xbd76ff28	-0.06030193
210	0x3d9ae5c4	0.075633556
211	0x3cc6da91	0.024274142
212	0xbcdb7f03	-0.026793962
213	0x3b17e696	0.0023178211
214	0x3d18ad15	0.03727444
215	0x3b5d9eb4	0.0033816518
216	0xbd0715f3	-0.032979917
217	0xbb0aaa31	-0.002115857
218	0xbc62f903	-0.013853314
219	0x3d29ed7f	0.04148626
220	0xbb938aa9	-0.0045026136
221	0x3c615e42	0.013755383
222	0x3bc8ebf4	0.0061316434
223	0x3ce41f39	0.02784692
224	0x3d1e1b66	0.038600348
225	0xbca9c8bd	-0.020725602
226	0x3c9eaa3f	0.019368289
227	0x3ab5bd56	0.0013865631
228	0x3da5fc8a	0.08104809
229	0xbcbdaeef	-0.023154704
230	0xbd585b7f	-0.052821632
231	0x39a6f440	0.00031843968
232	0xbd8cd0cc	-0.06875762
233	0xbe045a5e	-0.12925097
234	0xbe0b3993	-0.13596182
235	0xbd38c62b	-0.045110863
236	0xbc525953	-0.012838679
237	0xbd9c71be	-0.07638882
238	0xbe12dcc1	-0.14342023
239	0xbe875c91	-0.2643781
240	0x3b6faa62	0.0036570062
241	0x3d1dd652	0.03853447
242	0x3d3bd6a5	0.045858998
243	0x3d03a46e	0.032139234
244	0xbe0a1393	-0.1348403
245	0x3d3ae727	0.0456306
246	0x3d210563	0.039311778
247	0xbd01d15b	-0.031693798
248	0x3e0780a6	0.13232669
249	0x3c81309a	0.015770245
250	0x3d0ca112	0.034333296
251	0xbd1ef139	-0.038804267
252	0xbd8070c1	-0.06271506
253	0x3d37e646	0.04489734
254	0xbc68cb4a	-0.014208624
255	0xbe1ffb9c	-0.15623325

conv2.bias f4 [8]
0	0xbda7afa5	-0.081877984
1	0xbc959bcf	-0.018262772
2	0x3daba966	0.083819196
3	0x3d0abd93	0.0338722
4	0xbd9b3562	-0.07578541
5	0xbd3170f3	-0.043320607
6	0xbd207402	-0.039173134
7	0xbd254d54	-0.04035695

conv3.weight f4 [3, 8, 3, 3]
0	0x3baf481c	0.0053491723
1	0xbdae5c0c	-0.0851365
2	0x3d805a68	0.062672436
3	0x3d83626a	0.06415255
4	0xbc91d7ea	-0.017803151
5	0x3d9956e2	0.07487275
6	0xbd31f5d9	-0.04344735
7	0xbd1fae0f	-0.038984355
8	0xbdf38449	-0.11890466
9	0xbc79f5fa	-0.015256399
10	0xbc3b438b	-0.011429678
11	0x3da0631d	0.07831404
12	0x3d60ed23	0.05491365
13	0x3d99fd39	0.075190015
14	0x3bfe866e	0.00776749
15	0x3d8abe21	0.067745455
16	0x3d71bd32	0.05901832
17	0x3d1c0462	0.038090117
18	0xbce6a0c8	-0.028152838
19	0xbd902417	-0.070381336
20	0xbd0d5d1a	-0.034512617
21	0xbe14b9d3	-0.14524011
22	0xbe2d28c5	-0.16910084
23	0x3d9527c3	0.072829746
24	0xbd5d8629	-0.054083023
25	0xbdd6bc34	-0.10485116
26	0xbda4de2e	-0.0805019
27	0x3ba336ed	0.004980913
28	0xbc8c172b	-0.017100891
29	0xbd91af8c	-0.07113561
30	0x3dc04c36	0.09389536
31	0x3dd458c4	0.10368493
32	0x3c3e73cc	0.011624288
33	0xbdf24b94	-0.11830822
34	0xbd5889d5	-0.052865822
35	0xbd331178	-0.04371783
36	0x3cccfb5d	0.025022203
37	0x3dc8d275	0.098057665
38	0xbd4fd288	-0.050737888
39	0x3dd9c501	0.10633279
40	0x3df9b0a3	0.12191894
41	0xbd961293	-0.073277615
42	0xbd1af7d4	-0.037834004
43	0xbd232b81	-0.03983641
44	0xbc9b61df	-0.018967567
45	0x3da53115	0.08066002
46	0x3d4fe0a7	0.050751355
47	0x3cbb521f	0.022866307
48	0x3cf4c4ef	0.029879062
49	0x3ce755f8	0.028239235
50	0xbd808744	-0.062758
51	0xbd916f57	-0.071013145
52	0xbdb97003	-0.09054568
53	0xbcc9543a	-0.024576295
54	0x3d67ced5	0.056593735
55	0x38e9c05a	0.00011146134
56	0x3d36c489	0.044621024
57	0x3d83fb4f	0.06444418
58	0x3c9ddae9	0.019269424
59	0x3cbc9847	0.02302183
60	0x3da8af21	0.08236528
61	0x3d9a69ea	0.07539733
62	0xbda437fb	-0.0801849
63	0xbc57e2a5	-0.013176595
64	0xbd138ca7	-0.03602281
65	0xbde87101	-0.11349679
66	0x3c3cd00e	0.0115242135
67	0xbd28306f	-0.041061815
68	0x3d9da599	0.07697601
69	0x3a425f7e	0.0007414742
70	0xbc128d41	-0.00894481
71	0x3e0eef3c	0.13958448
72	0xbdb1a32e	-0.08673702
73	0xbd92a956	-0.071612045
74	0xbc25a03f	-0.010109006
75	0xbdacf5fa	-0.08445354
76	0xbdb7afb0	-0.089690566
77	0xbd415d15	-0.04720791
78	0x3cdf3d54	0.027250923
79	0xbd830e86	-0.063992545
80	0xbc9e318b	-0.019310733
81	0xbdf1d743	-0.11808636
82	0xbe0bff6c	-0.13671654
83	0xbdd52e35	-0.10409204
84	0xbdb83778	-0.08994955
85	0xbdd85a29	-0.10564072
86	0x3d306b9b	0.04307137
87	0xbd523552	-0.05132038
88	0x3df32ad7	0.118734054
89	0xbd723914	-0.059136465
90	0x3d6eb8c4	0.058281675
91	0xbe07a396	-0.13245997
92	0xbc7c4032	-0.015396165
93	0x3d9f5fcb	0.07781943
94	0x3bac13b7	0.0052513736
95	0xbe0f9531	-0.14021756
96	0x3d134927	0.035958435
97	0xbde2493b	-0.11049124
98	0xbd8c9bfc	-0.06865689
99	0xbdd30bd5	-0.10304991
100	0xbd24a0cd	-0.040192414
101	0xbde33473	-0.11093988
102	0xbdbd8083	-0.09253027
103	0xbda4e17a	-0.08050819
104	0xbde19d59	-0.1101634
105	0xbde2bec7	-0.11071544
106	0x3c52a40c	0.012856495
107	0x3d4f4b5d	0.05060898
108	0x3d1dcb24	0.038523808
109	0xbcbba94f	-0.022907881
110	0xbd34d6d5	-0.044150192
111	0x3d2482b9	0.04016373
112	0x3d91374f	0.070906274
113	0xbbaa2663	-0.0051925643
114	0xbd9c53db	-0.07633182
115	0xbdb5376c	-0.088484615
116	0xbddc2180	-0.10748577
117	0x3d5b1647	0.053488042
118	0xbda594ad	-0.08084998
119	0xbd9f9647	-0.07792335
120	0xbc530324	-0.012879167
121	0xbcfceacd	-0.03087368
122	0x3d33b89e	0.043877237
123	0xbd8d5e8f	-0.06902801
124	0xbb2ccda4	-0.0026367689
125	0xbdfdb911	-0.12388814
126	0xbd00b1e9	-0.03141967
127	0xbdb9e265	-0.090763845
128	0xbc6536ce	-0.013990117
129	0x3dd8d17a	0.105868295
130	0x3cbe13f0	0.023202866
131	0xbda1adee	-0.078945026
132	0x3c80ce77	0.01572345
133	0xbdb9f126	-0.090791985
134	0xbd780eb8	-0.060560912
135	0x3d06d41f	0.03291714
136	0x3d4b431a	0.04962454
137	0xbd4f2e5b	-0.050581317
138	0x3bf1f337	0.00738373
139	0x3d4c7d93	0.049924444
140	0xbdca7651	-0.09885848
141	0xbda62b91	-0.081137784
142	0xbe424b75	-0.18974097
143	0xbde36093	-0.111024044
144	0x3bcf1cba	0.006320563
145	0xbd4ab125	-0.049485344
146	0x3d8fdffa	0.07025142
147	0x3d9badc0	0.076014996
148	0x3db32150	0.08746588
149	0x3da09f3a	0.0784287
150	0x3ce5211a	0.027969886
151	0x3dacf9a1	0.084460504
152	0xbddb9a56	-0.107227966
153	0xbd897923	-0.06712558
154	0x3da90842	0.08253528
155	0x3da588ff	0.080827706
156	0xbce6f835	-0.028194526
157	0xbda6dd27	-0.0814765
158	0xbd46e0e9	-0.048554335
159	0x3cebfdbe	0.028807517
160	0x3de6b023	0.11264064
161	0x3d77b401	0.0604744
162	0x3b679317	0.0035335475
163	0xbd149da8	-0.036283165
164	0xbdd28a00	-0.10280228
165	0x3d209ca6	0.03921189
166	0xbe78ec1c	-0.24308819
167	0xbd550f31	-0.05201644
168	0xbca928f3	-0.020649409
169	0xbe3be827	-0.18350278
170	0x3cae7ac7	0.02129878
171	0xbde7ef47	-0.113249354
172	0x3d987b96	0.07445447
173	0x3d94a990	0.07258904
174	0x3c8730fe	0.016502853
175	0xbd9974ba	-0.07492967
176	0x3cea760b	0.02862074
177	0x3d7ee209	0.062227283
178	0xbde89737	-0.11356967
179	0x3ceddad4	0.02903501
180	0xbdbc70b7	-0.09201186
181	0x3db86bf6	0.09004967
182	0x3db6a910	0.08918965
183	0x3d903b17	0.070425205
184	0x3d89c3b0	0.067267776
185	0x3d7078b8	0.058708876
186	0xbd1c9da9	-0.038236294
187	0xbc0e1447	-0.008671827
188	0xbd57fb7d	-0.052730072
189	0x3d00017e	0.031251423
190	0xbc84b7ca	-0.016200919
191	0x3d8b9309	0.06815154
192	0x3d9d1057	0.07669132
193	0xbd9df968	-0.07713586
194	0xbda0c1de	-0.07849477
195	0x3c1520c8	0.009102054
196	0x3d8f4966	0.069964215
197	0xbd5bd42a	-0.053669132
198	0xbd457213	-0.048204493
199	0xbdb36152	-0.08758797
200	0x3bb95107	0.005655411
201	0x3dd5fabd	0.10448215
202	0x3d670e9e	0.056410424
203	0xbd931048	-0.0718084
204	0x3d1a8a62	0.03772963
205	0xbd4e7188	-0.05040124
206	0xbd791fe2	-0.06082142
207	0x3db2c2bc	0.08728549
208	0x3e1374ee	0.14400074
209	0xbe006cc2	-0.12541488
210	0xbd8dab1b	-0.069174014
211	0x3b186b8f	0.002325747
212	0xbd8e2171	-0.06939972
213	0xbd84abb2	-0.06478061
214	0x3bb313c0	0.005465001
215	0x3bbff6dc	0.0058582854

conv3.bias f4 [3]
0	0xbd0346f5	-0.03205009
1	0x3d01c27d	0.03167962
2	0x3d739ce0	0.05947578

conv4.weight f4 [8, 3, 3, 3]
0	0xbe52f03f	-0.20599459
1	0x3d9ac3f2	0.07556905
2	0x3d011d16	0.03152188
3	0x3da1e095	0.07904164
4	0x3e4553e7	0.19270287
5	0xbd162ace	-0.036661915
6	0x3d5f7941	0.054558996
7	0xbe54c3e1	-0.20777847
8	0xbe43ecb1	-0.1913326
9	0x3d69dbe6	0.057094477
10	0x3d436baa	0.0477101
11	0x3d8329be	0.06404446
12	0xbda87a9e	-0.08226512
13	0x3cbdf356	0.02318732
14	0x3e167f38	0.14696968
15	0x3db3af8e	0.08773719
16	0xbe09b797	-0.1344894
17	0xbd7fd947	-0.06246307
18	0x3e231640	0.15926456
19	0xbd4a2b13	-0.049357485
20	0xbdfb8cd3	-0.122827195
21	0x3e61fc0d	0.22068806
22	0x3e5eab92	0.21745136
23	0x3e25a850	0.16177487
24	0x3d9bab2d	0.076010086
25	0xbd452bd6	-0.04813751
26	0x3b0ae2ef	0.0021192392
27	0xbeb8975a	-0.36052972
28	0x3d33cea8	0.043898255
29	0xbe02da7e	-0.1277866
30	0xbe9dfa71	-0.30855134
31	0xbdbe50e5	-0.09292773
32	0x3e7a1244	0.2442103
33	0xbbcbe4c5	-0.00622234
34	0xbd361614	-0.04445465
35	0x3e22a564	0.15883404
36	0x3af47080	0.001864925
37	0x3e3c870d	0.18410893
38	0x3e449fb3	0.19201545
39	0x39910200	0.00027658045
40	0xbdbca5cc	-0.09211311
41	0xbbddc16a	-0.0067674415
42	0x3e20f95e	0.15720126
43	0xbe1af32c	-0.15131825
44	0xbe045f4e	-0.12926981
45	0xbd967b7d	-0.07347772
46	0x3ddd1d8d	0.10796652
47	0xbd975227	-0.07388716
48	0xbe4c8bba	-0.19975176
49	0x3e19b899	0.15011825
50	0x3e0841ad	0.13306303
51	0x3bb85236	0.0056250347
52	0x3e5764c2	0.2103453
53	0x3de59535	0.112100996
54	0x3e27e3ad	0.16395445
55	0xbe020230	-0.12696147
56	0xbe3d073d	-0.18459792
57	0xbb94f624	-0.004545944
58	0x3dab765c	0.08372185
59	0xbe8c112c	-0.2735685
60	0xbe338840	-0.17532444
61	0xbd9e17c4	-0.07719377
62	0xbdd6c01b	-0.1048586
63	0xbd896893	-0.06709399
64	0x3d0a4cb3	0.033764552
65	0x3e39bd93	0.18138723
66	0xbd61694b	-0.055032056
67	0xbdee9fd7	-0.11651581
68	0x3e008736	0.12551579
69	0xbd3b7449	-0.045765195
70	0xbe2b03d5	-0.1670068
71	0x3e09e8d2	0.1346772
72	0xbda2238f	-0.079169385
73	0x3e11f6eb	0.14254348
74	0xbd6d268b	-0.057898086
75	0x3cb3777c	0.02190756
76	0xbd14a214	-0.036287382
77	0x3c96a336	0.018388372
78	0xbe152707	-0.14565669
79	0xbe479d84	-0.19493681
80	0x3e09e5cf	0.13466571
81	0x3e0c3813	0.13693266
82	0x3d6bd8e0	0.057579875
83	0xbe3f7bfd	-0.18699642
84	0xbdb066b7	-0.08613341
85	0x3e32e15c	0.1746878
86	0xbd28ced3	-0.041212868
87	0xbe07434e	-0.13209268
88	0xbe32af43	-0.1744967
89	0x3dd4df3b	0.1039414
90	0x3cd7e458	0.026354
91	0x3e2508c5	0.16116627
92	0xbe38444d	-0.17994805
93	0xbe1d67cc	-0.15371627
94	0xbdbca224	-0.09210613
95	0xbd2b0810	-0.041755736
96	0x3dae310e	0.0850545
97	0x3e41bd8b	0.18919961
98	0xbd84ab4e	-0.06477986
99	0xbda2d955	-0.07951609
100	0x3cd8a4d8	0.026445791
101	0x3e37133d	0.17878433
102	0xbe328005	-0.17431648
103	0xbdeb31bd	-0.11484096
104	0x3cf49ec5	0.029860863
105	0x3dcf3aa0	0.10118604
106	0x3db39659	0.08768911
107	0x3b72ab26	0.0037028282
108	0xbdab081d	-0.08351157
109	0x3d4bf3ef	0.04979318
110	0xbd538751	-0.05164272
111	0x3e0fb54b	0.14034002
112	0x3e1e0079	0.15429868
113	0x3dde1168	0.10843164
114	0xbda0215f	-0.07818865
115	0xbd7f40f3	-0.0623178
116	0x3e01db57	0.12681328
117	0x3c618130	0.013763711
118	0x3d0a69da	0.033792354
119	0x3db4501b	0.088043414
120	0xbdc8bbd8	-0.09801453
121	0x3d8a4855	0.067520775
122	0xbe0f2920	-0.13980532
123	0x3e25c515	0.16188462
124	0x3cc273b4	0.023736812
125	0xbe2dca58	-0.1697172
126	0xbd16058f	-0.036626395
127	0x3e0dec7e	0.13859746
128	0xbcb302bb	-0.021851888
129	0x3e3e6e4c	0.18596762
130	0x3dc5a371	0.096503146
131	0xbe143cab	-0.14476268
132	0xbd0f782a	-0.035026707
133	0x3ddfac8b	0.10921582
134	0xbe42eb74	-0.1903513
135	0x3d1b3f9d	0.037902463
136	0x3c9262a8	0.017869309
137	0x3d7a0f11	0.061049525
138	0xbce8dbbe	-0.028425094
139	0xbdf862a8	-0.12128192
140	0xbe4ad55d	-0.19807954
141	0x3e1f650d	0.15565892
142	0xbb8b39d4	-0.004248837
143	0xbe0d9eb2	-0.13830069
144	0xbe0ae4b2	-0.13563803
145	0x3ddbabc1	0.10726119
146	0xbe40aadc	-0.18815178
147	0x3e2bf733	0.16793518
148	0xbc5035fa	-0.0127081815
149	0xbdb4d2ef	-0.08829295
150	0x3d8b5d9d	0.06804965
151	0x3e1fab5a	0.15592709
152	0xbdd6064a	-0.10450418
153	0xbddebf42	-0.10876323
154	0xbd014768	-0.03156224
155	0xbde33052	-0.11093201
156	0xbe1f226e	-0.15540478
157	0xbd9279a5	-0.07152108
158	0x3d62201a	0.055206396
159	0xbdc536fb	-0.09629627
160	0xbce6ef9e	-0.02819043
161	0x3de0102c	0.109405845
162	0x3b6eca26	0.0036436408
163	0xbdf99dfe	-0.12188338
164	0x3e116abe	0.14200875
165	0xbc3c2aac	-0.011484783
166	0x3ddfd187	0.10928636
167	0x3dd71934	0.10502854
168	0xbde61139	-0.11233754
169	0xbd2c2695	-0.042028982
170	0xbe0b54e8	-0.13606608
171	0x3d43a09b	0.047760587
172	0x3dd1c9ed	0.102435924
173	0xbd8a54c7	-0.06754451
174	0xbd24ac8c	-0.040203616
175	0x3d00c13c	0.031434283
176	0xbda4a94f	-0.080401056
177	0x3d52c0f2	0.05145354
178	0xbe1d354f	-0.15352367
179	0x3b231674	0.002488521
180	0xbe34799d	-0.17624517
181	0x3da9e8b5	0.082963385
182	0x3bc56cd2	0.0060249353
183	0xbd71c8db	-0.05902944
184	0x3e58c25e	0.21167895
185	0xbe4d746f	-0.20063947
186	0xbdaee9d9	-0.08540697
187	0x3c7eda5c	0.015554991
188	0xbdbe5038	-0.09292644
189	0xbe25d592	-0.16194752
190	0xbe4aef90	-0.19817948
191	0x3d1c4dfa	0.0381603
192	0xbc18a3ea	-0.009316424
193	0xbd245cc8	-0.040127546
194	0xbcbaa878	-0.02278541
195	0x3d6d6d63	0.057965647
196	0x3dad1812	0.08451857
197	0xbd29211e	-0.04129135
198	0xbdd17b4a	-0.10228594
199	0x3e360f59	0.17779292
200	0x3e2417b1	0.16024663
201	0x3daa17c6	0.08305316
202	0x3e2163cb	0.15760724
203	0xbd1db277	-0.038500275
204	0xbe41baea	-0.18918958
205	0xbd67a193	-0.056550574
206	0x3d1486e4	0.036261454
207	0xbcc60622	-0.024172846
208	0x3da838cd	0.08213959
209	0x3db7bd22	0.08971621
210	0xbe3f861f	-0.18703507
211	0xbde89355	-0.11356226
212	0xbdea7b78	-0.11449331
213	0x3e14574b	0.14486425
214	0x3e5141fa	0.20435324
215	0xbdcbd28e	-0.099522695

conv4.bias f4 [8]
0	0x3d8bf050	0.06832945
1	0xbccd2f7e	-0.02504706
2	0x3ddd08e0	0.107927084
3	0xbe4f65fc	-0.20253748
4	0xbc1cfe7b	-0.009582157
5	0x3e5ca6f2	0.2154806
6	0x3e3b022d	0.18262549
7	0x3e3ec372	0.18629244

conv5.weight f4 [12, 8, 5, 5]
0	0x3d15a92d	0.03653829
1	0x3d564dda	0.05232034
2	0x3bfb0db5	0.007661546
3	0x3c9310ed	0.017952407
4	0xbcf4ef47	-0.029899253
5	0x3c32b6f1	0.010907874
6	0x3daeb6ac	0.08530936
7	0x3dba50ca	0.090974405
8	0x3d9e97e5	0.07743815
9	0x3da7e32c	0.081976265
10	0x3de565c5	0.112010516
11	0x3dfdbf59	0.12390012
12	0x3df1945a	0.11795874
13	0x3c36c30e	0.011154903
14	0x3d3fdfe7	0.04684439
15	0x3d8e92f6	0.06961624
16	0x3d89ba44	0.067249805
17	0x3cc23732	0.02370796
18	0xbd0fac11	-0.035076205
19	0x3d4f24da	0.050572254
20	0xbbf2f42b	-0.007414361
21	0xbbfd4f7c	-0.0077304225
22	0x3d5d4d83	0.054029
23	0x3c70be5f	0.0146938255
24	0xbd3a6e46	-0.04551532
25	0xbe54d497	-0.20784222
26	0xbc72f202	-0.014828207
27	0x3d4b4fe8	0.04963675
28	0xbe547282	-0.20746806
29	0xbe125ff6	-0.14294419
30	0xbe192a5a	-0.14957562
31	0x3dc6edce	0.097133264
32	0x3e02e2fb	0.12781899
33	0xbd555307	-0.052081134
34	0xbd21f41b	-0.039539438
35	0xbc70a12e	-0.014686866
36	0x3e2d34ae	0.16914627
37	0x3e10c6d8	0.14138353
38	0xbd8757f3	-0.06608572
39	0xbd29d6d4	-0.04146464
40	0xbde12f98	-0.10995406
41	0x3d3d3eec	0.046202585
42	0x3d47dc32	0.04879398
43	0xbd283a03	-0.04107095
44	0xbd90f1f7	-0.07077401
45	0xbd84f1eb	-0.06491455
46	0x3dfcee36	0.12350123
47	0x3de1e7db	0.11030551
48	0xbe153017	-0.14569126
49	0xbdd92a4e	-0.10603772
50	0xbd3915f3	-0.045186948
51	0x3d2fd41e	0.0429269
52	0x3cc7493e	0.024326917
53	0xbcd92441	-0.026506545
54	0xbca45c94	-0.020063676
55	0xbcf01960	-0.029308975
56	0x3d4f7f17	0.05065831
57	0x3de25de8	0.110530674
58	0x3d9eca48	0.07753426
59	0x3d82a97c	0.06379983
60	0xbcfad65b	-0.03061979
61	0xbcb3e953	-0.021961844
62	0x3c976f68	0.01848574
63	0x3d95922b	0.0730327
64	0x3d9e8a6f	0.07741248
65	0x3ce2b5c6	0.027674567
66	0xbcfb2263	-0.030656045
67	0x3cbc111f	0.022957383
68	0x3d19e8f2	0.03757567
69	0x3d261b99	0.040553663
70	0x3d235f9f	0.039886113
71	0xbd37bf3c	-0.04486011
72	0x3d8e6087	0.06952005
73	0xbca646f1	-0.0202975
74	0xbd5b1112	-0.053483076
75	0xbd65123e	-0.0559256
76	0x3d76b450	0.060230553
77	0xbd48366c	-0.048880026
78	0xbc93182e	-0.017955866
79	0xbd688b90	-0.056773722
80	0xbd86375a	-0.06553526
81	0xbd153958	-0.03643164
82	0x3d0eb3ee	0.034839563
83	0x3d089893	0.03334863
84	0x3d24916e	0.040177755
85	0x3d47ea86	0.048807643
86	0x3c9fc95c	0.019505195
87	0x3d449711	0.04799563
88	0xbb26034f	-0.0025331562
89	0xbb56420d	-0.0032693178
90	0x3d460668	0.048345953
91	0x3b9bece7	0.0047584656
92	0xbd00cba0	-0.031444192
93	0x3c8c9f9a	0.017165948
94	0x3d8d8786	0.06910615
95	0x3d3a5b2e	0.045497112
96	0xbd0b67fe	-0.03403472
97	0x3d89968a	0.06718166
98	0x3d00e9b5	0.03147288
99	0x3d1c1905	0.038109798
100	0xbd92fdf1	-0.07177342
101	0x3be2b446	0.006918463
102	0xbdeda94c	-0.116045564
103	0xbe0d4f84	-0.13799864
104	0xbd96d71f	-0.0736525
105	0x3bce6c5c	0.0062995385
106	0x3d381032	0.04493732
107	0x3d31b6b9	0.04338715
108	0xbd8114a7	-0.06302767
109	0xbce944ff	-0.028475283
110	0x3d28613f	0.041108366
111	0xbbeaa242	-0.007160456
112	0xbca0659d	-0.019579703
113	0xbda4395d	-0.08018754
114	0xbda2669d	-0.07929728
115	0xbbea50d1	-0.0071507473
116	0xbd4c4e70	-0.04987949
117	0xbd58e1ab	-0.05294959
118	0xbdce397b	-0.10069557
119	0x3bda02a1	0.0066531454
120	0xbc7a0097	-0.01525893
121	0xbd22b5a1	-0.039723996
122	0x3c851831	0.016246887
123	0x3c276a8b	0.010218273
124	0x3c497fa4	0.012298498
125	0xbd07d2d2	-0.03316004
126	0x3d3d0460	0.04614675
127	0xbd18cf8a	-0.0373073
128	0x3c02f691	0.007993356
129	0xbcb3b440	-0.021936536
130	0x3d3e1963	0.04641093
131	0x3d8646e5	0.06556491
132	0xba80512b	-0.0009789815
133	0xbd7a97db	-0.061179977
134	0x3b6de215	0.0036298085
135	0x387bad37	6.0004382e-05
136	0x3c79108d	0.0152017
137	0x3d19a0ac	0.037506744
138	0x3c6c0c50	0.014407232
139	0xbdb2832b	-0.087164246
140	0xbcdba85b	-0.026813677
141	0x3d402038	0.046905726
142	0x3d6b9b5f	0.05752122
143	0xbd49011e	-0.04907333
144	0xbd9517ae	-0.07279907
145	0xbd78bb43	-0.06072546
146	0xbd83ec93	-0.06441607
147	0x3c915dd7	0.017744942
148	0xbd3ce00f	-0.046112116
149	0xbe00e3cc	-0.12586898
150	0xbc6e7537	-0.014554313
151	0xbc726c79	-0.01479637
152	0xbd4cee6c	-0.050032064
153	0x3d39795d	0.045281757
154	0xbda61f18	-0.081113994
155	0xbc955618	-0.01822953
156	0xbbb65866	-0.005564737
157	0x3d416ee9	0.047224913
158	0x3d2b47fb	0.041816693
159	0x3c3dfa2d	0.011595291
160	0x3d74b019	0.059738252
161	0x3d7c33be	0.061572783
162	0xbd0dba50	-0.03460151
163	0xbd4e6389	-0.050387893
164	0x3ca98b24	0.02069623
165	0x3d148e55	0.03626855
166	0x3d22f322	0.03978265
167	0xbceccccc	-0.028906249
168	0xbb9e8425	-0.00483753
169	0xbbed5c8c	-0.0072436985
170	0x3d2557b0	0.04036683
171	0xbc35e947	-0.011102981
172	0xbd069036	-0.032852374
173	0x3c577403	0.013150218
174	0x3d31f798	0.043449014
175	0xbd374484	-0.044743076
176	0xbd6785ba	-0.056524016
177	0x3cfb42cc	0.0306715
178	0xbd9a727b	-0.07541367
179	0x3d07a0b0	0.033112228
180	0x3b9fbacd	0.0048745633
181	0x3d5367c6	0.051612638
182	0xbd06dd4d	-0.032925893
183	0x3cafe36e	0.021470752
184	0xbc481660	-0.012212366
185	0xbd66023b	-0.05615447
186	0x3c69d06c	0.014270883
187	0x3d6381a9	0.055543575
188	0x3db24a51	0.08705581
189	0xbd1016b4	-0.0351779
190	0x3d1892a6	0.03724923
191	0xbd46daa6	-0.048548363
192	0xbd13ebac	-0.036113426
193	0x3da9dd26	0.08294134
194	0x3d2f54e2	0.04280556
195	0x3ca3213d	0.01991331
196	0xbcc153d9	-0.023599552
197	0xbb8c6075	-0.0042839595
198	0x3d2e732e	0.042590313
199	0xbca132f7	-0.019677622
200	0xbb35920e	-0.0027705464
201	0x3dedf6dd	0.11619351
202	0x3e0ba2f5	0.13636382
203	0x3dc69a7a	0.09697433
204	0x3db8ff53	0.09033074
205	0xbd0493e6	-0.03236761
206	0x3de5fbb3	0.112296484
207	0x3d99b063	0.07504346
208	0x3d5f574e	0.05452662
209	0x3bbfb04d	0.005849874
210	0x3c91cc9b	0.017797759
211	0x3d1938d2	0.037407704
212	0xb8f3f551	-0.00011632837
213	0xbdace2e8	-0.084417164
214	0x3d293c76	0.041317426
215	0x3dee5bd5	0.11638609
216	0x3ced47c2	0.02896488
217	0xbcd669ed	-0.026173556
218	0x3ba0b92c	0.0049048867
219	0x3d8ff14f	0.07028448
220	0x3c1f611b	0.009727742
221	0x3d280e01	0.04102898
222	0x3cfaad52	0.030600224
223	0xbbd03cf4	-0.0063549224
224	0x3d06733f	0.03282475
225	0xbc711b6e	-0.014716012
226	0x3d18bd00	0.03728962
227	0x3d93826f	0.072026126
228	0xbce9fb32	-0.028562162
229	0x3e1c359c	0.15254825
230	0xbd01b65b	-0.03166805
231	0x3d49de65	0.049284358
232	0xbad38e9a	-0.0016140521
233	0x3e0142fd	0.1262321
234	0x3e33a557	0.17543541
235	0x3c4918b7	0.012273959
236	0x3d90aff3	0.0706481
237	0x3d9a5a0b	0.075367056
238	0x3d73e3d5	0.05954345
239	0x3eaebc5c	0.34128082
240	0xbd50e75d	-0.051001895
241	0x3deb95f0	0.11503208
242	0x3d8dc111	0.0692159
243	0x3d6b0a37	0.05738279
244	0x3e545673	0.20736103
245	0x3d6c4627	0.05768409
246	0x3e2a3d91	0.16625048
247	0xbbed79d8	-0.007247191
248	0xbc41cb95	-0.011828323
249	0xbd892f1e	-0.0669844
250	0x3c510e8f	0.012759819
251	0x3dd0daa9	0.10197956
252	0x3db76649	0.08955056
253	0x3b148776	0.0022663749
254	0xbd1bca6f	-0.038034853
255	0x3b820b6a	0.003968646

conv5.bias f4 [12]
0	0x3da766b8	0.08173889
1	0x3c64e869	0.0139714265
2	0x3cc9eb15	0.024648229
3	0x3bb1128d	0.0054038228
4	0x3d0bc8f2	0.034127183
5	0xbd9f1540	-0.07767725
6	0x3d00cc3d	0.031444777
7	0x3d1c8407	0.03821185
8	0xbc98a37c	-0.018632643
9	0x3b3cfa82	0.0028835838
10	0x3c9056bf	0.017619489
11	0x3d851374	0.06497851

conv6.weight f4 [6, 12, 7, 7]
0	0x3c106f25	0.008815561
1	0x3c13fdf8	0.009032719
2	0xbc60a6fa	-0.013711685
3	0xbd7a46b1	-0.061102573
4	0x3c25fda7	0.010131276
5	0xbc40d971	-0.011770592
6	0x3cd09926	0.025463652
7	0xbcdcb9da	-0.02694409
8	0xbd19c854	-0.037544563
9	0xbd637998	-0.055535883
10	0xbd585c76	-0.052822553
11	0x3ce7247c	0.02821564
12	0xbd138a23	-0.03602041
13	0xbd0a78c0	-0.033806562
14	0xbd49cbc8	-0.049266607
15	0x3b63fd8c	0.0034788577
16	0xb98f02b5	-0.00027277102
17	0xbc9bc2f2	-0.019013856
18	0xbcac94d5	-0.021067062
19	0xb99e1d5a	-0.00030157977
20	0xbd2a2eb7	-0.041548457
21	0xbd8a28dc	-0.067460746
22	0xbca260f6	-0.019821625
23	0xbd839be7	-0.064262204
24	0xb9f43fba	-0.00046586787
25	0x3c34caca	0.011034677
26	0xbd04def5	-0.03243919
27	0x3c6c1b7f	0.014410852
28	0xbd53c938	-0.05170557
29	0xbc0bb30d	-0.008526576
30	0xbce0f0d7	-0.027458591
31	0x3bf1e49f	0.00738199
32	0xbc9ae7b5	-0.018909315
33	0xbca90e34	-0.020636655
34	0x3c8c8396	0.017152589
35	0xbcbd09e8	-0.023076013
36	0xbca0c4ed	-0.019625152
37	0x3c7f67e1	0.0155887315
38	0xbd43333e	-0.04765629
39	0x3d0b5ce9	0.034024153
40	0x3ccd1e95	0.025038997
41	0xbd3cec6e	-0.046123914
42	0xbb8a7f94	-0.0042266343
43	0xbcc1b982	-0.023648027
44	0xbc98e3b8	-0.018663272
45	0xbc92cf65	-0.017921159
46	0xbcca7828	-0.024715498
47	0xbca0ac13	-0.019613301
48	0x3c9ca031	0.019119354
49	0xbc8b2d46	-0.016989361
50	0xbd8af012	-0.06784071
51	0xbc9c54ca	-0.0190834
52	0xbd4f6219	-0.050630663
53	0xbd95912a	-0.073030785
54	0xbc86f16e	-0.016472545
55	0xbd812a86	-0.06306939
56	0x3b0837e8	0.0020785276
57	0xba9a5c0e	-0.0011776702
58	0xbca99e74	-0.02070544
59	0xbd8cfd94	-0.06884304
60	0xbcdd893d	-0.02704298
61	0x3b0a4b64	0.0021102065
62	0xbc94f0bc	-0.018181197
63	0xbd77d7ec	-0.060508654
64	0xbd30072f	-0.0429756
65	0xbd8e67be	-0.06953381
66	0xbd99b324	-0.075048715
67	0xbd26a950	-0.040688813
68	0xbd5f680c	-0.054542586
69	0xbd8a0c67	-0.06740647
70	0xbd10d386	-0.035357974
71	0xbd95eaeb	-0.07320198
72	0xbce57d5c	-0.028013878
73	0xbd9c4cd9	-0.07631845
74	0xbd89cfe5	-0.06729106
75	0xbd71e65b	-0.059057575
76	0xbd00eeb0	-0.03147763
77	0x39dfda2a	0.0004269642
78	0xbbe14625	-0.006874817
79	0xbc54394f	-0.012953117
80	0xbd28dd1d	-0.041226495
81	0xbc620aaa	-0.013796488
82	0xbc432893	-0.011911529
83	0xbd24e1b6	-0.040254317
84	0x3cb59cd2	0.022169504
85	0xbb866516	-0.004101406
86	0xbd297cad	-0.041378666
87	0xbd56a27f	-0.052401062
88	0xbd469eda	-0.048491336
89	0x3c07418e	0.008255376
90	0x3c4505ec	0.012025338
91	0xbce4d4df	-0.027933536
92	0xbc5e2a11	-0.013559834
93	0xbcd18df6	-0.025580388
94	0x3ba873fe	0.0051407805
95	0x3b13d50d	0.0022557408
96	0x3caf9058	0.021431133
97	0xbd0623e9	-0.03274909
98	0x3ce907e8	0.028446153
99	0xbc0ce7cb	-0.008600186
100	0xbcbf7c8e	-0.023374822
101	0xbaa40dba	-0.0012516298
102	0x3c9936bc	0.018702857
103	0x3b427176	0.0029669679
104	0xbc48ca25	-0.012255226
105	0xbcfabb8e	-0.030607011
106	0xbcf2696f	-0.02959129
107	0x3ccb807c	0.02484154
108	0xbd1ef99c	-0.038812265
109	0xbc82981c	-0.015941672
110	0x3c402e79	0.01172983
111	0x3c367ec5	0.011138623
112	0xbccc04cd	-0.024904633
113	0xbbf8793e	-0.0075828126
114	0x3c7e433e	0.0155189615
115	0xbcbd90ea	-0.02314039
116	0xbce0b88b	-0.027431747
117	0x3ce59b7e	0.028028246
118	0xbc976e7e	-0.018485304
119	0x3c224e4b	0.009906362
120	0xbbd54d24	-0.00650944
121	0x3d02132b	0.03175656
122	0xbd1f49b1	-0.038888637
123	0xbd410ccd	-0.04713135
124	0x3c0d233f	0.00861436
125	0x3bc25738	0.0059308074
126	0x3d033093	0.032028746
127	0x3c8159b9	0.015789853
128	0x3c621cd1	0.013800816
129	0x3bbce45d	0.0057645277
130	0xbcb5c90b	-0.022190591
131	0x3cfb1266	0.030648421
132	0xbcb2ffb4	-0.021850444
133	0xbd3cce2d	-0.046095062
134	0x3bb937e7	0.005652416
135	0x3cda31ae	0.026635017
136	0x39387724	0.00017591991
137	0xbc54fdeb	-0.012999992
138	0x3c14ed0f	0.009089722
139	0x3cc37849	0.023861067
140	0x3cf941f2	0.030426953
141	0xbd25dd9b	-0.040494543
142	0xbc466c8b	-0.01211084
143	0x3bea7884	0.00715548
144	0x3c718d99	0.014743232
145	0xbd2210f1	-0.039566938
146	0xbcd8b7ac	-0.02645477
147	0xbd6f5c51	-0.05843765
148	0xbc3d49c1	-0.011553229
149	0xbdc5da89	-0.09660823
150	0xbe144a45	-0.14481457
151	0xbcdf9dbb	-0.027296891
152	0xbd2368c2	-0.039894827
153	0xbc93d70f	-0.018046884
154	0xbd7e5ebc	-0.062102064
155	0xbd9f7b82	-0.07787229
156	0xbd242474	-0.040073827
157	0xbe0a606e	-0.13513348
158	0xbd5a4dec	-0.05329697
159	0xbd1f991a	-0.03896437
160	0xbcdad0f3	-0.026710963
161	0xbb002f5e	-0.0019559483
162	0xbc9f55d6	-0.01945011
163	0xbdf16d1c	-0.11788389
164	0xbe2ebfcd	-0.17065354
165	0xbd8e61eb	-0.0695227
166	0xbdaf9b0a	-0.08574493
167	0xbd8dcc4b	-0.069237314
168	0xbd899917	-0.06718653
169	0xbe1f76da	-0.15572682
170	0xbe2ec299	-0.1706642
171	0xbe4234fd	-0.18965526
172	0xbe38a419	-0.18031348
173	0xbe08dbdd	-0.13365121
174	0xbde362a8	-0.111028016
175	0xbd73d522	-0.05952943
176	0xbdfb80aa	-0.122804
177	0xbdbbec37	-0.09175914
178	0xbe01c63d	-0.12673278
179	0xbda0afb9	-0.078460164
180	0xbd628369	-0.055301104
181	0xbe058fa8	-0.13043082
182	0xbd3aee63	-0.0456375
183	0xbd8b5001	-0.06802369
184	0xbda7da2f	-0.08195912
185	0xbdcb2707	-0.09919553
186	0xbdc74e1f	-0.09731697
187	0xbcaf7f88	-0.021423116
188	0xbd941fb6	-0.07232611
189	0x3bd94324	0.0066303182
190	0x3c08952a	0.008336345
191	0xbd71db11	-0.05904681
192	0xbdc75b5a	-0.09734221
193	0x3c348bd2	0.011019664
194	0xbcb6f58c	-0.022333883
195	0xbd2606b5	-0.04053374
196	0xbd54c345	-0.051944036
197	0xbb9b1ead	-0.0047338814
198	0xbb90063e	-0.0043952754
199	0xbd2ffbaa	-0.042964615
200	0xbb38cb66	-0.0028197407
201	0xbd219294	-0.03944643
202	0xbc5025bf	-0.012704312
203	0xbca54700	-0.020175457
204	0xbcfad6a0	-0.03061992
205	0x3c347000	0.011013031
206	0x3c3a6f05	0.011379008
207	0x3aff6be1	0.0019487106
208	0x3c968269	0.018372731
209	0xbd16ea5b	-0.036844593
210	0xbc9a6e18	-0.018851325
211	0x3c50ccb3	0.012744117
212	0xbc252d89	-0.010081657
213	0x3d1b23d9	0.037875984
214	0xbb09fb2f	-0.0021054258
215	0x3a95096c	0.0011370606
216	0x3cce87f3	0.02521131
217	0xbcf9be39	-0.030486213
218	0x3b83de33	0.004024291
219	0x3ca122f6	0.019669991
220	0xbbbeeba4	-0.0058264304
221	0xbc58b114	-0.013225812
222	0x3ce4a91e	0.027912673
223	0xbccd2824	-0.025043555
224	0xbc966420	-0.01835829
225	0xbc947135	-0.018120388
226	0xbc18cb02	-0.009325745
227	0xbc2a2da2	-0.010386856
228	0xbc048654	-0.008088667
229	0x3c9757eb	0.01847454
230	0xbcf3302b	-0.029686054
231	0xbce48031	-0.027893158
232	0xbc28d537	-0.010304741
233	0x3c97d849	0.01853575
234	0xbc3003d2	-0.010743098
235	0x3bc84d83	0.0061127557
236	0xbcfc3f5f	-0.030791936
237	0xbaa3c69b	-0.0012495102
238	0xbcd4b992	-0.025967393
239	0x3c7f7727	0.015592373
240	0x3ce6bda6	0.028166603
241	0xbd333e95	-0.043760855
242	0x393f24b1	0.00018228848
243	0xbd15a8fc	-0.03653811
244	0x3ce46bf0	0.0278835
245	0xbbaef225	-0.0053389245
246	0xba4194c9	-0.00073845364
247	0x3b97fed5	0.0046385326
248	0x3cce5ac8	0.025189772
249	0xbd0ab6cb	-0.03386573
250	0x3cbb2a25	0.022847245
251	0x3c5a4dd6	0.013324222
252	0x3c2318ae	0.009954615
253	0x3c3800dd	0.011230675
254	0xbcabf4fd	-0.020990843
255	0xbcf75a30	-0.030194372

conv6.bias f4 [6]
0	0xbd3191e9	-0.04335204
1	0xbc89bb0b	-0.016812822
2	0xbb41033f	-0.0029451398
3	0x3c00c14d	0.0078585865
4	0x3cb14380	0.021638632
5	0x3d11ca3e	0.035593264
