logs/epoch=4_v3.ckpt (torch_old, 153933 bytes, 36 tensors)

exp_avg f4 [12, 6, 7, 7]
000000 04 00 00 80 04 00 00 80 04 00 00 80 04 00 00 00
       -6e-45 -6e-45 -6e-45 6e-45
000010 04 00 00 00 04 00 00 00 04 00 00 00 04 00 00 80
       6e-45 6e-45 6e-45 -6e-45
000020 04 00 00 80 04 00 00 80 04 00 00 00 04 00 00 00
       -6e-45 -6e-45 6e-45 6e-45
000030 04 00 00 00 04 00 00 00 04 00 00 80 04 00 00 80
       6e-45 6e-45 -6e-45 -6e-45
000040 04 00 00 80 04 00 00 00 04 00 00 00 04 00 00 00
       -6e-45 6e-45 6e-45 6e-45
000050 04 00 00 00 04 00 00 80 04 00 00 80 04 00 00 80
       6e-45 -6e-45 -6e-45 -6e-45
000060 04 00 00 00 04 00 00 00 04 00 00 00 04 00 00 00
       6e-45 6e-45 6e-45 6e-45
000070 04 00 00 00 04 00 00 00 04 00 00 00 04 00 00 00
       6e-45 6e-45 6e-45 6e-45
000080 04 00 00 00 04 00 00 00 04 00 00 00 04 00 00 00
       6e-45 6e-45 6e-45 6e-45
000090 04 00 00 00 04 00 00 00 04 00 00 00 04 00 00 00
       6e-45 6e-45 6e-45 6e-45
0000a0 04 00 00 00 04 00 00 00 04 00 00 00 04 00 00 00
       6e-45 6e-45 6e-45 6e-45
0000b0 04 00 00 00 04 00 00 00 04 00 00 00 04 00 00 00
       6e-45 6e-45 6e-45 6e-45
0000c0 04 00 00 00 04 00 00 80 04 00 00 80 04 00 00 80
       6e-45 -6e-45 -6e-45 -6e-45
0000d0 04 00 00 00 04 00 00 00 04 00 00 00 04 00 00 00
       6e-45 6e-45 6e-45 6e-45
0000e0 04 00 00 80 04 00 00 80 04 00 00 80 04 00 00 00
       -6e-45 -6e-45 -6e-45 6e-45
0000f0 04 00 00 00 04 00 00 00 04 00 00 00 04 00 00 80
       6e-45 6e-45 6e-45 -6e-45
000100 04 00 00 80 04 00 00 80 04 00 00 00 04 00 00 00
       -6e-45 -6e-45 6e-45 6e-45
000110 04 00 00 00 04 00 00 00 04 00 00 80 04 00 00 80
       6e-45 6e-45 -6e-45 -6e-45
000120 04 00 00 80 04 00 00 00 04 00 00 00 04 00 00 00
       -6e-45 6e-45 6e-45 6e-45
000130 04 00 00 00 04 00 00 00 04 00 00 00 04 00 00 00
       6e-45 6e-45 6e-45 6e-45
000140 04 00 00 00 04 00 00 00 04 00 00 00 04 00 00 00
       6e-45 6e-45 6e-45 6e-45
000150 04 00 00 00 04 00 00 00 04 00 00 00 04 00 00 00
       6e-45 6e-45 6e-45 6e-45
000160 04 00 00 00 04 00 00 00 04 00 00 00 04 00 00 00
       6e-45 6e-45 6e-45 6e-45
000170 04 00 00 00 04 00 00 00 04 00 00 00 04 00 00 00
       6e-45 6e-45 6e-45 6e-45
000180 04 00 00 00 04 00 00 00 04 00 00 80 04 00 00 80
       6e-45 6e-45 -6e-45 -6e-45
000190 04 00 00 80 04 00 00 00 04 00 00 00 04 00 00 00
       -6e-45 6e-45 6e-45 6e-45
0001a0 04 00 00 00 04 00 00 80 04 00 00 80 04 00 00 80
       6e-45 -6e-45 -6e-45 -6e-45
0001b0 04 00 00 00 04 00 00 00 04 00 00 00 04 00 00 00
       6e-45 6e-45 6e-45 6e-45
0001c0 04 00 00 80 04 00 00 80 04 00 00 80 04 00 00 00
       -6e-45 -6e-45 -6e-45 6e-45
0001d0 04 00 00 00 04 00 00 00 04 00 00 00 04 00 00 80
       6e-45 6e-45 6e-45 -6e-45
0001e0 04 00 00 80 04 00 00 80 04 00 00 00 04 00 00 00
       -6e-45 -6e-45 6e-45 6e-45
0001f0 04 00 00 00 04 00 00 00 04 00 00 00 04 00 00 00
       6e-45 6e-45 6e-45 6e-45
000200 04 00 00 00 04 00 00 00 04 00 00 00 04 00 00 00
       6e-45 6e-45 6e-45 6e-45
000210 04 00 00 00 04 00 00 00 04 00 00 00 04 00 00 00
       6e-45 6e-45 6e-45 6e-45
000220 04 00 00 00 04 00 00 00 04 00 00 00 04 00 00 00
       6e-45 6e-45 6e-45 6e-45
000230 04 00 00 00 04 00 00 00 04 00 00 00 04 00 00 00
       6e-45 6e-45 6e-45 6e-45
000240 04 00 00 00 04 00 00 00 04 00 00 00 04 00 00 80
       6e-45 6e-45 6e-45 -6e-45
000250 04 00 00 80 04 00 00 80 04 00 00 00 04 00 00 00
       -6e-45 -6e-45 6e-45 6e-45
000260 04 00 00 00 04 00 00 00 04 00 00 80 04 00 00 80
       6e-45 6e-45 -6e-45 -6e-45
000270 04 00 00 80 04 00 00 00 04 00 00 00 04 00 00 00
       -6e-45 6e-45 6e-45 6e-45
000280 04 00 00 00 04 00 00 80 04 00 00 80 04 00 00 80
       6e-45 -6e-45 -6e-45 -6e-45
000290 04 00 00 00 04 00 00 00 04 00 00 00 04 00 00 00
       6e-45 6e-45 6e-45 6e-45
0002a0 04 00 00 80 04 00 00 80 04 00 00 80 04 00 00 00
       -6e-45 -6e-45 -6e-45 6e-45
0002b0 04 00 00 00 04 00 00 00 04 00 00 00 04 00 00 00
       6e-45 6e-45 6e-45 6e-45
0002c0 04 00 00 00 04 00 00 00 04 00 00 00 04 00 00 00
       6e-45 6e-45 6e-45 6e-45
0002d0 04 00 00 00 04 00 00 00 04 00 00 00 04 00 00 00
       6e-45 6e-45 6e-45 6e-45
0002e0 04 00 00 00 04 00 00 00 04 00 00 00 04 00 00 00
       6e-45 6e-45 6e-45 6e-45
0002f0 04 00 00 00 04 00 00 00 04 00 00 00 04 00 00 00
       6e-45 6e-45 6e-45 6e-45
000300 04 00 00 00 04 00 00 00 04 00 00 00 04 00 00 00
       6e-45 6e-45 6e-45 6e-45
000310 04 00 00 80 04 00 00 80 04 00 00 80 04 00 00 00
       -6e-45 -6e-45 -6e-45 6e-45
000320 04 00 00 00 04 00 00 00 04 00 00 00 04 00 00 80
       6e-45 6e-45 6e-45 -6e-45
000330 04 00 00 80 04 00 00 80 04 00 00 00 04 00 00 00
       -6e-45 -6e-45 6e-45 6e-45
000340 04 00 00 00 04 00 00 00 04 00 00 80 04 00 00 80
       6e-45 6e-45 -6e-45 -6e-45
000350 04 00 00 80 04 00 00 00 04 00 00 00 04 00 00 00
       -6e-45 6e-45 6e-45 6e-45
000360 04 00 00 00 04 00 00 80 04 00 00 80 04 00 00 80
       6e-45 -6e-45 -6e-45 -6e-45
000370 04 00 00 00 04 00 00 00 04 00 00 00 04 00 00 00
       6e-45 6e-45 6e-45 6e-45
000380 04 00 00 00 04 00 00 00 04 00 00 00 04 00 00 00
       6e-45 6e-45 6e-45 6e-45
000390 04 00 00 00 04 00 00 00 04 00 00 00 04 00 00 00
       6e-45 6e-45 6e-45 6e-45
0003a0 04 00 00 00 04 00 00 00 04 00 00 00 04 00 00 00
       6e-45 6e-45 6e-45 6e-45
0003b0 04 00 00 00 04 00 00 00 04 00 00 00 04 00 00 00
       6e-45 6e-45 6e-45 6e-45
0003c0 04 00 00 00 04 00 00 00 04 00 00 00 04 00 00 00
       6e-45 6e-45 6e-45 6e-45
0003d0 04 00 00 00 04 00 00 80 04 00 00 80 04 00 00 80
       6e-45 -6e-45 -6e-45 -6e-45
0003e0 04 00 00 00 04 00 00 00 04 00 00 00 04 00 00 00
       6e-45 6e-45 6e-45 6e-45
0003f0 04 00 00 80 04 00 00 80 04 00 00 80 04 00 00 00
       -6e-45 -6e-45 -6e-45 6e-45

exp_avg_sq f4 [12, 6, 7, 7]
000000 22 3e 03 1e 5b 1f e9 1d 4d ff fd 1d 84 e6 a9 24
       6.947931e-21 6.1707007e-21 6.7232517e-21 7.3682576e-17
000010 8b da a2 24 38 70 9c 24 14 de 92 24 07 40 4d 1e
       7.062653e-17 6.784432e-17 6.369362e-17 1.086585e-20
000020 1a a5 df 1d bd bc f3 1d 20 ce b5 24 7d 7a aa 24
       5.919832e-21 6.4516715e-21 7.8845427e-17 7.393325e-17
000030 3c 05 a4 24 22 5f 99 24 7d fa 2c 1e 78 6b 43 1e
       7.113253e-17 6.6514334e-17 9.157404e-21 1.0345438e-20
000040 58 65 73 1e 49 ae cc 24 79 35 c1 24 ea 44 b2 24
       1.288527e-20 8.876615e-17 8.3790994e-17 7.731194e-17
000050 9a be a3 24 cc 60 9c 1d 58 ea e1 1d 21 a3 d4 1d
       7.101287e-17 4.139294e-21 5.979931e-21 5.6284604e-21
000060 4b 05 cb 24 b6 89 c1 24 bc af b3 24 11 33 a3 24
       8.804618e-17 8.39337e-17 7.792658e-17 7.077649e-17
000070 e4 ec 04 1c e6 86 10 1c 74 a1 39 1c a4 19 a7 24
       4.398131e-22 4.7819955e-22 6.142004e-22 7.246814e-17
000080 74 a7 9f 24 5b c5 93 24 5e a4 87 24 bb 03 03 1c
       6.9238935e-17 6.408542e-17 5.8825366e-17 4.3349086e-22
000090 29 93 05 1c 1b 22 27 1c 78 7b 9e 24 87 5c 99 24
       4.419621e-22 5.5299745e-22 6.873074e-17 6.650992e-17
0000a0 7d a1 90 24 30 a5 86 24 11 db 06 1c af 51 fc 1b
       6.272362e-17 5.8393075e-17 4.462002e-22 4.174269e-22
0000b0 2c 4b 14 1c 22 30 98 24 50 28 93 24 b2 75 8c 24
       4.906625e-22 6.600103e-17 6.381938e-17 6.0914705e-17
0000c0 5f f6 83 24 13 95 9b 1c e9 85 60 1c 9a ed 61 1c
       5.722956e-17 1.0295574e-21 7.428846e-22 7.475335e-22
0000d0 c6 82 5b 23 86 b6 50 23 d7 de 4a 23 3c 2d 3b 23
       1.1899706e-17 1.13143534e-17 1.099763e-17 1.0146869e-17
0000e0 b2 fd f2 1c 75 50 ab 1c 5f cd bc 1c cf e8 67 23
       1.6079795e-21 1.1336628e-21 1.2493884e-21 1.2571834e-17
0000f0 0f 1b 5c 23 b3 b3 53 23 a6 4a 45 23 98 fd 0a 1d
       1.1931954e-17 1.1476386e-17 1.0695199e-17 1.8395253e-21
000100 eb 4b 06 1d 93 f7 27 1d f7 13 83 23 d1 3d 7a 23
       1.7774e-21 2.2230259e-21 1.4211504e-17 1.3565617e-17
000110 dc 73 6c 23 4a 1f 56 23 e6 4d 1c 1c 92 f6 5c 1c
       1.281812e-17 1.1607589e-17 5.171675e-22 7.311058e-22
000120 33 1e 9c 1c 8d 96 83 23 32 3f 7d 23 5d ad 6a 23
       1.033102e-21 1.426681e-17 1.372854e-17 1.27218765e-17
000130 9b 19 55 23 cd 24 6b 1a c8 0c 81 1a 12 58 af 1a
       1.1552175e-17 4.8626588e-23 5.33738e-23 7.252059e-23
000140 e2 b8 55 23 9d b1 51 23 9f 33 44 23 32 7f 2e 23
       1.1585904e-17 1.1367524e-17 1.06361125e-17 9.4594936e-18
000150 36 dc 54 1a 3c 8b 5d 1a 16 5a 7a 1a 45 10 4d 23
       4.4018457e-23 4.58142e-23 5.177156e-23 1.11165175e-17
000160 4d 25 47 23 75 96 3e 23 54 ad 2c 23 9b 50 61 1a
       1.079571e-17 1.0331781e-17 9.360842e-18 4.6594022e-23
000170 83 8b 6a 1a 11 57 6d 1a 2f 9f 44 23 e3 cc 40 23
       4.8502763e-23 4.9080783e-23 1.065889e-17 1.0451727e-17
000180 69 0d 3a 23 d4 41 2b 23 b9 34 7b 1e d4 8d 93 1e
       1.008592e-17 9.283868e-18 1.3298732e-20 1.5622889e-20
000190 76 04 94 1e ba 89 00 25 59 47 ef 24 82 90 e3 24
       1.5671955e-20 1.1148894e-16 1.03770595e-16 9.869036e-17
0001a0 8e ec f3 24 dc 10 af 1e f0 87 93 1e af 4d 8c 1e
       1.0578519e-16 1.8535819e-20 1.5620453e-20 1.4855206e-20
0001b0 3b aa 0b 25 a7 ec 00 25 ac d4 f2 24 6a 90 00 25
       1.2114004e-16 1.1182411e-16 1.0531105e-16 1.115116e-16
0001c0 92 0d ce 1e fa fb dc 1e 6e ee e1 1e 5d fe 1d 25
       2.1816711e-20 2.3397621e-20 2.3921414e-20 1.3703761e-16
0001d0 8b e3 11 25 f6 7f 04 25 c1 9f 06 25 10 28 45 1e
       1.265384e-16 1.149253e-16 1.1676774e-16 1.0437378e-20
0001e0 c4 a8 69 1e 2a 64 65 1e 2b da 1d 25 98 bb 12 25
       1.2369817e-20 1.21438725e-20 1.3691497e-16 1.272704e-16
0001f0 e1 30 07 25 29 74 08 25 a4 b0 1e 1c 9d 15 49 1c
       1.1725944e-16 1.1835476e-16 5.2506117e-22 6.6533256e-22
000200 c3 c4 aa 1c 67 92 03 25 83 92 f6 24 23 b0 e1 24
       1.1300518e-21 1.1412042e-16 1.06933694e-16 9.787658e-17
000210 51 2f e4 24 19 30 1f 1c fd fc 39 1c 6c 5a 91 1c
       9.8959395e-17 5.267085e-22 6.1538345e-22 9.618669e-22
000220 dc f6 fa 24 77 98 ec 24 d5 ff d9 24 90 96 e3 24
       1.0883841e-16 1.0260697e-16 9.4542145e-17 9.870062e-17
000230 99 cd 26 1c f3 8a 38 1c aa 4d 81 1c ad b5 ee 24
       5.519052e-22 6.106008e-22 8.55658e-22 1.0352382e-16
000240 3a 6d e2 24 ac 39 d6 24 03 50 dd 24 0b 64 cd 1e
       9.8196913e-17 9.2905406e-17 9.597902e-17 2.1746596e-20
000250 da d1 b7 1e ee 62 bc 1e 61 84 2b 25 96 e9 20 25
       1.9462671e-20 1.994619e-20 1.4876737e-16 1.395693e-16
000260 28 64 18 25 f5 c5 23 25 9a 66 15 1f 25 db ed 1e
       1.3217833e-16 1.4205067e-16 3.1636847e-20 2.5183987e-20
000270 8b e4 f2 1e 4d 97 39 25 d3 bf 2c 25 1a 48 22 25
       2.571727e-20 1.6097455e-16 1.4983614e-16 1.4075689e-16
000280 67 99 2b 25 10 64 29 1f fc b3 35 1f 19 19 34 1f
       1.488386e-16 3.5869912e-20 3.847712e-20 3.8137243e-20
000290 55 ec 50 25 51 f0 41 25 32 8f 30 25 d5 4c 35 25
       1.8121197e-16 1.6821504e-16 1.5314083e-16 1.5725279e-16
0002a0 a1 e0 73 1e 96 73 8e 1e 84 e0 ad 1e 4e 35 50 25
       1.2910765e-20 1.508264e-20 1.8409945e-20 1.8059184e-16
0002b0 f4 70 42 25 db 7a 32 25 ec 07 36 25 1b 37 56 1c
       1.6865088e-16 1.5480664e-16 1.5788668e-16 7.0877883e-22
0002c0 05 15 7d 1c c5 55 c1 1c fd 36 2b 25 12 b5 20 25
       8.3737845e-22 1.279384e-21 1.4850516e-16 1.3939137e-16
0002d0 a7 fa 12 25 cb 28 16 25 5b dc 5f 1c f6 23 6c 1c
       1.2748406e-16 1.3024247e-16 7.4069313e-22 7.813233e-22
0002e0 f4 f1 ab 1c 37 97 24 25 72 20 1c 25 ad 63 10 25
       1.1378374e-21 1.4275966e-16 1.3541836e-16 1.252378e-16
0002f0 c7 5e 16 25 fe c3 5c 1c 1e 6c 60 1c a3 c6 9a 1c
       1.3042538e-16 7.304521e-22 7.425512e-22 1.0242212e-21
000300 ea f2 1c 25 9e 56 14 25 56 b3 0c 25 f9 5f 11 25
       1.3613146e-16 1.2866301e-16 1.2203826e-16 1.2609262e-16
000310 64 3d cd 1e 98 3f af 1e c4 80 cd 1e 1f 8f 23 25
       2.173061e-20 1.8555147e-20 2.1758475e-20 1.4186488e-16
000320 da ca 17 25 89 b0 0f 25 d2 96 19 25 bf 8f 1d 1f
       1.3165891e-16 1.2463085e-16 1.3321735e-16 3.3364947e-20
000330 fe 81 f2 1e 60 34 03 1f 07 ad 31 25 93 2f 23 25
       2.567651e-20 2.7783653e-20 1.5410927e-16 1.4154115e-16
000340 5a b8 19 25 a3 7f 21 25 30 0b 2a 1f 8d a3 46 1f
       1.3333095e-16 1.4007769e-16 3.6008154e-20 4.2063417e-20
000350 af 7c 3e 1f e6 7e 47 25 c9 ac 38 25 cc 8e 29 25
       4.03372e-20 1.7303493e-16 1.6017998e-16 1.4706795e-16
000360 9d d6 2b 25 b3 68 51 1e 9b 98 8e 1e b3 de a7 1e
       1.49046e-16 1.1086019e-20 1.5097951e-20 1.7773919e-20
000370 52 62 47 25 13 ef 38 25 43 df 2a 25 27 b2 2b 25
       1.7293811e-16 1.6040457e-16 1.4820794e-16 1.4892246e-16
000380 68 80 29 1c 39 60 4c 1c 53 eb af 1c 63 ea 22 25
       5.608337e-22 6.7622303e-22 1.1641358e-21 1.4130673e-16
000390 ce e9 18 25 87 ba 0b 25 5e 23 0d 25 f2 81 2a 1c
       1.3263115e-16 1.2119526e-16 1.2241783e-16 5.641623e-22
0003a0 0e bf 40 1c 90 6e 9a 1c db 05 1d 25 7c 31 14 25
       6.3774403e-22 1.0219445e-21 1.3619563e-16 1.285372e-16
0003b0 34 f3 08 25 5a 9a 0d 25 b8 12 30 1c 26 96 3d 1c
       1.187852e-16 1.2282097e-16 5.825771e-22 6.2728917e-22
0003c0 1e 9a 87 1c 95 10 15 25 8a ff 0c 25 0c dc 05 25
       8.973389e-22 1.2929308e-16 1.2229644e-16 1.1610466e-16
0003d0 b6 76 09 25 5e 5b cd 1e 53 e7 b7 1e 49 e4 e4 1e
       1.1923077e-16 2.1743008e-20 1.9471552e-20 2.4234856e-20
0003e0 f4 f0 29 25 13 a4 1d 25 14 0e 17 25 4c 92 1e 25
       1.4740051e-16 1.367317e-16 1.3101932e-16 1.3753883e-16
0003f0 bf 84 3d 1f 80 89 20 1f dd f5 12 1f de c8 39 25
       4.0132112e-20 3.3995055e-20 3.1120076e-20 1.6114249e-16

exp_avg f4 [12]
000000 04 00 00 00 04 00 00 00 64 52 df b5 75 95 54 36
       6e-45 6e-45 -1.6638774e-06 3.1677457e-06
000010 04 00 00 00 04 00 00 00 04 00 00 00 04 00 00 00
       6e-45 6e-45 6e-45 6e-45
000020 c4 8f 1c 39 50 3d ff b8 07 82 15 b8 04 00 00 00
       0.00014930876 -0.00012170768 -3.5645466e-05 6e-45

exp_avg_sq f4 [12]
000000 02 60 c7 26 ae 60 c6 27 27 e6 f2 31 dd 64 22 34
       1.3834422e-15 5.506086e-15 7.0692923e-09 1.512412e-07
000010 b1 98 f4 2c bd e1 9c 25 fc ef 93 2f 37 cd 2d 28
       6.9518493e-12 2.7214652e-16 2.6909663e-10 9.647928e-15
000020 f4 ac 4f 37 8f de 51 36 d9 16 98 34 a4 fb e8 28
       1.237843e-05 3.1272973e-06 2.832883e-07 2.5866306e-14

exp_avg f4 [8, 12, 5, 5]
000000 04 00 00 80 04 00 00 80 00 00 00 00 00 00 00 00
       -6e-45 -6e-45 0.0 0.0
000010 00 00 00 00 04 00 00 80 04 00 00 80 04 00 00 80
       0.0 -6e-45 -6e-45 -6e-45
000020 04 00 00 80 00 00 00 00 04 00 00 80 04 00 00 80
       -6e-45 0.0 -6e-45 -6e-45
000030 04 00 00 80 04 00 00 80 00 00 00 00 04 00 00 80
       -6e-45 -6e-45 0.0 -6e-45
000040 04 00 00 80 04 00 00 00 04 00 00 80 00 00 00 00
       -6e-45 6e-45 -6e-45 0.0
000050 04 00 00 80 04 00 00 80 00 00 00 00 04 00 00 80
       -6e-45 -6e-45 0.0 -6e-45
000060 00 00 00 00 04 00 00 80 04 00 00 80 04 00 00 80
       0.0 -6e-45 -6e-45 -6e-45
000070 04 00 00 80 04 00 00 80 04 00 00 80 04 00 00 80
       -6e-45 -6e-45 -6e-45 -6e-45
000080 04 00 00 80 04 00 00 80 04 00 00 80 04 00 00 00
       -6e-45 -6e-45 -6e-45 6e-45
000090 04 00 00 00 04 00 00 80 04 00 00 80 04 00 00 80
       6e-45 -6e-45 -6e-45 -6e-45
0000a0 04 00 00 00 04 00 00 00 04 00 00 80 04 00 00 80
       6e-45 6e-45 -6e-45 -6e-45
0000b0 04 00 00 80 04 00 00 80 04 00 00 80 04 00 00 80
       -6e-45 -6e-45 -6e-45 -6e-45
0000c0 04 00 00 80 04 00 00 80 f9 53 4d 36 da 4d a4 b3
       -6e-45 -6e-45 3.059626e-06 -7.651006e-08
0000d0 6e a8 ac af 2d c6 a8 0a 04 00 00 00 6e ed a9 36
       -3.1406294e-10 1.6252357e-32 6e-45 5.064233e-06
0000e0 73 8a f4 34 63 1a 8a ae 04 00 00 00 04 00 00 00
       4.5549277e-07 -6.280201e-11 6e-45 6e-45
0000f0 bd a8 b7 36 cd 28 11 34 1e 9b 42 33 dd 60 43 32
       5.4734687e-06 1.351902e-07 4.5310223e-08 1.1372518e-08
000100 d2 a6 e6 ae 61 da b2 36 60 07 ef 33 f1 46 8c 33
       -1.0488822e-10 5.330236e-06 1.1130646e-07 6.532162e-08
000110 28 a4 5e 32 2f b1 05 30 2b ee 9d 36 b6 dd 82 b4
       1.29594255e-08 4.863691e-10 4.706691e-06 -2.4375703e-07
000120 b5 ff 92 33 19 23 5b 32 fe 54 12 30 7b a3 d5 b3
       6.8451676e-08 1.2755458e-08 5.323527e-10 -9.948322e-08
000130 68 e6 3f 35 5c b6 f5 34 d0 67 22 35 9d 85 41 35
       7.148833e-07 4.576749e-07 6.050077e-07 7.2092536e-07
000140 6f 72 7d b3 06 16 18 b3 a5 8f 8e b4 88 a3 e3 b2
       -5.901023e-08 -3.5410288e-08 -2.6554076e-07 -2.6500643e-08
000150 fc a4 ce 33 be 02 3d b5 47 15 80 b4 60 95 ad 34
       9.622633e-08 -7.0411977e-07 -2.385734e-07 3.2332446e-07
000160 bc 1c 39 35 a2 7e e8 34 76 57 62 33 e0 ba c3 33
       6.8959685e-07 4.3305505e-07 5.269927e-08 9.1143875e-08
000170 e6 fb 3b 34 06 35 8c 33 4f f9 59 34 82 ab 6c 32
       1.7507372e-07 6.528903e-08 2.0300398e-07 1.3776004e-08
000180 61 c9 98 32 2d af 91 32 1a 3d 05 31 58 eb e4 33
       1.7786705e-08 1.6959882e-08 1.938878e-09 1.0659886e-07
000190 04 00 00 00 04 00 00 00 04 00 00 00 04 00 00 00
       6e-45 6e-45 6e-45 6e-45
0001a0 04 00 00 00 04 00 00 00 04 00 00 00 04 00 00 00
       6e-45 6e-45 6e-45 6e-45
0001b0 04 00 00 00 04 00 00 00 04 00 00 00 04 00 00 00
       6e-45 6e-45 6e-45 6e-45
0001c0 04 00 00 00 04 00 00 00 04 00 00 00 04 00 00 00
       6e-45 6e-45 6e-45 6e-45
0001d0 04 00 00 00 04 00 00 00 04 00 00 00 04 00 00 00
       6e-45 6e-45 6e-45 6e-45
0001e0 04 00 00 00 04 00 00 00 04 00 00 00 04 00 00 00
       6e-45 6e-45 6e-45 6e-45
0001f0 04 00 00 00 04 00 00 80 04 00 00 00 04 00 00 00
       6e-45 -6e-45 6e-45 6e-45
000200 04 00 00 00 04 00 00 00 04 00 00 00 04 00 00 00
       6e-45 6e-45 6e-45 6e-45
000210 04 00 00 00 04 00 00 00 04 00 00 00 04 00 00 00
       6e-45 6e-45 6e-45 6e-45
000220 04 00 00 00 04 00 00 00 04 00 00 00 04 00 00 00
       6e-45 6e-45 6e-45 6e-45
000230 04 00 00 00 04 00 00 00 04 00 00 00 04 00 00 00
       6e-45 6e-45 6e-45 6e-45
000240 04 00 00 00 04 00 00 00 04 00 00 00 04 00 00 00
       6e-45 6e-45 6e-45 6e-45
000250 04 00 00 00 04 00 00 00 04 00 00 00 04 00 00 00
       6e-45 6e-45 6e-45 6e-45
000260 04 00 00 00 04 00 00 00 04 00 00 00 04 00 00 00
       6e-45 6e-45 6e-45 6e-45
000270 04 00 00 00 04 00 00 00 04 00 00 00 04 00 00 00
       6e-45 6e-45 6e-45 6e-45
000280 04 00 00 00 04 00 00 00 04 00 00 00 04 00 00 00
       6e-45 6e-45 6e-45 6e-45
000290 04 00 00 00 04 00 00 00 04 00 00 00 04 00 00 00
       6e-45 6e-45 6e-45 6e-45
0002a0 04 00 00 00 04 00 00 00 04 00 00 00 04 00 00 00
       6e-45 6e-45 6e-45 6e-45
0002b0 04 00 00 00 04 00 00 00 04 00 00 00 04 00 00 80
       6e-45 6e-45 6e-45 -6e-45
0002c0 04 00 00 80 04 00 00 80 04 00 00 80 04 00 00 80
       -6e-45 -6e-45 -6e-45 -6e-45
0002d0 04 00 00 80 04 00 00 80 04 00 00 80 04 00 00 80
       -6e-45 -6e-45 -6e-45 -6e-45
0002e0 04 00 00 80 04 00 00 80 04 00 00 80 04 00 00 80
       -6e-45 -6e-45 -6e-45 -6e-45
0002f0 04 00 00 80 04 00 00 80 04 00 00 80 04 00 00 80
       -6e-45 -6e-45 -6e-45 -6e-45
000300 04 00 00 80 04 00 00 80 04 00 00 80 04 00 00 80
       -6e-45 -6e-45 -6e-45 -6e-45
000310 04 00 00 80 04 00 00 80 04 00 00 80 04 00 00 80
       -6e-45 -6e-45 -6e-45 -6e-45
000320 af e4 f9 37 09 56 06 38 bb 3f 07 38 62 8a 24 38
       2.9789602e-05 3.2028216e-05 3.224586e-05 3.9229526e-05
000330 cd 31 34 38 e4 65 f6 37 2f 0d fa 37 e6 65 04 38
       4.2961725e-05 2.9372932e-05 2.9808461e-05 3.1566153e-05
000340 79 4b 2c 38 9e f4 42 38 dc 50 b4 37 dd 83 c1 37
       4.1078285e-05 4.6481022e-05 2.1495325e-05 2.3068797e-05
000350 b3 bc da 37 ce 84 1a 38 c3 c2 35 38 98 31 d2 37
       2.6075495e-05 3.6840145e-05 4.333515e-05 2.5057045e-05
000360 ce b4 ec 37 57 12 08 38 24 64 32 38 fd 7e 47 38
       2.8217586e-05 3.2442007e-05 4.253177e-05 4.7563564e-05
000370 3a de f3 37 a2 af 21 38 65 22 36 38 4d 12 4b 38
       2.907134e-05 3.8548962e-05 4.3424214e-05 4.8416015e-05
000380 98 72 58 38 93 62 22 37 fb a7 4d 35 32 92 8e b6
       5.1605137e-05 9.678904e-06 7.6612895e-07 -4.248949e-06
000390 44 bf 14 b6 e9 4f 8f b5 e4 a1 37 37 00 54 3b 36
       -2.216505e-06 -1.0677587e-06 1.0945343e-05 2.7914066e-06
0003a0 2d 6a 13 b6 be bf 71 b5 b1 4b 7e b3 05 5e 2b 37
       -2.196651e-06 -9.005852e-07 -5.9207824e-08 1.0214285e-05
0003b0 03 87 70 36 05 96 be b5 a4 bd 3a 34 16 7a ae 35
       3.5841374e-06 -1.4199765e-06 1.7391591e-07 1.2999542e-06
0003c0 40 4a 1b 37 71 de 56 36 3b e5 3b b6 d4 e3 2e b5
       9.256008e-06 3.2017963e-06 -2.79986e-06 -6.5151585e-07
0003d0 6c 46 03 36 d4 bf 24 37 5e f7 40 36 7b e3 c5 b6
       1.9561512e-06 9.819825e-06 2.8754216e-06 -5.8975397e-06
0003e0 0e 38 9b b6 bc 0a 0b b6 35 9f e7 b4 3b ef 9a 36
       -4.6258856e-06 -2.0718862e-06 -4.314294e-07 4.6174077e-06
0003f0 07 32 8f 34 ca 29 17 36 4e 2a f0 35 01 a1 22 35
       2.6672225e-07 2.2525078e-06 1.7893706e-06 6.0583994e-07

exp_avg_sq f4 [8, 12, 5, 5]
000000 dd e4 23 26 9b 0a 16 25 00 00 00 00 00 00 00 00
       5.6862153e-16 1.301402e-16 0.0 0.0
000010 00 00 00 00 84 8c 20 26 29 e8 14 25 9f 78 6a 1b
       0.0 5.5701585e-16 1.2915613e-16 1.9395001e-22
000020 48 34 18 1c 00 00 00 00 0c 09 23 26 94 fd 0d 25
       5.0360153e-22 0.0 5.6564246e-16 1.2315716e-16
000030 9f 19 2f 1d 5d 37 00 1d 00 00 00 00 65 1d 2c 26
       2.3174303e-21 1.6969281e-21 0.0 5.9714325e-16
000040 86 2e 19 25 33 0b 29 1b 75 fb 0b 1a 00 00 00 00
       1.3286397e-16 1.3982971e-22 2.8947652e-23 0.0
000050 b2 ee 3f 26 82 5e 29 25 00 00 00 00 c8 7b 98 1b
       6.658993e-16 1.4690434e-16 0.0 2.5226282e-22
000060 00 00 00 00 9a aa 54 27 27 49 8a 27 91 58 50 27
       0.0 2.9513393e-15 3.8382006e-15 2.891381e-15
000070 98 06 26 27 d7 c8 22 27 19 c2 83 27 59 22 9b 27
       2.3040702e-15 2.2590892e-15 3.6570245e-15 4.305838e-15
000080 bb 26 75 27 c0 78 2e 27 2b 0e 12 27 9e 4e 15 27
       3.4021576e-15 2.421281e-15 2.026925e-15 2.0720522e-15
000090 92 d6 2a 27 e5 ab 01 27 f1 d9 1f 27 7c f4 56 27
       2.3708558e-15 1.799553e-15 2.2183829e-15 2.9831001e-15
0000a0 6d a4 a6 27 a3 c6 d1 27 ee 73 ec 27 00 e9 fa 27
       4.6252526e-15 5.8224515e-15 6.562885e-15 6.964156e-15
0000b0 3b c1 ef 27 f8 0c 43 28 bc 54 83 28 27 96 8c 28
       6.6545327e-15 1.0827487e-14 1.458067e-14 1.560824e-14
0000c0 8f 18 8c 28 b8 d0 83 28 6e fb 9a 30 ae a0 28 30
       1.5553773e-14 1.4634439e-14 1.1276435e-09 6.1346384e-10
0000d0 54 f6 5e 2b ea 0d 38 2b b4 03 33 2b 39 eb a2 30
       7.921209e-13 6.538924e-13 6.3598714e-13 1.1853906e-09
0000e0 15 e7 31 30 5d 89 56 2b 94 f2 37 2b d8 0e 31 2b
       6.472061e-10 7.62187e-13 6.5351305e-13 6.290363e-13
0000f0 92 c7 a4 30 5c f5 34 30 3d dd a5 2b f5 a2 8c 2b
       1.1989292e-09 6.5832295e-10 1.1785361e-12 9.992828e-13
000100 9b aa 82 2b 95 00 b9 30 60 f9 3f 30 9f a0 89 2b
       9.284408e-13 1.3460687e-09 6.983978e-10 9.779017e-13
000110 a3 f0 5b 2b 3f 59 56 2b 7b 9d be 30 0f 78 49 30
       7.813838e-13 7.6151927e-13 1.3869078e-09 7.329399e-10
000120 23 b6 5f 2b b2 7b 32 2b 48 11 28 2b 26 76 82 2f
       7.947828e-13 6.3409965e-13 5.970957e-13 2.3730812e-10
000130 21 46 94 2f 3d 49 90 2f 2c 3f 98 2f d6 de 93 2f
       2.6970873e-10 2.6245486e-10 2.7693525e-10 2.689748e-10
000140 c3 0c 4b 2f 2c dd 66 2f db e6 77 2f ac 75 67 2f
       1.8467276e-10 2.0996954e-10 2.2546535e-10 2.1051133e-10
000150 b0 ef 66 2f 53 57 f3 2f ec fa 05 30 44 dd f1 2f
       2.1003532e-10 4.426349e-10 4.87417e-10 4.3994863e-10
000160 3d f0 06 30 3b 82 03 30 f3 ec 4c 2f 50 00 71 2f
       4.9090315e-10 4.784259e-10 1.8637873e-10 2.1918933e-10
000170 37 4e 79 2f 75 a9 6c 2f fb bd 66 2f a2 9c 3a 2f
       2.2674206e-10 2.1524278e-10 2.0985873e-10 1.6972249e-10
000180 0f 3b 56 2f 71 5a 5e 2f 97 68 4e 2f ca 94 4e 2f
       1.9484168e-10 2.0222914e-10 1.8772749e-10 1.8788451e-10
000190 d2 33 0d 2c a7 80 31 2c ae 22 13 2c ed db fc 2b
       2.0066071e-12 2.522463e-12 2.0909208e-12 1.7966719e-12
0001a0 5b eb ed 2b 20 75 12 2c 91 17 32 2c 8b c1 14 2c
       1.6905187e-12 2.0812865e-12 2.5308403e-12 2.1139503e-12
0001b0 ef 46 01 2c 85 1b f4 2b ac 9b 12 2c 0f 4d 3c 2c
       1.8371379e-12 1.7344881e-12 2.0834263e-12 2.6759183e-12
0001c0 a1 bb 16 2c df e0 04 2c 03 68 fc 2b c8 6a 10 2c
       2.1420437e-12 1.8883157e-12 1.7934546e-12 2.0522906e-12
0001d0 b7 51 3c 2c e4 1a 17 2c db 63 04 2c bc 7b f7 2b
       2.6761768e-12 2.1473318e-12 1.881376e-12 1.7584749e-12
0001e0 ed 89 08 2c 48 91 2d 2c 6a e5 0b 2c c1 fe f3 2b
       1.9403327e-12 2.4665426e-12 1.9880438e-12 1.7336897e-12
0001f0 4d 56 e9 2b 9a 62 56 21 8c 28 a1 1e 6d 1a 93 21
       1.6579599e-12 7.263652e-19 1.7063308e-20 9.968102e-19
000200 d0 77 87 1d 8e af 59 1e 08 76 0c 21 46 e9 d2 1f
       3.5858086e-21 1.1524188e-20 4.759006e-19 8.932438e-20
000210 83 d6 ab 21 6d 56 5b 1e d5 a4 05 1f 42 60 2d 21
       1.1644191e-18 1.1611636e-20 2.830019e-20 5.8742076e-19
000220 04 91 a8 1e 47 53 bd 21 66 aa d7 1e 64 63 8e 1d
       1.7847669e-20 1.2829181e-18 2.2834486e-20 3.7689855e-21
000230 b9 d6 5e 22 f1 48 0f 23 16 f0 bb 23 4d e7 4a 22
       3.0200284e-18 7.7674915e-18 2.0376261e-17 2.7498554e-18
000240 2a fa f8 21 93 d6 c7 22 09 84 ee 22 83 b5 53 23
       1.6871352e-18 5.4166247e-18 6.4649827e-18 1.14767695e-17
000250 c8 39 da 21 fb 24 0d 22 cd 13 83 2f 65 6d 94 2f
       1.4787549e-18 1.912864e-18 2.384283e-10 2.6998773e-10
000260 2a 0f 97 2f 0b d1 96 2f 11 fc 91 2f 5e af 82 2f
       2.7477515e-10 2.7433375e-10 2.655445e-10 2.3771468e-10
000270 cf 60 95 2f 4f a1 97 2f 07 fa 97 2f a3 52 94 2f
       2.717173e-10 2.7581357e-10 2.7644395e-10 2.697976e-10
000280 5f ba 81 2f e3 d8 93 2f 14 90 97 2f 5f 9a 97 2f
       2.3597388e-10 2.6893252e-10 2.7569114e-10 2.7576427e-10
000290 28 55 94 2f c0 84 82 2f bb cc 95 2f 88 22 9a 2f
       2.698155e-10 2.3741187e-10 2.7248412e-10 2.8036973e-10
0002a0 19 79 99 2f 21 b7 95 2f 30 f3 79 2f 77 e2 8f 2f
       2.7916583e-10 2.7233063e-10 2.2732816e-10 2.6172461e-10
0002b0 81 54 94 2f 61 58 94 2f 63 a8 8f 2f 1d 99 6c 26
       2.6981087e-10 2.698384e-10 2.6131194e-10 8.2086455e-16
0002c0 ef d4 0e 27 54 89 cb 26 00 ea 8c 26 21 11 30 26
       1.982189e-15 1.4123177e-15 9.777877e-16 6.108548e-16
0002d0 e1 4a b1 26 ad c6 fd 26 c5 69 e5 26 7e ee 51 26
       1.2302138e-15 1.7609253e-15 1.5918736e-15 7.283466e-16
0002e0 95 d7 42 26 28 af ae 26 2b eb 03 27 d6 36 ba 26
       6.759944e-16 1.2121152e-15 1.8307387e-15 1.2921206e-15
0002f0 48 88 73 26 62 87 5e 26 70 50 a2 27 33 ad cc 27
       8.4492256e-16 7.72052e-16 4.5051243e-15 5.6809157e-15
000300 c7 46 cd 27 d4 bf cb 27 43 db c8 27 19 0c 3b 28
       5.6975667e-15 5.65518e-15 5.5748875e-15 1.03832085e-14
000310 47 ea 84 28 c7 dc 80 28 9b e2 7c 28 91 a0 79 28
       1.4756546e-14 1.4306602e-14 1.4037947e-14 1.3857094e-14
000320 ff 13 e2 35 79 55 0d 36 c9 f8 17 36 61 66 1d 36
       1.6844132e-06 2.106039e-06 2.2645565e-06 2.3454415e-06
000330 b6 2b 1d 36 9c 8b d6 35 a3 7a 06 36 77 ed 0f 36
       2.3420266e-06 1.5984874e-06 2.003894e-06 2.1446883e-06
000340 60 2c 14 36 e6 38 13 36 17 8c 0f 36 94 79 2f 36
       2.2079548e-06 2.1937826e-06 2.1390204e-06 2.61478e-06
000350 6d 39 3b 36 de b6 41 36 ee 7e 42 36 8d 5a 05 36
       2.7898598e-06 2.8865684e-06 2.8982136e-06 1.9871252e-06
000360 ab 3f 25 36 79 46 33 36 21 5b 3b 36 26 56 3d 36
       2.4623976e-06 2.67141e-06 2.7918215e-06 2.821334e-06
000370 b9 bf 01 36 80 5c 22 36 83 5a 30 36 e2 c3 37 36
       1.9334095e-06 2.4193723e-06 2.6278728e-06 2.7383144e-06
000380 60 b6 38 36 c7 a3 3a 32 4d 36 b6 32 8f 3b 9a 31
       2.7524293e-06 1.0863864e-08 2.1212282e-08 4.488761e-09
000390 13 d8 cd 2f 1e e5 b7 2f 08 3c 3c 32 4a 39 b5 32
       3.7442813e-10 3.3450304e-10 1.095669e-08 2.1097225e-08
0003a0 19 67 88 31 b5 8e 47 2f f3 bf 4c 2f 0d f3 4f 32
       3.969842e-09 1.8149644e-10 1.8621886e-10 1.2104249e-08
0003b0 72 f5 be 32 01 f3 89 31 0d 41 1e 2f 09 aa 01 2f
       2.2230527e-08 4.014851e-09 1.4393127e-10 1.179289e-10
0003c0 74 10 89 32 94 e3 ef 32 f7 aa da 31 13 c1 3b 30
       1.5956381e-08 2.7926752e-08 6.3640715e-09 6.830458e-10
0003d0 00 46 09 30 17 6c b5 32 4c 2a 17 33 7d 34 49 32
       4.9939786e-10 2.1120327e-08 3.5195896e-08 1.1711674e-08
0003e0 e7 33 8e 31 0f e2 7b 31 fb b1 11 2f a4 e2 4b 30
       4.1386445e-09 3.6653807e-09 1.3250905e-10 7.4173045e-10
0003f0 87 9b 02 31 ca 47 21 31 94 ba 36 31 cd 8c 92 2e
       1.9005897e-09 2.346939e-09 2.6590543e-09 6.6643226e-11

exp_avg f4 [8]
000000 86 c3 73 37 09 09 67 39 02 42 95 b7 3b 14 4c b8
       1.45294525e-05 0.00022033243 -1.7792921e-05 -4.865623e-05
000010 9a 94 31 39 04 00 00 00 7e f9 2f 38 0d 88 55 b8
       0.00016935394 6e-45 4.195561e-05 -5.0909865e-05

exp_avg_sq f4 [8]
000000 10 f8 d2 35 54 67 d9 37 ea 6d 86 36 54 0b 45 35
       1.5718415e-06 2.5916532e-05 4.006307e-06 7.3404703e-07
000010 8d 43 63 37 9e bf 66 2c 7e f7 e7 36 1f c6 a6 35
       1.3545982e-05 3.2791335e-12 6.9131484e-06 1.2425625e-06

exp_avg f4 [3, 8, 3, 3]
000000 f8 96 0f 37 ed a0 44 35 d4 61 21 36 0b be e1 37
       8.558614e-06 7.324987e-07 2.4047813e-06 2.6910586e-05
000010 78 68 d4 36 25 43 8c 36 98 96 3e 36 b5 6e d4 35
       6.330254e-06 4.180142e-06 2.8399863e-06 1.5827451e-06
000020 d9 61 a1 b6 66 b4 95 39 99 e1 90 39 22 8c 9f 39
       -4.809565e-06 0.00028553902 0.00027633904 0.0003043125
000030 61 13 b6 39 02 8a a7 39 f0 5c aa 39 9c 4e aa 39
       0.00034728184 0.00031955546 0.0003249417 0.00032483495
000040 0d 24 91 39 a8 89 99 39 21 df 88 b7 12 b4 e2 34
       0.00027683415 0.00029284996 -1.6316366e-05 4.22268e-07
000050 89 9d ee b4 5b 03 b7 36 bf f2 80 37 68 9c d9 36
       -4.4445576e-07 5.4542156e-06 1.5371827e-05 6.485312e-06
000060 ff 5a 45 36 95 d8 46 37 e9 e8 0b 37 13 8e 2e 39
       2.9408254e-06 1.1852147e-05 8.339274e-06 0.0001664686
000070 4d 01 3a 39 ce 90 09 39 7b c8 43 39 7e 7e 11 39
       0.00017738827 0.00013119282 0.00018671334 0.000138754
000080 36 41 36 39 24 19 e5 38 2d 8b 07 39 d8 e2 18 39
       0.00017381166 0.00010924254 0.0001292645 0.00014580355
000090 4a db 6b 39 a4 d0 49 39 ae 4a 31 39 4a 11 81 39
       0.00022493038 0.00019246578 0.00016907856 0.0002461768
0000a0 45 f0 5d 39 97 4b 52 39 f4 d7 4c 39 b4 65 43 39
       0.0002116571 0.0002005532 0.00019535405 0.00018634537
0000b0 70 c0 2d 39 04 00 00 00 04 00 00 80 04 00 00 80
       0.00016570254 6e-45 -6e-45 -6e-45
0000c0 04 00 00 00 04 00 00 80 04 00 00 80 04 00 00 80
       6e-45 -6e-45 -6e-45 -6e-45
0000d0 04 00 00 80 04 00 00 80 59 55 62 39 be 34 60 39
       -6e-45 -6e-45 0.00021584834 0.00021381953
0000e0 48 ad 4b 39 24 39 41 39 9a cc 5e 39 02 02 66 39
       0.00019424141 0.00018427201 0.0002124779 0.00021935257
0000f0 5b 59 5e 39 cc fe 6d 39 46 4c 66 39 bf 9e f5 38
       0.00021204857 0.00022697 0.00021962923 0.00011712079
000100 07 c8 0b 39 3f 35 17 39 f3 a3 09 39 0a 32 2b 39
       0.00013330589 0.00014420318 0.00013126414 0.00016326472
000110 d1 81 13 39 01 2c fa 38 1c 59 17 39 eb 7f 12 39
       0.00014067373 0.00011929125 0.00014433678 0.00013971298
000120 04 00 00 00 04 00 00 00 04 00 00 00 04 00 00 00
       6e-45 6e-45 6e-45 6e-45
000130 04 00 00 00 04 00 00 00 04 00 00 80 04 00 00 00
       6e-45 6e-45 -6e-45 6e-45
000140 04 00 00 00 04 00 00 00 04 00 00 00 04 00 00 00
       6e-45 6e-45 6e-45 6e-45
000150 04 00 00 00 04 00 00 00 04 00 00 00 04 00 00 00
       6e-45 6e-45 6e-45 6e-45
000160 04 00 00 00 04 00 00 00 04 00 00 00 04 00 00 00
       6e-45 6e-45 6e-45 6e-45
000170 04 00 00 00 04 00 00 00 04 00 00 00 04 00 00 00
       6e-45 6e-45 6e-45 6e-45
000180 04 00 00 00 04 00 00 00 04 00 00 00 04 00 00 00
       6e-45 6e-45 6e-45 6e-45
000190 04 00 00 00 04 00 00 00 04 00 00 00 04 00 00 00
       6e-45 6e-45 6e-45 6e-45
0001a0 04 00 00 00 04 00 00 00 04 00 00 00 04 00 00 00
       6e-45 6e-45 6e-45 6e-45
0001b0 04 00 00 00 04 00 00 00 04 00 00 00 04 00 00 00
       6e-45 6e-45 6e-45 6e-45
0001c0 04 00 00 00 04 00 00 00 04 00 00 00 04 00 00 00
       6e-45 6e-45 6e-45 6e-45
0001d0 04 00 00 00 04 00 00 00 04 00 00 00 04 00 00 00
       6e-45 6e-45 6e-45 6e-45
0001e0 04 00 00 00 04 00 00 00 04 00 00 00 04 00 00 00
       6e-45 6e-45 6e-45 6e-45
0001f0 04 00 00 00 04 00 00 00 04 00 00 00 04 00 00 00
       6e-45 6e-45 6e-45 6e-45
000200 04 00 00 00 04 00 00 00 04 00 00 00 04 00 00 00
       6e-45 6e-45 6e-45 6e-45
000210 04 00 00 00 04 00 00 00 04 00 00 00 04 00 00 00
       6e-45 6e-45 6e-45 6e-45
000220 04 00 00 00 04 00 00 00 04 00 00 00 04 00 00 00
       6e-45 6e-45 6e-45 6e-45
000230 04 00 00 00 04 00 00 00 04 00 00 00 04 00 00 00
       6e-45 6e-45 6e-45 6e-45
000240 24 c9 c6 b7 38 a3 9e b7 1d a9 94 b7 2e 2e b4 36
       -2.3697103e-05 -1.8911072e-05 -1.7721724e-05 5.369794e-06
000250 70 4a 80 b6 d0 08 61 b7 61 09 fd b6 41 0d ee b6
       -3.823363e-06 -1.3413097e-05 -7.5410794e-06 -7.0944957e-06
000260 61 2c ef b6 3e 07 99 39 9c 81 b2 39 ce d8 bd 39
       -7.1279214e-06 0.0002918783 0.00034047372 0.0003621042
000270 e0 35 b6 39 f9 e6 d2 39 a0 9a d7 39 6a 6d cd 39
       0.00034753885 0.0004022641 0.000411232 0.00039182167
000280 68 b8 e5 39 bb 97 e5 39 b8 49 59 b7 9b 10 c7 b6
       0.00043815677 0.00043791332 -1.2951372e-05 -5.9325953e-06
000290 b1 78 a2 b6 e9 7f ec 36 7f b3 5a 37 d2 ce 2a 37
       -4.8420266e-06 7.048239e-06 1.3035605e-05 1.0180944e-05
0002a0 75 00 e6 35 20 11 3c 35 61 52 3c 36 25 67 1b 39
       1.7136468e-06 7.006038e-07 2.8062134e-06 0.00014820376
0002b0 cc dc 2c 39 2a 06 6a 39 38 14 5e 39 05 b0 3e 39
       0.00016485451 0.00022318275 0.00021179102 0.00018185384
0002c0 d1 da 1f 39 2e 96 df 38 76 e9 1b 39 0a f4 06 39
       0.00015244937 0.00010661442 0.00014868923 0.00012870147
0002d0 f4 44 84 39 7f 56 8c 39 61 25 93 39 f0 03 98 39
       0.00025228376 0.00026767325 0.00028065874 0.00028994633
0002e0 32 5b 98 39 c8 3f a0 39 89 9d 86 39 bf 4e 8f 39
       0.00029059645 0.000305651 0.00025675845 0.00027333756
0002f0 f4 e6 92 39 04 00 00 00 04 00 00 00 04 00 00 00
       0.00028019364 6e-45 6e-45 6e-45
000300 04 00 00 00 04 00 00 00 04 00 00 00 04 00 00 00
       6e-45 6e-45 6e-45 6e-45
000310 04 00 00 00 04 00 00 00 fb 6f ae 39 e2 41 ad 39
       6e-45 6e-45 0.00033271298 0.00033046218
000320 9c 9d a9 39 fd 22 b0 39 92 f9 a7 39 c9 0e be 39
       0.0003235162 0.00033595404 0.00032038667 0.0003625064
000330 b7 2d b5 39 53 7d b5 39 db c5 b1 39 ac d4 69 39
       0.0003455707 0.00034616384 0.00033907485 0.00022299838
000340 ad b4 37 39 c5 f0 4a 39 23 d2 5e 39 29 0d 42 39
       0.00017519547 0.00019353915 0.00021249852 0.00018506184
000350 25 b0 3b 39 8e 76 0e 39 2e fd 38 39 57 f6 2f 39
       0.00017899329 0.0001358634 0.00017641924 0.0001678107

exp_avg_sq f4 [3, 8, 3, 3]
000000 be 9a 15 35 35 eb 05 35 95 62 e4 34 ed aa 0e 35
       5.5732005e-07 4.988863e-07 4.2540037e-07 5.314785e-07
000010 7c ee fd 34 c3 52 d8 34 de 7f f6 34 30 41 d9 34
       4.7298442e-07 4.0293352e-07 4.5914106e-07 4.046683e-07
000020 ee 7c b8 34 86 82 f0 37 14 30 fe 37 27 7b e1 37
       3.436357e-07 2.867101e-05 3.0301548e-05 2.6879437e-05
000030 0a 8d 02 38 4e 27 0a 38 9c f5 f5 37 8f cc fc 37
       3.1125768e-05 3.293837e-05 2.9320647e-05 3.0135996e-05
000040 0e 0c 06 38 ae 85 ef 37 61 fb 36 32 22 92 12 32
       3.1959316e-05 2.855327e-05 1.0650951e-08 8.531545e-09
000050 16 ae 07 32 bd ac 72 32 9a b1 40 32 33 22 2a 32
       7.897617e-09 1.412553e-08 1.1216253e-08 9.903078e-09
000060 d8 3a c3 32 ba 6f a2 32 11 a6 85 32 fa e3 c8 36
       2.2727747e-08 1.891009e-08 1.5558756e-08 5.9870044e-06
000070 8e d3 d3 36 e5 a2 be 36 29 6c c1 36 5f 37 cb 36
       6.3129182e-06 5.6814047e-06 5.7644397e-06 6.0563175e-06
000080 72 05 b7 36 8b b6 a1 36 dc d4 a9 36 4d 3d 98 36
       5.454459e-06 4.8194247e-06 5.0613726e-06 4.5370894e-06
000090 28 6e 5a 37 ce 53 63 37 cc ca 4d 37 c2 bc 56 37
       1.301946e-05 1.3549767e-05 1.22661695e-05 1.2799343e-05
0000a0 3b 8b 5f 37 bf f6 4a 37 24 f0 3f 37 bb f8 47 37
       1.3324253e-05 1.2097588e-05 1.1440399e-05 1.1919236e-05
0000b0 22 38 35 37 c4 a4 a7 24 ca 14 b1 24 1e 48 bf 24
       1.080151e-05 7.270383e-17 7.679673e-17 8.295522e-17
0000c0 ec 82 b0 25 ea 04 b5 25 b6 71 b8 25 2f e1 45 20
       3.061985e-16 3.1401825e-16 3.1995965e-16 1.6761056e-19
0000d0 5e fc 18 20 54 9b cc 1f 1a 98 ce 36 cb 6c cc 36
       1.2958402e-19 8.665433e-20 6.1569854e-06 6.092339e-06
0000e0 dd 0b b1 36 0d b1 e0 36 1b 82 df 36 ff 91 c2 36
       5.276392e-06 6.6963316e-06 6.661064e-06 5.7986467e-06
0000f0 de f4 da 36 ba 8c da 36 a1 20 bf 36 89 4a 2c 36
       6.5254126e-06 6.513289e-06 5.696042e-06 2.5673382e-06
000100 92 98 26 36 3e ce 09 36 f6 5e 41 36 01 e9 3c 36
       2.4824735e-06 2.053464e-06 2.8814516e-06 2.814981e-06
000110 12 da 1c 36 38 b4 3b 36 d4 c5 39 36 c9 63 1b 36
       2.3372745e-06 2.7970073e-06 2.76823e-06 2.3154882e-06
000120 fe fd ac 2b e3 41 a4 2b 7d 46 a0 2b 0a 48 a2 2b
       1.2291832e-12 1.1671188e-12 1.1388248e-12 1.1530787e-12
000130 30 6b 88 2b 4e a8 86 2b ba 16 94 2b aa ae 65 2b
       9.693132e-13 9.567987e-13 1.052234e-12 8.159954e-13
000140 7b da 55 2b 99 2f 9f 2a 4b 50 a2 2a 00 ff a4 2a
       7.5976004e-13 2.82771e-13 2.8832695e-13 2.9309194e-13
000150 e6 43 f7 2a 1f 2b 05 2b 14 df bf 2a 49 a4 02 2c
       4.3923128e-13 4.7310934e-13 3.4083207e-13 1.8565308e-12
000160 c6 df 0b 2c f1 43 40 2b d6 f4 3d 2e a1 9d 3b 2e
       1.9877307e-12 6.830639e-13 4.3191083e-11 4.265888e-11
000170 b9 cd 3b 2e 55 f3 1d 2e d0 cd 1a 2e 1d 33 1b 2e
       4.2701596e-11 3.591379e-11 3.5198344e-11 3.5288317e-11
000180 b7 ac 16 2e 09 ad 14 2e 25 d7 14 2e 1c 1f f1 2c
       3.4259453e-11 3.380499e-11 3.384239e-11 6.853086e-12
000190 a2 b7 f3 2c 1d e1 f2 2c be 08 22 2d 09 fa 20 2d
       6.9268627e-12 6.9030463e-12 9.210575e-12 9.150466e-12
0001a0 8e 5d 15 2d 19 ae 2c 2d 66 9d 2f 2d a9 18 29 2d
       8.490443e-12 9.8157255e-12 9.982548e-12 9.6120134e-12
0001b0 60 c3 79 29 72 3e 5e 29 76 63 5f 29 4f 9f 85 2b
       5.5458567e-14 4.9348065e-14 4.9602216e-14 9.494435e-13
0001c0 25 b7 3d 2b 64 63 85 2a c0 7a 4b 2a 83 96 28 2a
       6.740045e-13 2.3694512e-13 1.807261e-13 1.4973617e-13
0001d0 a7 24 22 28 4c 8b b2 23 6d 01 09 24 49 16 80 23
       9.000754e-15 1.9357793e-17 2.9708347e-17 1.3887226e-17
0001e0 0e 9a 57 26 07 5d 84 26 e5 91 84 26 db 08 28 26
       7.480189e-16 9.184555e-16 9.198885e-16 5.829871e-16
0001f0 c2 55 18 26 f4 a9 f6 25 5c 66 6b 28 ac d8 6d 28
       5.2851817e-16 4.2789362e-16 1.3067316e-14 1.3203126e-14
000200 a7 91 9f 28 61 c9 de 2a e7 43 33 2a 4d f7 da 29
       1.7715713e-14 3.9574857e-13 1.5921952e-13 9.7240446e-14
000210 c5 4a 49 29 d4 71 df 27 1c a8 5e 27 a4 e9 f2 26
       4.4695818e-14 6.2018346e-15 3.0899821e-15 1.6855452e-15
000220 de fb 50 27 94 40 58 25 a8 9a 6c 27 b1 0a 87 27
       2.9002336e-15 1.8756893e-16 3.2835419e-15 3.748162e-15
000230 3e c3 e0 25 95 67 85 25 76 78 63 26 5f 47 7a 25
       3.8990107e-16 2.3142012e-16 7.89197e-16 2.1708225e-16
000240 94 ad 49 35 b5 ef 4f 35 e4 9d 32 35 3b d0 47 35
       7.5130924e-07 7.746233e-07 6.653993e-07 7.443629e-07
000250 07 58 4d 35 c0 02 30 35 3f 48 29 35 ca 55 2d 35
       7.649655e-07 6.556911e-07 6.306254e-07 6.457236e-07
000260 f6 db 13 35 dd ef 69 38 42 2b 85 38 02 47 8b 38
       5.508185e-07 5.577492e-05 6.3499916e-05 6.641263e-05
000270 15 c2 80 38 58 65 92 38 9d 02 99 38 2f f3 80 38
       6.139666e-05 6.980699e-05 7.296095e-05 6.148812e-05
000280 58 49 92 38 18 87 98 38 87 c4 f8 32 4f 9b c2 32
       6.975484e-05 7.273088e-05 2.896037e-08 2.2655199e-08
000290 90 30 2d 32 e8 24 17 33 68 c5 ef 32 6b 6e 4e 32
       1.0080967e-08 3.5190993e-08 2.7913032e-08 1.2015884e-08
0002a0 9b 5d 53 33 a8 b1 2d 33 23 b7 93 32 9b 1b 0f 37
       4.92124e-08 4.044128e-08 1.7196333e-08 8.529892e-06
0002b0 e7 a0 24 37 4f 21 2a 37 8c 37 0d 37 5e 61 21 37
       9.812625e-06 1.0140545e-05 8.417188e-06 9.619018e-06
0002c0 f8 4e 28 37 0c 5b e7 36 6a ab 03 37 0d 10 0a 37
       1.0031967e-05 6.8949357e-06 7.848119e-06 8.229178e-06
0002d0 41 9c cb 37 0c 33 eb 37 ac aa f3 37 04 46 cf 37
       2.4272247e-05 2.8037954e-05 2.9047333e-05 2.4708927e-05
0002e0 3f d2 ee 37 a8 98 f7 37 42 ed ba 37 b6 f2 d6 37
       2.8469714e-05 2.951578e-05 2.228341e-05 2.5623809e-05
0002f0 4b 9c de 37 7f 61 16 29 6d ac 58 29 33 fb ba 29
       2.6537242e-05 3.3391255e-14 4.811119e-14 8.3036354e-14
000300 fa d9 19 2a 31 78 49 2a 46 3b 8a 2a 30 f4 b0 2a
       1.3664756e-13 1.7894086e-13 2.4554854e-13 3.143332e-13
000310 ca 9a dd 2a d5 fe 08 2b db 48 67 37 73 48 83 37
       3.9364893e-13 4.8670557e-13 1.3785636e-05 1.5650154e-05
000320 94 56 7f 37 3a f5 7d 37 fe 14 90 37 a6 2b 8c 37
       1.52193425e-05 1.5137071e-05 1.7175913e-05 1.6709626e-05
000330 02 a9 7b 37 d4 85 8e 37 fa f1 8a 37 09 93 b3 36
       1.5000116e-05 1.6990038e-05 1.6563561e-05 5.351733e-06
000340 65 55 d3 36 b1 ae b8 36 61 2b c6 36 b6 33 e9 36
       6.2982313e-06 5.503964e-06 5.90591e-06 6.949961e-06
000350 2f 38 d0 36 5a 27 c5 36 bb 98 e8 36 43 94 d3 36
       6.2054237e-06 5.8756386e-06 6.931919e-06 6.30555e-06

exp_avg f4 [3]
000000 f8 18 cb 39 04 00 00 00 69 c8 0f 3a
       0.0003873778 6e-45 0.00054848805

exp_avg_sq f4 [3]
000000 13 e4 ec 38 6a bf 94 32 5f ba 69 39
       0.00011295839 1.7316513e-08 0.0002229004

exp_avg f4 [8, 3, 3, 3]
000000 87 d5 fb 38 64 9c f4 38 06 fa 13 39 e4 6f 2d 39
       0.00012008385 0.00011663957 0.00014112153 0.00016540248
000010 84 05 1c 39 1f 56 21 39 44 1b 08 39 11 1e 21 39
       0.00014879374 0.00015386239 0.00012980128 0.00015365357
000020 67 bd 0c 39 04 00 00 00 04 00 00 00 04 00 00 00
       0.00013421998 6e-45 6e-45 6e-45
000030 04 00 00 00 04 00 00 00 04 00 00 00 04 00 00 80
       6e-45 6e-45 6e-45 -6e-45
000040 04 00 00 00 04 00 00 00 c5 ee 85 38 d2 11 69 38
       6e-45 6e-45 6.3864085e-05 5.5568125e-05
000050 8d ea 2a 38 87 1f e0 37 a4 47 ab 37 de 3c 12 38
       4.07496e-05 2.6717562e-05 2.0418149e-05 3.48658e-05
000060 64 56 65 38 13 d0 69 38 82 f4 17 38 a6 f6 0b 36
       5.4678312e-05 5.5745313e-05 3.622892e-05 2.0856182e-06
000070 aa fa 9d b7 0f 45 81 b7 37 1e 25 b7 43 f9 f8 b7
       -1.8832583e-05 -1.5410156e-05 -9.841801e-06 -2.9679975e-05
000080 b9 a5 f0 b7 e9 e8 ff b7 d3 1a 25 b8 0d 5a ea b7
       -2.86874e-05 -3.0506826e-05 -3.9364048e-05 -2.7936907e-05
000090 00 00 00 00 00 00 00 00 00 00 00 00 00 00 00 00
       0.0 0.0 0.0 0.0
0000a0 00 00 00 00 04 00 00 80 04 00 00 00 04 00 00 80
       0.0 -6e-45 6e-45 -6e-45
0000b0 00 00 00 00 71 78 0d b7 26 df 5b b7 d1 63 3e b7
       0.0 -8.432297e-06 -1.3105373e-05 -1.1348123e-05
0000c0 05 cb 42 b7 9d 35 c2 b7 b1 7c 82 b7 8e 6a 8c b7
       -1.161057e-05 -2.3151568e-05 -1.5555272e-05 -1.6738919e-05
0000d0 18 ec a7 b7 5f 01 7f b7 ce 21 36 36 86 ea 15 37
       -2.0017891e-05 -1.5199504e-05 2.713979e-06 8.935696e-06
0000e0 d0 93 6b b7 09 c0 88 37 d0 02 09 38 c1 ac 87 37
       -1.4041507e-05 1.6301887e-05 3.2665965e-05 1.6173699e-05
0000f0 1b c8 e9 35 b4 01 09 37 f7 be 38 37 04 00 00 80
       1.7418091e-06 8.166233e-06 1.1011717e-05 -6e-45
000100 04 00 00 80 04 00 00 80 04 00 00 80 04 00 00 80
       -6e-45 -6e-45 -6e-45 -6e-45
000110 04 00 00 80 04 00 00 80 04 00 00 80 04 00 00 80
       -6e-45 -6e-45 -6e-45 -6e-45
000120 27 bf d4 b6 34 c0 ab 35 d8 57 9e 36 84 24 b4 36
       -6.3403454e-06 1.2796431e-06 4.7189933e-06 5.368669e-06
000130 2a 88 07 37 a2 9f 94 36 07 bc c5 b4 5d 30 c1 36
       8.07833e-06 4.4293274e-06 -3.6830917e-07 5.7574784e-06
000140 dd 3f e7 36 08 52 71 10 52 43 43 10 69 a7 15 10
       6.891771e-06 4.7592064e-29 3.850883e-29 2.9514037e-29
000150 b6 d5 f9 0f 19 a3 60 10 4f 4d 7f 10 d2 fb 0f 0e
       2.4635614e-29 4.4301857e-29 5.034944e-29 1.7747358e-30
000160 0d 71 0a 0f 59 be fa 0f 00 00 00 00 00 00 00 00
       6.825698e-30 2.4725223e-29 0.0 0.0
000170 00 00 00 00 00 00 00 00 00 00 00 00 00 00 00 00
       0.0 0.0 0.0 0.0
000180 00 00 00 00 00 00 00 00 00 00 00 00 00 00 00 00
       0.0 0.0 0.0 0.0
000190 00 00 00 00 1c 3d 38 0f d5 e4 05 0f c0 3a 61 0f
       0.0 9.08367e-30 6.601478e-30 1.1104671e-29
0001a0 b4 24 a5 0f ff b1 0f 0f ff 20 4a 0f 18 07 82 0f
       1.6284394e-29 7.084725e-30 9.965724e-30 1.2821722e-29
0001b0 bd 5b 56 39 b6 94 58 39 88 04 71 39 a7 77 6e 39
       0.00020442806 0.00020654764 0.00022985239 0.00022742023
0001c0 10 21 54 39 33 f2 76 39 93 2f 60 39 08 98 67 39
       0.00020230212 0.00023550614 0.00021380027 0.00022086513
0001d0 2a 91 76 39 04 00 00 00 04 00 00 00 04 00 00 00
       0.00023514466 6e-45 6e-45 6e-45
0001e0 04 00 00 00 04 00 00 00 04 00 00 00 04 00 00 80
       6e-45 6e-45 6e-45 -6e-45
0001f0 04 00 00 00 04 00 00 00 a6 37 d0 38 4f 70 cf 38
       6e-45 6e-45 9.928578e-05 9.891448e-05
000200 25 bb bd 38 74 0e a8 38 9b 3a b0 38 e6 0f bc 38
       9.047081e-05 8.013556e-05 8.40325e-05 8.9675e-05
000210 73 66 c6 38 06 17 b9 38 0f 55 aa 38 8a af d4 b9
       9.4604584e-05 8.825776e-05 8.122075e-05 -0.00040566578
000220 5e 56 d5 b9 00 19 eb b9 5a 4a e6 b9 b1 22 df b9
       -0.00040690874 -0.0004484132 -0.00043924415 -0.00042559722
000230 63 d5 f8 b9 91 cc db b9 50 29 ed b9 30 5c f7 b9
       -0.00047461232 -0.0004192335 -0.00045234943 -0.00047180196
000240 04 00 00 80 04 00 00 80 04 00 00 80 04 00 00 80
       -6e-45 -6e-45 -6e-45 -6e-45
000250 04 00 00 80 04 00 00 80 04 00 00 00 04 00 00 80
       -6e-45 -6e-45 6e-45 -6e-45
000260 04 00 00 80 fe 3c 4e b9 18 22 51 b9 c1 43 2f b9
       -6e-45 -0.00019668412 -0.00019944494 -0.00016714541
000270 a3 53 4a b9 80 50 48 b9 2a 54 37 b9 cf c2 5f b9
       -0.00019295378 -0.00019103475 -0.00017483594 -0.00021339509
000280 32 ce 4f b9 74 68 2f b9 87 8a 99 37 34 73 d0 37
       -0.00019817872 -0.00016728212 1.8303528e-05 2.4849178e-05
000290 74 19 84 37 4e 71 d4 37 3f eb d6 37 d0 15 91 37
       1.5747479e-05 2.5325131e-05 2.5620333e-05 1.7295504e-05
0002a0 53 f5 a1 37 c1 f4 a2 37 e2 a4 b9 37 04 00 00 00
       1.9306934e-05 1.9425877e-05 2.2130498e-05 6e-45
0002b0 04 00 00 80 04 00 00 80 04 00 00 00 04 00 00 80
       -6e-45 -6e-45 6e-45 -6e-45
0002c0 04 00 00 80 04 00 00 00 04 00 00 80 04 00 00 80
       -6e-45 6e-45 -6e-45 -6e-45
0002d0 11 60 75 37 90 b2 75 37 c2 9b 7d 37 54 b2 2d 37
       1.4625505e-05 1.4644713e-05 1.511624e-05 1.0353124e-05
0002e0 46 6e 50 b6 40 88 5f 37 12 73 37 37 85 ec 86 37
       -3.1058603e-06 1.3323559e-05 1.0934442e-05 1.6084183e-05
0002f0 7d 76 58 37 d6 cd 13 b9 6f 48 0a b9 4b 42 21 b9
       1.2902191e-05 -0.00014095692 -0.00013187689 -0.00015378853
000300 2f 5d 0f b9 6f 09 08 b9 5b 7e 11 b9 a0 31 ce b8
       -0.00013672256 -0.00012973485 -0.00013875349 -9.832089e-05
000310 84 8c f0 b8 79 44 01 b9 04 00 00 80 04 00 00 80
       -0.00011470265 -0.00012327907 -6e-45 -6e-45
000320 04 00 00 80 04 00 00 80 04 00 00 80 04 00 00 80
       -6e-45 -6e-45 -6e-45 -6e-45
000330 04 00 00 00 04 00 00 00 04 00 00 80 3b c7 91 b8
       6e-45 6e-45 -6e-45 -6.951248e-05
000340 c2 e3 91 b8 66 d3 6e b8 5a a4 57 b8 f0 c4 3c b8
       -6.956562e-05 -5.6940502e-05 -5.141306e-05 -4.5006105e-05
000350 2e 1f 4d b8 37 75 8b b8 e0 57 6d b8 2c 23 44 b8
       -4.8904847e-05 -6.6498695e-05 -5.6587043e-05 -4.6762798e-05
