logs/epoch=4_v1.ckpt (torch_old, 153933 bytes, 36 tensors)

exp_avg f4 [12, 6, 7, 7]
0	0xb655983a	-3.182808e-06
1	0xb6c15de4	-5.7627785e-06
2	0xb6fddf22	-7.5659636e-06
3	0xb70dc36e	-8.449757e-06
4	0xb7363f93	-1.0862847e-05
5	0xb7539d97	-1.2613272e-05
6	0xb7633e52	-1.3544764e-05
7	0xb62b407e	-2.5518525e-06
8	0xb6a1f0eb	-4.8262204e-06
9	0xb6e2140d	-6.737659e-06
10	0xb6fc3fa6	-7.517595e-06
11	0xb7234f63	-9.734041e-06
12	0xb7403956	-1.1457441e-05
13	0xb7557c38	-1.2724711e-05
14	0xb68e6e9d	-4.244807e-06
15	0xb6d6df09	-6.4036617e-06
16	0xb7026828	-7.772855e-06
17	0xb703ccfa	-7.855933e-06
18	0xb71ab04a	-9.220161e-06
19	0xb72fd4d9	-1.048037e-05
20	0xb741ef03	-1.1559346e-05
21	0xb6a50278	-4.9176706e-06
22	0xb6e79edf	-6.9028315e-06
23	0xb6f8c012	-7.413336e-06
24	0xb6f18496	-7.1977947e-06
25	0xb7053ea2	-7.942001e-06
26	0xb707b9d6	-8.089895e-06
27	0xb70fae51	-8.56405e-06
28	0xb6dd365c	-6.5926415e-06
29	0xb70fe205	-8.5760885e-06
30	0xb71311ad	-8.765998e-06
31	0xb702bdec	-7.792823e-06
32	0xb70260ca	-7.771139e-06
33	0xb6f74f81	-7.370429e-06
34	0xb6ffafbf	-7.6200517e-06
35	0xb6e98118	-6.9589696e-06
36	0xb7157efe	-8.91066e-06
37	0xb717df01	-9.0522235e-06
38	0xb702ec3b	-7.8036055e-06
39	0xb6fa69d5	-7.462901e-06
40	0xb6ed2360	-7.0672686e-06
41	0xb6de083d	-6.6170746e-06
42	0xb6ea6e40	-6.9865782e-06
43	0xb71e7d4c	-9.446707e-06
44	0xb723bf09	-9.760036e-06
45	0xb7120802	-8.704143e-06
46	0xb70ed3e7	-8.513197e-06
47	0xb703bbcf	-7.851936e-06
48	0xb6fc39f1	-7.5169305e-06
49	0xb58558de	-9.935136e-07
50	0xb610b0df	-2.1560625e-06
51	0xb648e0de	-2.9933212e-06
52	0xb67044d4	-3.580285e-06
53	0xb69af2d8	-4.6178284e-06
54	0xb6b6637a	-5.4356033e-06
55	0xb6c6e9c1	-5.9280724e-06
56	0xb56baded	-8.779742e-07
57	0xb60362a6	-1.9577942e-06
58	0xb6435742	-2.9108055e-06
59	0xb65fe399	-3.3362069e-06
60	0xb68ff489	-4.2901997e-06
61	0xb6aa6ddd	-5.0791846e-06
62	0xb6bea523	-5.6816657e-06
63	0xb5dcdcf7	-1.6455587e-06
64	0xb63b5330	-2.7913593e-06
65	0xb65d4c37	-3.297593e-06
66	0xb66651f7	-3.432038e-06
67	0xb688fbab	-4.082414e-06
68	0xb69c33be	-4.655186e-06
69	0xb6af00e1	-5.2155087e-06
70	0xb60d3e8b	-2.1047042e-06
71	0xb64f0520	-3.0848387e-06
72	0xb6628530	-3.375415e-06
73	0xb65b5c75	-3.268736e-06
74	0xb671cd11	-3.6031163e-06
75	0xb67ad6e4	-3.7377986e-06
76	0xb68387d1	-3.9199153e-06
77	0xb63d9e33	-2.8255279e-06
78	0xb67f45f8	-3.8038688e-06
79	0xb6828760	-3.8900616e-06
80	0xb66519f0	-3.4138757e-06
81	0xb666481a	-3.431464e-06
82	0xb6611fc9	-3.3546114e-06
83	0xb6625639	-3.3726812e-06
84	0xb648acea	-2.9902972e-06
85	0xb684c882	-3.9572487e-06
86	0xb6870edc	-4.0250434e-06
87	0xb6698857	-3.4799066e-06
88	0xb65c4310	-3.282159e-06
89	0xb64967e2	-3.0011802e-06
90	0xb6398d64	-2.7649448e-06
91	0xb6465096	-2.9551206e-06
92	0xb68c4c4d	-4.1812077e-06
93	0xb6900716	-4.2923593e-06
94	0xb67fae96	-3.8099583e-06
95	0xb66fddac	-3.5742805e-06
96	0xb65eec9f	-3.321831e-06
97	0xb64ea844	-3.0794336e-06
98	0xb6b03897	-5.2517967e-06
99	0xb6f89cd3	-7.4092327e-06
100	0xb71da82c	-9.397085e-06
101	0xb71f8538	-9.508156e-06
102	0xb74977ab	-1.2008396e-05
103	0xb7676f95	-1.3794653e-05
104	0xb77910f8	-1.4845507e-05
105	0xb654f72c	-3.1734335e-06
106	0xb69e08a9	-4.709775e-06
107	0xb6e3d5e3	-6.790027e-06
108	0xb6e426b9	-6.7994374e-06
109	0xb7176b6c	-9.0253125e-06
110	0xb73b6b70	-1.1171083e-05
111	0xb74bdc28	-1.2151002e-05
112	0xb69d8c07	-4.695266e-06
113	0xb6cac3c4	-6.0428592e-06
114	0xb6fa1bcd	-7.453817e-06
115	0xb6d4ae2f	-6.33837e-06
116	0xb7034f1b	-7.826627e-06
117	0xb71dae19	-9.3984645e-06
118	0xb72fb1bf	-1.0472198e-05
119	0xb6b4753e	-5.378067e-06
120	0xb6d80cc3	-6.4387873e-06
121	0xb6dead2f	-6.636277e-06
122	0xb6b7c3d2	-5.4766215e-06
123	0xb6c1cdc0	-5.7758007e-06
124	0xb6c69292	-5.917923e-06
125	0xb6d53f03	-6.35523e-06
126	0xb6ff4d23	-7.608572e-06
127	0xb7123b87	-8.716138e-06
128	0xb711efa5	-8.69847e-06
129	0xb6d7af6a	-6.42792e-06
130	0xb6d127e8	-6.233331e-06
131	0xb6bc7501	-5.6164577e-06
132	0xb6bff472	-5.7207008e-06
133	0xb708f61e	-8.163535e-06
134	0xb71ddbe1	-9.409124e-06
135	0xb71ef6cf	-9.4749985e-06
136	0xb6efafc4	-7.143217e-06
137	0xb6da3d31	-6.50403e-06
138	0xb6c6dddc	-5.9266877e-06
139	0xb6b35119	-5.3440567e-06
140	0xb6fe19bd	-7.572786e-06
141	0xb723ec27	-9.770541e-06
142	0xb72979b6	-1.0101523e-05
143	0xb70953f0	-8.18538e-06
144	0xb702428a	-7.764096e-06
145	0xb6f1b60d	-7.203553e-06
146	0xb6e68c9f	-6.8709046e-06
147	0xb6f44a02	-7.2803823e-06
148	0xb7241033	-9.778933e-06
149	0xb7491bdf	-1.1987023e-05
150	0xb74569db	-1.1766761e-05
151	0xb777cb90	-1.4769743e-05
152	0xb78be46c	-1.6676458e-05
153	0xb794aa86	-1.7722381e-05
154	0xb6b9b9b1	-5.535047e-06
155	0xb6eefab5	-7.122139e-06
156	0xb71f46d0	-9.493626e-06
157	0xb716f00c	-8.996587e-06
158	0xb74114e2	-1.1508559e-05
159	0xb7629add	-1.3506707e-05
160	0xb776465d	-1.4679125e-05
161	0xb6f5ca09	-7.325089e-06
162	0xb71651e1	-8.959761e-06
163	0xb72e3886	-1.0384369e-05
164	0xb7150feb	-8.884798e-06
165	0xb72bc7e1	-1.0238932e-05
166	0xb7483a05	-1.1934438e-05
167	0xb75a0115	-1.29940645e-05
168	0xb7080bcc	-8.108978e-06
169	0xb71b71e1	-9.265234e-06
170	0xb71eff9c	-9.477048e-06
171	0xb7022d12	-7.759098e-06
172	0xb7072842	-8.056e-06
173	0xb708029a	-8.106837e-06
174	0xb70e960c	-8.498795e-06
175	0xb72b8a1b	-1.0224549e-05
176	0xb741e947	-1.1558011e-05
177	0xb74282e8	-1.159378e-05
178	0xb714b704	-8.864099e-06
179	0xb70e2dc6	-8.474517e-06
180	0xb703d764	-7.858358e-06
181	0xb706aaec	-8.026818e-06
182	0xb72f5f1b	-1.0452956e-05
183	0xb7492755	-1.1989691e-05
184	0xb74c7632	-1.2186867e-05
185	0xb71b864e	-9.26999e-06
186	0xb70fd2b5	-8.572523e-06
187	0xb705f182	-7.983648e-06
188	0xb6f62f9f	-7.336915e-06
189	0xb7220e95	-9.659348e-06
190	0xb74e9d31	-1.2315156e-05
191	0xb754448a	-1.2652143e-05
192	0xb72ce8ed	-1.0306231e-05
193	0xb727d609	-1.000381e-05
194	0xb71d3b4c	-9.371735e-06
195	0xb718704e	-9.086054e-06
196	0xb6f72977	-7.366001e-06
197	0xb72417f3	-9.780738e-06
198	0xb74afc57	-1.2098891e-05
199	0xb74702a8	-1.1861943e-05
200	0xb77ce92e	-1.5074662e-05
201	0xb7901c68	-1.7179365e-05
202	0xb7995253	-1.8277357e-05
203	0xb6bac76c	-5.5664477e-06
204	0xb6ede4fb	-7.0898072e-06
205	0xb71c94a8	-9.332936e-06
206	0xb718792d	-9.088119e-06
207	0xb7434767	-1.163953e-05
208	0xb7662f8d	-1.372014e-05
209	0xb77aefae	-1.4956966e-05
210	0xb6f6d78e	-7.356465e-06
211	0xb715891e	-8.913017e-06
212	0xb72d3e31	-1.0326084e-05
213	0xb716c638	-8.986848e-06
214	0xb72d59a0	-1.0332471e-05
215	0xb74ac672	-1.2086342e-05
216	0xb75f6b97	-1.3316886e-05
217	0xb70d9180	-8.438132e-06
218	0xb7218270	-9.626718e-06
219	0xb72321bc	-9.7234115e-06
220	0xb709cdb1	-8.213728e-06
221	0xb70def8d	-8.46003e-06
222	0xb70d1d73	-8.411112e-06
223	0xb712c002	-8.746983e-06
224	0xb733f9ee	-1.0727423e-05
225	0xb74c0775	-1.2161084e-05
226	0xb7496dae	-1.200607e-05
227	0xb71d17aa	-9.363439e-06
228	0xb716e86a	-8.99481e-06
229	0xb70bbde2	-8.329256e-06
230	0xb70b017c	-8.285391e-06
231	0xb73ad9dc	-1.1137188e-05
232	0xb755ca15	-1.274284e-05
233	0xb75794eb	-1.2849671e-05
234	0xb7274c0c	-9.971682e-06
235	0xb719e580	-9.172945e-06
236	0xb70eb004	-8.504841e-06
237	0xb703f1a3	-7.864469e-06
238	0xb72e56f0	-1.039145e-05
239	0xb758c548	-1.2920536e-05
240	0xb760be5d	-1.3395763e-05
241	0xb737e477	-1.0960844e-05
242	0xb7316c69	-1.0575263e-05
243	0xb72a8c2c	-1.0165426e-05
244	0xb7240866	-9.777117e-06
245	0xb6f5348a	-7.3076853e-06
246	0xb720ec2c	-9.591731e-06
247	0xb7465317	-1.18210655e-05
248	0xb7443a09	-1.1696023e-05
249	0xb776c85b	-1.47093915e-05
250	0xb78bec23	-1.6680051e-05
251	0xb7958add	-1.7826847e-05
252	0xb6d5eb0f	-6.375259e-06
253	0xb705348b	-7.939651e-06
254	0xb72a0529	-1.0133991e-05
255	0xb71eeda1	-9.472861e-06

exp_avg_sq f4 [12, 6, 7, 7]
0	0x32961e26	1.7476008e-08
1	0x32ae3e08	2.0284475e-08
2	0x32afcc2f	2.0465533e-08
3	0x32af9c61	2.0443794e-08
4	0x32b569b7	2.1119247e-08
5	0x32b97d89	2.1593921e-08
6	0x32bbb8af	2.185365e-08
7	0x32a49f2c	1.9164496e-08
8	0x32c15bb1	2.2509854e-08
9	0x32c4b693	2.2900428e-08
10	0x32c3d7f4	2.2799192e-08
11	0x32ca7aec	2.3571793e-08
12	0x32d05001	2.4250769e-08
13	0x32d596db	2.4865065e-08
14	0x32a4d75f	1.9190052e-08
15	0x32c1db32	2.2567836e-08
16	0x32c535ae	2.2958229e-08
17	0x32c44180	2.2847189e-08
18	0x32ca184f	2.352695e-08
19	0x32d11713	2.4341295e-08
20	0x32d5b669	2.4879414e-08
21	0x32a801e0	1.9558627e-08
22	0x32c8e07e	2.3385152e-08
23	0x32cb78c2	2.3687225e-08
24	0x32cbe886	2.373805e-08
25	0x32d161ad	2.437522e-08
26	0x32d5738b	2.4849006e-08
27	0x32d87c89	2.5202342e-08
28	0x32b06fa3	2.0539863e-08
29	0x32d3c469	2.465295e-08
30	0x32d7050d	2.5031591e-08
31	0x32d435ba	2.470448e-08
32	0x32d8a35b	2.5219995e-08
33	0x32dc5643	2.5650598e-08
34	0x32deaba5	2.5922256e-08
35	0x32b49a5c	2.1024952e-08
36	0x32daa4a7	2.5453415e-08
37	0x32de7dfc	2.5901493e-08
38	0x32da0351	2.5380048e-08
39	0x32dcb330	2.5692856e-08
40	0x32de6879	2.589171e-08
41	0x32dfa237	2.6034384e-08
42	0x32b8466a	2.145244e-08
43	0x32dfcf63	2.6054925e-08
44	0x32e1b50c	2.6275778e-08
45	0x32dcfeb8	2.5727203e-08
46	0x32dec3b6	2.59332e-08
47	0x32e008e3	2.6081073e-08
48	0x32deeba5	2.595136e-08
49	0x3146290d	2.8836127e-09
50	0x316497f0	3.3264733e-09
51	0x3166e336	3.359856e-09
52	0x3167400b	3.3651328e-09
53	0x316f4be6	3.482222e-09
54	0x317532a8	3.5680987e-09
55	0x31781432	3.610023e-09
56	0x31584f43	3.1477192e-09
57	0x317d74f8	3.6882835e-09
58	0x3180899c	3.7409347e-09
59	0x3180362a	3.731448e-09
60	0x3184aacf	3.8611243e-09
61	0x3189467b	3.9952375e-09
62	0x318d1887	4.1064285e-09
63	0x315893fc	3.1516256e-09
64	0x317d3196	3.6844532e-09
65	0x3180769f	3.738776e-09
66	0x31804b36	3.733841e-09
67	0x318470eb	3.854543e-09
68	0x31897db2	4.0015147e-09
69	0x318cd6d8	4.098961e-09
70	0x315d7c86	3.2230516e-09
71	0x31837cca	3.8267887e-09
72	0x31855dff	3.8814956e-09
73	0x3185b503	3.891388e-09
74	0x3189c301	4.009394e-09
75	0x318cb6cd	4.0953183e-09
76	0x318f22b1	4.1657917e-09
77	0x3168ba8c	3.3866483e-09
78	0x318b4994	4.0537973e-09
79	0x318d7c9f	4.117808e-09
80	0x318be78d	4.0717567e-09
81	0x318ec33a	4.1549386e-09
82	0x3191c671	4.2426156e-09
83	0x319384d6	4.2933648e-09
84	0x316e9e27	3.4723457e-09
85	0x31908b2c	4.2067736e-09
86	0x3192f408	4.2769024e-09
87	0x3190149f	4.193296e-09
88	0x31921b5c	4.2522696e-09
89	0x319356b6	4.288121e-09
90	0x31941dae	4.310741e-09
91	0x3173f546	3.5500576e-09
92	0x31942c77	4.312422e-09
93	0x319533e8	4.342372e-09
94	0x319279ed	4.2630206e-09
95	0x31938c6d	4.2942276e-09
96	0x3194af7f	4.3273185e-09
97	0x3193d300	4.302251e-09
98	0x32fdda74	2.9552417e-08
99	0x33153a49	3.4744776e-08
100	0x331710ba	3.517264e-08
101	0x33173d70	3.5213304e-08
102	0x331cecc8	3.653693e-08
103	0x33205002	3.732567e-08
104	0x33223682	3.776814e-08
105	0x330c1f04	3.26245e-08
106	0x3326ca2b	3.8833758e-08
107	0x332a99fb	3.9721254e-08
108	0x332ac9c3	3.976471e-08
109	0x33318bec	4.1338282e-08
110	0x33368eb0	4.250495e-08
111	0x333b153c	4.3558643e-08
112	0x330c8e7a	3.2725872e-08
113	0x332789e2	3.900812e-08
114	0x332ba205	3.9961396e-08
115	0x332b1abc	3.9838355e-08
116	0x333168ec	4.130645e-08
117	0x33376b2d	4.2705484e-08
118	0x333b4b43	4.360778e-08
119	0x330f7dfe	3.340937e-08
120	0x332e4b8a	4.0581234e-08
121	0x33313fc1	4.1269008e-08
122	0x33327b70	4.155612e-08
123	0x3337cbdf	4.2793427e-08
124	0x333b5bea	4.3622926e-08
125	0x333dffbb	4.4237577e-08
126	0x33175bf4	3.5241058e-08
127	0x3337c711	4.2789058e-08
128	0x333be852	4.3750624e-08
129	0x3339af67	4.3233197e-08
130	0x333de77b	4.4215522e-08
131	0x33418d57	4.5064862e-08
132	0x334355e8	4.5480107e-08
133	0x331b16bd	3.610943e-08
134	0x333e5b95	4.4321116e-08
135	0x3342a0e4	4.5315474e-08
136	0x333e467e	4.4301935e-08
137	0x3341dafa	4.5135472e-08
138	0x33431ea9	4.542986e-08
139	0x3343f233	4.5622254e-08
140	0x331ec256	3.696399e-08
141	0x3342c20a	4.5345622e-08
142	0x33454306	4.5928594e-08
143	0x33413991	4.498867e-08
144	0x33428b7a	4.5295998e-08
145	0x3343d207	4.5592994e-08
146	0x3342cacb	4.5353584e-08
147	0x3329fd79	3.957891e-08
148	0x33486522	4.665811e-08
149	0x334a9cc2	4.717436e-08
150	0x334ae34d	4.723852e-08
151	0x335240ac	4.8953254e-08
152	0x3356a4ac	4.9975526e-08
153	0x3358e715	5.0501587e-08
154	0x333c7dca	4.3886565e-08
155	0x33612906	5.2424205e-08
156	0x336667fa	5.3645614e-08
157	0x3365e20c	5.3523806e-08
158	0x336e3986	5.546601e-08
159	0x3374ca64	5.699475e-08
160	0x337ab06a	5.836811e-08
161	0x333d185f	4.4027157e-08
162	0x3362a729	5.2771757e-08
163	0x3367f74d	5.4008797e-08
164	0x3366d341	5.3743182e-08
165	0x336ee19e	5.561889e-08
166	0x33769622	5.7412883e-08
167	0x337b31a4	5.848564e-08
168	0x3341d76c	4.513224e-08
169	0x336c223c	5.4979168e-08
170	0x337028b8	5.5916388e-08
171	0x337111fb	5.612854e-08
172	0x33776444	5.760036e-08
173	0x337bbb9b	5.8611118e-08
174	0x337edb74	5.9338575e-08
175	0x334baf00	4.7423782e-08
176	0x33785fda	5.7829176e-08
177	0x337dad2a	5.9063645e-08
178	0x33799b46	5.811605e-08
179	0x337f0555	5.9376664e-08
180	0x3381a2c2	6.036636e-08
181	0x3382b18c	6.085892e-08
182	0x3350176c	4.8450076e-08
183	0x33801d79	5.9658255e-08
184	0x3382e3ee	6.095057e-08
185	0x337f64e8	5.9463588e-08
186	0x3381cfbe	6.044819e-08
187	0x33829816	6.081261e-08
188	0x3382f316	6.097814e-08
189	0x335501a8	4.9594433e-08
190	0x3382dcbf	6.09375e-08
191	0x3384348d	6.156288e-08
192	0x33814065	6.018744e-08
193	0x3381f3c9	6.051375e-08
194	0x3382a031	6.0827354e-08
195	0x3381c3c3	6.0426395e-08
196	0x332608f6	3.8658037e-08
197	0x33439354	4.553597e-08
198	0x3345b30d	4.6030483e-08
199	0x3345e3e8	4.6074916e-08
200	0x334d53c3	4.7806463e-08
201	0x3351db00	4.8860784e-08
202	0x3354458a	4.9423342e-08
203	0x3337dca5	4.2808683e-08
204	0x335b5c5a	5.1073904e-08
205	0x336079be	5.2264788e-08
206	0x336009d6	5.216301e-08
207	0x3368961e	5.415324e-08
208	0x336f55d7	5.5724595e-08
209	0x337521d4	5.7074274e-08
210	0x3338799a	4.2951434e-08
211	0x335cc30a	5.140013e-08
212	0x3362086f	5.2627396e-08
213	0x33611fc4	5.2415785e-08
214	0x33691001	5.4264095e-08
215	0x3370e49e	5.608728e-08
216	0x3375c4ba	5.722243e-08
217	0x333d3883	4.405639e-08
218	0x33667dca	5.3665453e-08
219	0x336a293c	5.4519873e-08
220	0x336b43e0	5.4776933e-08
221	0x33720416	5.6348732e-08
222	0x3376309b	5.7320545e-08
223	0x3379a0c1	5.8121035e-08
224	0x334740e5	4.639232e-08
225	0x3372bc26	5.6516136e-08
226	0x33780865	5.7749634e-08
227	0x33742e4d	5.6852787e-08
228	0x3379cdcd	5.8162005e-08
229	0x337e1467	5.915754e-08
230	0x33802fda	5.9691686e-08
231	0x334bb82d	4.7432128e-08
232	0x337aac85	5.8364567e-08
233	0x33803117	5.969394e-08
234	0x337a2fb7	5.8251057e-08
235	0x337e8838	5.9262874e-08
236	0x33800f53	5.963252e-08
237	0x3380686d	5.9794594e-08
238	0x3350b0e9	4.8589673e-08
239	0x338030bd	5.96933e-08
240	0x33818a34	6.0321696e-08
241	0x337d6b55	5.900377e-08
242	0x337ef698	5.936326e-08
243	0x33801203	5.963741e-08
244	0x337e8880	5.926313e-08
245	0x332666eb	3.874349e-08
246	0x3343de35	4.560407e-08
247	0x33462cf4	4.6141352e-08
248	0x33467837	4.6209802e-08
249	0x334dbce0	4.7902063e-08
250	0x33523677	4.894397e-08
251	0x335468cb	4.9455405e-08
252	0x333949bd	4.3140734e-08
253	0x335d7037	5.155763e-08
254	0x3362a212	5.2767128e-08
255	0x3361a2c2	5.2534922e-08

exp_avg f4 [12]
0	0xb79f24a9	-1.8971348e-05
1	0x35d4e064	1.5860537e-06
2	0xb68b3ae7	-4.14938e-06
3	0x00000004	6e-45
4	0x00000004	6e-45
5	0x00000004	6e-45
6	0x331ef66a	3.7011354e-08
7	0xb6904cca	-4.300474e-06
8	0x37016650	7.712821e-06
9	0x00000004	6e-45
10	0x00000004	6e-45
11	0xb5d23a00	-1.56631e-06

exp_avg_sq f4 [12]
0	0x3431148d	1.6491886e-07
1	0x36e14ef3	6.7147134e-06
2	0x35c4d159	1.4664066e-06
3	0x28be3f04	2.1121566e-14
4	0x2dbee9ac	2.170427e-11
5	0x248cc4ec	6.104892e-17
6	0x33201d97	3.7279815e-08
7	0x3346c677	4.628097e-08
8	0x34f14356	4.4938741e-07
9	0x2a33bf6a	1.5964804e-13
10	0x2a2bc51a	1.5256234e-13
11	0x3625d2c2	2.4709593e-06

exp_avg f4 [8, 12, 5, 5]
0	0x3647d7cd	2.9778923e-06
1	0x36100406	2.1460014e-06
2	0x342c880d	1.6068243e-07
3	0xb548636d	-7.465049e-07
4	0x35af55b3	1.3063458e-06
5	0x35b666ae	1.358994e-06
6	0x35103dce	5.373412e-07
7	0x355986c1	8.103489e-07
8	0x353dfc4b	7.077512e-07
9	0x3634a174	2.6916068e-06
10	0x35708340	8.959796e-07
11	0x33901f11	6.7111735e-08
12	0x35dbed33	1.6385806e-06
13	0x3613eec4	2.2043687e-06
14	0x369b7a98	4.6336318e-06
15	0xb66bb390	-3.5122248e-06
16	0xb6424780	-2.8949871e-06
17	0xb3d2f3c4	-9.823228e-08
18	0x35a0a936	1.1970176e-06
19	0x36aa7c7f	5.080888e-06
20	0xb6437ce6	-2.9129965e-06
21	0xb608c1ba	-2.0378343e-06
22	0xb4b654bb	-3.396179e-07
23	0x35d94fde	1.6191004e-06
24	0x36b484fb	5.379899e-06
25	0xb6858211	-3.9788506e-06
26	0x33687e7e	5.4131753e-08
27	0x36cbf28b	6.078107e-06
28	0x3769daf8	1.3938865e-05
29	0x37849eb2	1.5809524e-05
30	0xb69a1204	-4.591655e-06
31	0xb609a62c	-2.0511316e-06
32	0x367d0f60	3.7708887e-06
33	0x3748c5c5	1.1966976e-05
34	0x37566026	1.277778e-05
35	0xb6afb8e5	-5.236931e-06
36	0xb62dc271	-2.5892189e-06
37	0x363a9a87	2.7806107e-06
38	0x374cc701	1.2205682e-05
39	0x375d3eda	1.318726e-05
40	0xb75934c5	-1.2946494e-05
41	0xb7450ee9	-1.1745587e-05
42	0xb6c853e9	-5.970233e-06
43	0x3693c191	4.4034755e-06
44	0x36d0ddab	6.2246886e-06
45	0xb74390ae	-1.1656592e-05
46	0xb712e4fd	-8.755594e-06
47	0xb652fd0e	-3.1439736e-06
48	0x36aef092	5.21361e-06
49	0x37026250	7.771494e-06
50	0xb6010dce	-1.9230533e-06
51	0xb3967ac4	-7.00725e-08
52	0x361aba22	2.3056132e-06
53	0x36495c2b	3.0004983e-06
54	0x36812b1b	3.8495177e-06
55	0xb5d28477	-1.5684772e-06
56	0xb50ebd64	-5.317472e-07
57	0x35f01bd7	1.7889496e-06
58	0x36272cbd	2.491098e-06
59	0x36490e7b	2.9959763e-06
60	0xb5005496	-4.7806805e-07
61	0x354d7696	7.6541016e-07
62	0x3654ca57	3.170824e-06
63	0x36a6d9b9	4.9725318e-06
64	0x36a7eb52	5.0043827e-06
65	0xb658c589	-3.2301489e-06
66	0xb6543b1d	-3.162487e-06
67	0xb60c77cf	-2.0931363e-06
68	0x356e630c	8.880604e-07
69	0x355ce754	8.2293013e-07
70	0xb5c88422	-1.4939617e-06
71	0xb5be02d7	-1.415693e-06
72	0xb522a664	-6.0591833e-07
73	0x35f86ecf	1.8509689e-06
74	0x35d66922	1.597484e-06
75	0x80000004	-6e-45
76	0x80000004	-6e-45
77	0x80000004	-6e-45
78	0x00000004	6e-45
79	0x00000004	6e-45
80	0x80000004	-6e-45
81	0x80000004	-6e-45
82	0x80000004	-6e-45
83	0x80000004	-6e-45
84	0x80000004	-6e-45
85	0x00000000	0.0
86	0x00000000	0.0
87	0x80000004	-6e-45
88	0x00000000	0.0
89	0x00000000	0.0
90	0x00000000	0.0
91	0x00000000	0.0
92	0x00000000	0.0
93	0x00000000	0.0
94	0x00000000	0.0
95	0x00000000	0.0
96	0x00000000	0.0
97	0x00000000	0.0
98	0x00000000	0.0
99	0x00000000	0.0
100	0x80000004	-6e-45
101	0x80000004	-6e-45
102	0x80000004	-6e-45
103	0x80000004	-6e-45
104	0x00000004	6e-45
105	0x80000004	-6e-45
106	0x80000004	-6e-45
107	0x80000004	-6e-45
108	0x80000004	-6e-45
109	0x00000004	6e-45
110	0x80000004	-6e-45
111	0x80000004	-6e-45
112	0x80000004	-6e-45
113	0x80000004	-6e-45
114	0x00000004	6e-45
115	0x80000004	-6e-45
116	0x80000004	-6e-45
117	0x80000004	-6e-45
118	0x80000004	-6e-45
119	0x00000004	6e-45
120	0x80000004	-6e-45
121	0x80000004	-6e-45
122	0x80000004	-6e-45
123	0x80000004	-6e-45
124	0x00000004	6e-45
125	0x00000004	6e-45
126	0x80000004	-6e-45
127	0x80000004	-6e-45
128	0x00000004	6e-45
129	0x00000004	6e-45
130	0x00000004	6e-45
131	0x80000004	-6e-45
132	0x80000004	-6e-45
133	0x00000004	6e-45
134	0x00000004	6e-45
135	0x00000000	0.0
136	0x00000000	0.0
137	0x80000004	-6e-45
138	0x00000000	0.0
139	0x00000004	6e-45
140	0x00000000	0.0
141	0x00000000	0.0
142	0x00000000	0.0
143	0x00000000	0.0
144	0x00000000	0.0
145	0x00000000	0.0
146	0x00000000	0.0
147	0x00000000	0.0
148	0x00000000	0.0
149	0x00000000	0.0
150	0xb311fbc1	-3.3989412e-08
151	0xb19d804a	-4.583886e-09
152	0xb64523ab	-2.937605e-06
153	0xb2c1d5ec	-2.2565438e-08
154	0xb571e143	-9.0107295e-07
155	0xb34beaf2	-4.7478302e-08
156	0xb25e7bfb	-1.2950291e-08
157	0xb628567d	-2.5084294e-06
158	0x2f839797	2.3936472e-10
159	0xb3c8bd4f	-9.347661e-08
160	0xb33491f0	-4.2042245e-08
161	0xb350d736	-4.8624507e-08
162	0xb631837d	-2.6451592e-06
163	0xb23d61e6	-1.1023507e-08
164	0xb44be957	-1.8990737e-07
165	0xb33e04df	-4.4242253e-08
166	0xb3448b8f	-4.5761734e-08
167	0xb6020c0b	-1.937852e-06
168	0xb2e0f4f0	-2.6188417e-08
169	0xb4e3029a	-4.2283938e-07
170	0xb33fd530	-4.4664546e-08
171	0xb367a013	-5.3929465e-08
172	0xb5d50439	-1.5870966e-06
173	0xb349afc6	-4.6958824e-08
174	0xb4a52335	-3.0759261e-07
175	0xb47dd9db	-2.3641716e-07
176	0xb60f1c48	-2.1325122e-06
177	0xb6d9c15b	-6.4896135e-06
178	0x34a64011	3.0966524e-07
179	0xb5922214	-1.0887766e-06
180	0xb3fa735b	-1.1662515e-07
181	0x3481c043	2.416801e-07
182	0xb6525430	-3.1341442e-06
183	0x367db95a	3.7807827e-06
184	0x366ebb2f	3.5573719e-06
185	0xb5469b55	-7.3986786e-07
186	0xb5cd3feb	-1.5292293e-06
187	0xb6d1e844	-6.2557247e-06
188	0x35d69b5f	1.5989461e-06
189	0x35d86b72	1.6124525e-06
190	0x3479a662	2.3250462e-07
191	0xb5c54636	-1.4698078e-06
192	0xb6e7a1d0	-6.903174e-06
193	0x34b76323	3.4158538e-07
194	0x357faaa0	9.5243195e-07
195	0xb4aafcbf	-3.1848865e-07
196	0xb600fbcb	-1.922005e-06
197	0xb6c4a71c	-5.8607093e-06
198	0x340d33d2	1.31505e-07
199	0x34d062ab	3.881481e-07
200	0x36511b24	3.1159225e-06
201	0x361f980a	2.3781345e-06
202	0x36b3c3fd	5.3574317e-06
203	0x36436a81	2.9119258e-06
204	0x36dca9a8	6.5762615e-06
205	0x365a5de2	3.2539178e-06
206	0x363135ac	2.6406296e-06
207	0x36acd03d	5.1502416e-06
208	0x363ff580	2.8604118e-06
209	0x36ba6390	5.5548226e-06
210	0x35db228e	1.6326828e-06
211	0x357cc32e	9.416134e-07
212	0x368ef0dd	4.25997e-06
213	0x3650e55a	3.1127915e-06
214	0x36bcb200	5.6235585e-06
215	0xb6054b1e	-1.9862268e-06
216	0xb5d83897	-1.6109724e-06
217	0x35f920c7	1.8561485e-06
218	0x362957f7	2.5234165e-06
219	0x36ba3223	5.5490686e-06
220	0xb5a8e6b2	-1.2584117e-06
221	0x3557b423	8.0355875e-07
222	0x35fcbd64	1.8830583e-06
223	0x363533e7	2.7001313e-06
224	0x36d1ac0c	6.2487143e-06
225	0x80000004	-6e-45
226	0x80000004	-6e-45
227	0x80000004	-6e-45
228	0x80000004	-6e-45
229	0x80000004	-6e-45
230	0x80000004	-6e-45
231	0x80000004	-6e-45
232	0x80000004	-6e-45
233	0x80000004	-6e-45
234	0x80000004	-6e-45
235	0x80000004	-6e-45
236	0x80000004	-6e-45
237	0x80000004	-6e-45
238	0x80000004	-6e-45
239	0x80000004	-6e-45
240	0x80000004	-6e-45
241	0x80000004	-6e-45
242	0x80000004	-6e-45
243	0x80000004	-6e-45
244	0x80000004	-6e-45
245	0x80000004	-6e-45
246	0x80000004	-6e-45
247	0x80000004	-6e-45
248	0x80000004	-6e-45
249	0x80000004	-6e-45
250	0x80000004	-6e-45
251	0x80000004	-6e-45
252	0x80000004	-6e-45
253	0x00000004	6e-45
254	0x00000004	6e-45
255	0x80000004	-6e-45

exp_avg_sq f4 [8, 12, 5, 5]
0	0x30465863	7.2157585e-10
1	0x30913988	1.056649e-09
2	0x2fa631d6	3.0230635e-10
3	0x2f3f74ba	1.7412818e-10
4	0x2f0fe2b1	1.3086311e-10
5	0x30ee182f	1.7323653e-09
6	0x310c43a7	2.0411137e-09
7	0x305be688	7.999934e-10
8	0x3020bd5b	5.847675e-10
9	0x2fd75ad7	3.9172818e-10
10	0x306bed1b	8.582945e-10
11	0x30893d6e	9.985521e-10
12	0x2f80f803	2.3459287e-10
13	0x2f2404e2	1.4917448e-10
14	0x2f186f6c	1.3863904e-10
15	0x300d8279	5.1480914e-10
16	0x3058b477	7.88368e-10
17	0x2f4ed5d4	1.8811558e-10
18	0x2f1544ea	1.3575954e-10
19	0x2f266df8	1.5136681e-10
20	0x300536cc	4.846299e-10
21	0x3054797a	7.729778e-10
22	0x2f66a63c	2.0977436e-10
23	0x2f384a45	1.6761088e-10
24	0x2f421f2c	1.7655272e-10
25	0x3239f009	1.0822995e-08
26	0x32783035	1.4446461e-08
27	0x3226421a	9.6775015e-09
28	0x31b9f909	5.4125207e-09
29	0x319b950a	4.5280375e-09
30	0x32887ac9	1.588832e-08
31	0x32af1539	2.0382332e-08
32	0x3276014f	1.4319382e-08
33	0x3213397a	8.569595e-09
34	0x31ed1436	6.8999055e-09
35	0x329b8797	1.8106034e-08
36	0x32bff11c	2.234497e-08
37	0x32887be5	1.5888824e-08
38	0x3227e106	9.771844e-09
39	0x32074b4d	7.875156e-09
40	0x3269849b	1.3592536e-08
41	0x328ba88b	1.6258374e-08
42	0x323c1f93	1.0950219e-08
43	0x31e0dd4a	6.5444157e-09
44	0x31c1b6ab	5.637806e-09
45	0x32580809	1.2574682e-08
46	0x32821267	1.514236e-08
47	0x32331f86	1.0426339e-08
48	0x31e1237a	6.552395e-09
49	0x31c5c69e	5.7560348e-09
50	0x3096e236	1.0978229e-09
51	0x30a79085	1.2191924e-09
52	0x302deb1d	6.327115e-10
53	0x30075f3f	4.9248067e-10
54	0x2fdaee7f	3.982343e-10
55	0x30b3eb8b	1.309091e-09
56	0x30d663ec	1.5598949e-09
57	0x307b6d00	9.1468166e-10
58	0x30498be4	7.332217e-10
59	0x3022fe9f	5.9297095e-10
60	0x310c7971	2.0441713e-09
61	0x312c3ae3	2.5062767e-09
62	0x30ec2e15	1.7184357e-09
63	0x30bf9211	1.3938594e-09
64	0x308f9fed	1.0450073e-09
65	0x30cd70c0	1.4947759e-09
66	0x30e0136d	1.6303666e-09
67	0x30817b1c	9.420975e-10
68	0x30456cff	7.1823075e-10
69	0x301a36c5	5.6102706e-10
70	0x30be44d0	1.3843877e-09
71	0x30cf63bf	1.5089582e-09
72	0x3070b2db	8.756566e-10
73	0x30405e78	6.998344e-10
74	0x30199298	5.58694e-10
75	0x1bdd790f	3.6639615e-22
76	0x1feb9540	9.9773285e-20
77	0x18c61382	5.12015e-24
78	0x1c091909	4.5361855e-22
79	0x1d5e59af	2.942782e-21
80	0x1d10b8ac	1.9153714e-21
81	0x1e2d5cf4	9.177766e-21
82	0x1e4b37a1	1.0758234e-20
83	0x1e858fab	1.4141342e-20
84	0x1c1e3773	5.234948e-22
85	0x00000000	0.0
86	0x00000000	0.0
87	0x17a761a8	1.0816774e-24
88	0x00000000	0.0
89	0x00000000	0.0
90	0x00000000	0.0
91	0x00000000	0.0
92	0x00000000	0.0
93	0x00000000	0.0
94	0x00000000	0.0
95	0x00000000	0.0
96	0x00000000	0.0
97	0x00000000	0.0
98	0x00000000	0.0
99	0x00000000	0.0
100	0x22875381	3.6680237e-18
101	0x2285de22	3.6284914e-18
102	0x24c2ac56	8.442604e-17
103	0x216dfde4	8.0634745e-19
104	0x21dbb8ed	1.4888967e-18
105	0x225607bd	2.9006505e-18
106	0x22e054b1	6.0804992e-18
107	0x25300867	1.5268413e-16
108	0x21a52b2e	1.1192264e-18
109	0x2221d1bc	2.1930601e-18
110	0x220d5f17	1.9159403e-18
111	0x220a5327	1.8746508e-18
112	0x255b2bf9	1.901012e-16
113	0x214ccbe5	6.938774e-19
114	0x2229439c	2.2939563e-18
115	0x20730b7b	2.0586699e-19
116	0x215c6cf6	7.468311e-19
117	0x25172c0a	1.3112083e-16
118	0x1e2eae9b	9.247591e-21
119	0x229b99e5	4.2175776e-18
120	0x1fd3d5ee	8.971589e-20
121	0x21821a42	8.816093e-19
122	0x250e71b7	1.2355065e-16
123	0x1e50e571	1.1058876e-20
124	0x229180d6	3.943874e-18
125	0x1781d05b	8.389026e-25
126	0x17c96277	1.3014177e-24
127	0x182de8aa	2.2477191e-24
128	0x1cd9af99	1.4405246e-21
129	0x1e2fd487	9.3083725e-21
130	0x1a61aae5	4.6666957e-23
131	0x1acce759	8.4746185e-23
132	0x1f9d6b85	6.666996e-20
133	0x19c77dce	2.062693e-23
134	0x1f703818	5.0868376e-20
135	0x00000000	0.0
136	0x00000000	0.0
137	0x1d21222e	2.1325843e-21
138	0x00000000	0.0
139	0x19844aac	1.367864e-23
140	0x00000000	0.0
141	0x00000000	0.0
142	0x00000000	0.0
143	0x00000000	0.0
144	0x00000000	0.0
145	0x00000000	0.0
146	0x00000000	0.0
147	0x00000000	0.0
148	0x00000000	0.0
149	0x00000000	0.0
150	0x2a97e904	2.6984675e-13
151	0x2c63caae	3.237115e-12
152	0x2ecfe353	9.453651e-11
153	0x2d130c67	8.3587364e-12
154	0x2d7fd30d	1.45419345e-11
155	0x2a808dc1	2.283573e-13
156	0x2c6e62c0	3.3876651e-12
157	0x2eddc2ab	1.00844964e-10
158	0x2d329842	1.0151937e-11
159	0x2e0e201f	3.231559e-11
160	0x29e6e32f	1.0253462e-13
161	0x2c3f5358	2.7188998e-12
162	0x2ed3a208	9.6239516e-11
163	0x2d278361	9.522023e-12
164	0x2d8e4a5c	1.6176553e-11
165	0x29939837	6.5545165e-14
166	0x2c15e88f	2.130327e-12
167	0x2eba3fd9	8.4696423e-11
168	0x2d1bb7fa	8.851581e-12
169	0x2d894220	1.5604462e-11
170	0x29767288	5.4722313e-14
171	0x2c0071c6	1.825305e-12
172	0x2ea6657f	7.5668354e-11
173	0x2d0585ca	7.589882e-12
174	0x2d85e3c4	1.5221498e-11
175	0x2b922b80	1.0385998e-12
176	0x2eb4f6d8	8.2293006e-11
177	0x306dab82	8.6463825e-10
178	0x2db44bd8	2.0497312e-11
179	0x2efe427c	1.1562393e-10
180	0x2e662876	5.2331882e-11
181	0x2f9d6237	2.862792e-10
182	0x30bfe599	1.3962335e-09
183	0x2fa407bd	2.9836925e-10
184	0x302c815d	6.275707e-10
185	0x2cb32513	5.091602e-12
186	0x2efb5eaf	1.1430978e-10
187	0x308a70ff	1.0072937e-09
188	0x2ea071d7	7.2961796e-11
189	0x2f9e833e	2.8833286e-10
190	0x2bdf0434	1.584627e-12
191	0x2eb9cf82	8.449687e-11
192	0x3078e64a	9.0549135e-10
193	0x2daab1b2	1.9405675e-11
194	0x2f29e65a	1.5452298e-10
195	0x2b73f950	8.6676933e-13
196	0x2e8e6cfc	6.476772e-11
197	0x30562ced	7.791659e-10
198	0x2da3727d	1.8581798e-11
199	0x2f26bd05	1.5164765e-10
200	0x315b7664	3.1935992e-09
201	0x315224e9	3.0580003e-09
202	0x3026807b	6.057303e-10
203	0x2fe10d53	4.093673e-10
204	0x2fa89dfd	3.067128e-10
205	0x31aa035f	4.9480344e-09
206	0x31913af6	4.2267585e-09
207	0x308cba9e	1.023938e-09
208	0x304cfe83	7.457645e-10
209	0x300e9e32	5.188411e-10
210	0x318c37a3	4.0808614e-09
211	0x3161fac6	3.2884357e-09
212	0x30261eb6	6.043409e-10
213	0x2ff0f965	4.383295e-10
214	0x2fe45416	4.1532705e-10
215	0x314db2e4	2.9933114e-09
216	0x3133b16f	2.6148788e-09
217	0x300ce4ee	5.125703e-10
218	0x2ff28085	4.4110862e-10
219	0x2ff9ffb6	4.547453e-10
220	0x3143a758	2.8471359e-09
221	0x312e6d0c	2.5382318e-09
222	0x3013ff9e	5.384154e-10
223	0x3008f989	4.983112e-10
224	0x300681d3	4.893341e-10
225	0x21fc34cd	1.709016e-18
226	0x21fd90dd	1.7182292e-18
227	0x2252456a	2.8497055e-18
228	0x216b5c4e	7.974326e-19
229	0x21986780	1.0327317e-18
230	0x222c647e	2.3363547e-18
231	0x22066349	1.8212948e-18
232	0x224437a7	2.6592415e-18
233	0x21a5598a	1.1204536e-18
234	0x21a17da8	1.0943045e-18
235	0x228047cb	3.4770483e-18
236	0x2233694d	2.431477e-18
237	0x2304eae2	7.205473e-18
238	0x21ed1af4	1.6066879e-18
239	0x21b4885d	1.223337e-18
240	0x20c6e4a7	3.3693814e-19
241	0x20a4b22e	2.790059e-19
242	0x211d29ca	5.3248976e-19
243	0x1e05b221	7.0777976e-21
244	0x1d9069b0	3.822576e-21
245	0x1f374276	3.8806733e-20
246	0x1e6a6bc5	1.2410143e-20
247	0x2118c10f	5.1755114e-19
248	0x1e0520c5	7.047738e-21
249	0x1dbfae49	5.0737486e-21
250	0x211ad032	5.2452774e-19
251	0x20fe0354	4.3031476e-19
252	0x20f3fb70	4.1332189e-19
253	0x20e51a67	3.881158e-19
254	0x211f6449	5.400402e-19
255	0x211bcd0d	5.2787425e-19

exp_avg f4 [8]
0	0x36b58e47	5.4107836e-06
1	0xb72bcc97	-1.0240029e-05
2	0xb7ef8cc2	-2.8556566e-05
3	0x00000004	6e-45
4	0x36cefabc	6.1684677e-06
5	0x00000004	6e-45
6	0xb7364e3c	-1.0866261e-05
7	0xb77815cb	-1.4787026e-05

exp_avg_sq f4 [8]
0	0x32604c30	1.3055839e-08
1	0x341ca382	1.4588116e-07
2	0x36811e25	3.848009e-06
3	0x2b90d520	1.029097e-12
4	0x36b6cf7c	5.448177e-06
5	0x2b45d62d	7.028569e-13
6	0x36e5db6f	6.8502773e-06
7	0x37da5396	2.6026548e-05

exp_avg f4 [3, 8, 3, 3]
0	0xb3d13406	-9.741784e-08
1	0x36c980b0	6.005248e-06
2	0xb4c361c6	-3.639272e-07
3	0xb4f70c8d	-4.6016467e-07
4	0x370fbda6	8.56762e-06
5	0xb59436ed	-1.1042845e-06
6	0xb4e09092	-4.182844e-07
7	0x3701aa89	7.728705e-06
8	0xb5ced003	-1.5408735e-06
9	0xb510e236	-5.397336e-07
10	0x3654efd6	3.1730065e-06
11	0x353d41d8	7.05038e-07
12	0x361f5a83	2.374553e-06
13	0x36953393	4.44655e-06
14	0x352a0a8c	6.334528e-07
15	0x343929c9	1.7244669e-07
16	0x36874f7d	4.032567e-06
17	0xb538df80	-6.8870577e-07
18	0xb5d5b41c	-1.5922155e-06
19	0x35561e9c	7.9765755e-07
20	0x3550405b	7.757969e-07
21	0x3526a768	6.2083427e-07
22	0x364de6bc	3.0681686e-06
23	0xb588ef11	-1.0202367e-06
24	0x3537e791	6.8509786e-07
25	0x3655a5f2	3.1836066e-06
26	0xb58c26b0	-1.0442072e-06
27	0x00000000	0.0
28	0x00000000	0.0
29	0x00000000	0.0
30	0x00000000	0.0
31	0x00000000	0.0
32	0x00000000	0.0
33	0x00000000	0.0
34	0x00000000	0.0
35	0x00000000	0.0
36	0x35c97453	1.5009522e-06
37	0x36c9be8b	6.012449e-06
38	0x364cf2cb	3.0539693e-06
39	0x37214090	9.61138e-06
40	0x37a53440	1.9693864e-05
41	0x37a5322b	1.9692894e-05
42	0x37608c31	1.3384081e-05
43	0x377a29c4	1.49108855e-05
44	0x379e25ba	1.8852636e-05
45	0x00000000	0.0
46	0x00000000	0.0
47	0x00000000	0.0
48	0x00000000	0.0
49	0x00000000	0.0
50	0x00000000	0.0
51	0x00000000	0.0
52	0x00000000	0.0
53	0x00000000	0.0
54	0x36c1dc07	5.777463e-06
55	0x3726da52	9.945203e-06
56	0x36b47829	5.3784065e-06
57	0x36f65e16	7.3423244e-06
58	0x37263209	9.906021e-06
59	0xb5d9b703	-1.6221023e-06
60	0x3788e644	1.631969e-05
61	0x379fc07f	1.9043915e-05
62	0x366f0379	3.5615797e-06
63	0x36993da0	4.5669294e-06
64	0x36e9d24b	6.9684224e-06
65	0x366eea99	3.5601317e-06
66	0x370e16ec	8.4691965e-06
67	0x3761225a	1.3419043e-05
68	0x372295b8	9.690812e-06
69	0x371ca620	9.337004e-06
70	0x3787dbca	1.6195601e-05
71	0x3749f87a	1.2038387e-05
72	0x35fff874	1.907129e-06
73	0x36f4312c	7.277491e-06
74	0xb791a0cb	-1.7360222e-05
75	0x36c122ea	5.7559128e-06
76	0xb619a538	-2.2894947e-06
77	0xb784c225	-1.5826032e-05
78	0x36ba7c16	5.5576775e-06
79	0x33711d26	5.6138695e-08
80	0xb7708202	-1.4335385e-05
81	0x3562b807	8.4459356e-07
82	0x37a4f355	1.9663634e-05
83	0xb4c0b1c5	-3.589213e-07
84	0x35f9ffbf	1.8626378e-06
85	0x37b68bb8	2.1761152e-05
86	0xb54877bb	-7.4680037e-07
87	0x3581cc02	9.670623e-07
88	0x379038c6	1.7192575e-05
89	0x361e2495	2.3565128e-06
90	0xb7947d51	-1.770133e-05
91	0xb7891fd6	-1.6346497e-05
92	0x37808f75	1.5325591e-05
93	0x36809812	3.8324006e-06
94	0x368d304b	4.2077495e-06
95	0x378fbef4	1.7135848e-05
96	0x381033a0	3.4380355e-05
97	0xb69717ee	-4.5029365e-06
98	0xb6e1e66a	-6.7323463e-06
99	0x80000004	-6e-45
100	0x80000004	-6e-45
101	0x80000004	-6e-45
102	0x80000004	-6e-45
103	0x80000004	-6e-45
104	0x80000004	-6e-45
105	0x00000004	6e-45
106	0x00000004	6e-45
107	0x00000004	6e-45
108	0xb92a4c55	-0.000162409
109	0xb8e73575	-0.000110248955
110	0xb900f674	-0.00012298842
111	0xb9008b71	-0.00012258977
112	0xb8c4c34b	-9.3823845e-05
113	0xb886d301	-6.4289205e-05
114	0xb9095a93	-0.0001309908
115	0xb91025f5	-0.0001374705
116	0xb91cabab	-0.0001494127
117	0x80000004	-6e-45
118	0x80000004	-6e-45
119	0x80000004	-6e-45
120	0x00000004	6e-45
121	0x00000004	6e-45
122	0x00000004	6e-45
123	0x00000004	6e-45
124	0x00000004	6e-45
125	0x00000004	6e-45
126	0xb885fe79	-6.3893334e-05
127	0xb7d05187	-2.4833496e-05
128	0xb8162244	-3.57947e-05
129	0x37a896bd	2.0097354e-05
130	0x37471fb4	1.1868706e-05
131	0xb821453b	-3.8449867e-05
132	0xb70b2ea1	-8.295902e-06
133	0xb799ce4a	-1.8335082e-05
134	0xb787aa32	-1.6172507e-05
135	0xb936b73f	-0.00017425137
136	0xb902f9d7	-0.00012490839
137	0xb8a753c5	-7.978784e-05
138	0xb90ba364	-0.00013316941
139	0xb8d90d9b	-0.000103499005
140	0xb89bca33	-7.4286385e-05
141	0xb8c7713c	-9.510151e-05
142	0xb8b0c2b7	-8.4286025e-05
143	0xb833cba2	-4.2866573e-05
144	0xb5a4ba74	-1.2273217e-06
145	0x3665bb1c	3.423257e-06
146	0xb783713a	-1.5669142e-05
147	0xb54cf378	-7.6350216e-07
148	0xb6fad720	-7.4756244e-06
149	0xb757be9c	-1.2859378e-05
150	0x369542d1	4.4483245e-06
151	0x36172c55	2.2526558e-06
152	0xb7147380	-8.848379e-06
153	0x36d889fd	6.4533656e-06
154	0x371b6d6d	9.264198e-06
155	0x36fb33c4	7.4864092e-06
156	0xb6c6665b	-5.9127756e-06
157	0x36c23f99	5.7890543e-06
158	0xb67d88b2	-3.7779505e-06
159	0xb632fb8b	-2.6670484e-06
160	0x371349f2	8.7790995e-06
161	0x355399f7	7.8827674e-07
162	0xb5889a34	-1.0177669e-06
163	0x37e7f099	2.7649383e-05
164	0x37abe032	2.0489188e-05
165	0x38342845	4.2952848e-05
166	0x385c8994	5.2580217e-05
167	0x3819193f	3.6501555e-05
168	0x3818eed3	3.6462046e-05
169	0x384f1910	4.9375987e-05
170	0x384fa40d	4.950543e-05
171	0x80000004	-6e-45
172	0x80000004	-6e-45
173	0x80000004	-6e-45
174	0x80000004	-6e-45
175	0x80000004	-6e-45
176	0x80000004	-6e-45
177	0x80000004	-6e-45
178	0x80000004	-6e-45
179	0x00000004	6e-45
180	0xb8377cb1	-4.3746728e-05
181	0xb79cc351	-1.86876e-05
182	0xb8a61ad8	-7.920497e-05
183	0xb7af5a34	-2.090363e-05
184	0xb742ae14	-1.1603832e-05
185	0x36165ac9	2.2404586e-06
186	0x382eea67	4.1703137e-05
187	0xb7d0532f	-2.4834268e-05
188	0x368bf3cc	4.1709045e-06
189	0x80000004	-6e-45
190	0x80000004	-6e-45
191	0x80000004	-6e-45
192	0x80000004	-6e-45
193	0x80000004	-6e-45
194	0x80000004	-6e-45
195	0x00000004	6e-45
196	0x00000004	6e-45
197	0x80000004	-6e-45
198	0xb70c439b	-8.360391e-06
199	0x3770ab85	1.434505e-05
200	0x37f91754	2.9693976e-05
201	0x3853473f	5.0372673e-05
202	0xb782ab94	-1.5577105e-05
203	0xb7f8b89d	-2.9649871e-05
204	0xb75600fe	-1.2755625e-05
205	0x37ef928f	2.8559267e-05
206	0x378f0a2f	1.705167e-05
207	0xb8268d3d	-3.9709023e-05
208	0xb60ddf78	-2.1140713e-06
209	0x361527e2	2.2225945e-06
210	0xb7dc1b92	-2.6238882e-05
211	0x37aa6c70	2.0316074e-05
212	0x37ab0846	2.0388641e-05
213	0xb8045537	-3.1550615e-05
214	0x36204358	2.3881057e-06
215	0x37452cac	1.1752516e-05

exp_avg_sq f4 [3, 8, 3, 3]
0	0x2f001c08	1.1651491e-10
1	0x322f4750	1.0202555e-08
2	0x30337a01	6.52932e-10
3	0x2e1b6903	3.533619e-11
4	0x322d027a	1.0070488e-08
5	0x30981cd6	1.1067651e-09
6	0x2cb7f37e	5.228206e-12
7	0x322ab0ff	9.935547e-09
8	0x30722def	8.810436e-10
9	0x30c3b681	1.4239988e-09
10	0x315cf67b	3.2154321e-09
11	0x3091f05e	1.0618455e-09
12	0x307bab8f	9.155707e-10
13	0x310f20e2	2.082793e-09
14	0x301dd684	5.742111e-10
15	0x2fcaf6bc	3.69189e-10
16	0x307d8a37	9.223728e-10
17	0x2e876fe4	6.158965e-11
18	0x31cb06f2	5.908867e-09
19	0x314e5c8a	3.0029548e-09
20	0x3126694d	2.4216036e-09
21	0x327ca412	1.4705636e-08
22	0x322c37bb	1.0024389e-08
23	0x32138d9b	8.5887235e-09
24	0x32bad71e	2.1751074e-08
25	0x32878196	1.5774997e-08
26	0x325cb588	1.2846961e-08
27	0x00000000	0.0
28	0x00000000	0.0
29	0x00000000	0.0
30	0x00000000	0.0
31	0x00000000	0.0
32	0x00000000	0.0
33	0x00000000	0.0
34	0x00000000	0.0
35	0x00000000	0.0
36	0x32e64745	2.6807934e-08
37	0x32390b21	1.0770948e-08
38	0x314b5e79	2.959409e-09
39	0x33ccd3e9	9.5380365e-08
40	0x338f6004	6.6764215e-08
41	0x3319e014	3.5826886e-08
42	0x3430a417	1.6450973e-07
43	0x340d3533	1.3151002e-07
44	0x33a2f38f	7.588016e-08
45	0x00000000	0.0
46	0x00000000	0.0
47	0x00000000	0.0
48	0x00000000	0.0
49	0x00000000	0.0
50	0x00000000	0.0
51	0x00000000	0.0
52	0x00000000	0.0
53	0x00000000	0.0
54	0x337aa81a	5.836055e-08
55	0x33e59cd6	1.0692172e-07
56	0x3364c5b4	5.3265197e-08
57	0x3366ff81	5.3783427e-08
58	0x33e12c83	1.04854756e-07
59	0x33641dde	5.311255e-08
60	0x327b0ab3	1.4612556e-08
61	0x3343b02a	4.5562196e-08
62	0x3271c4a6	1.4072759e-08
63	0x33e3f4d7	1.0615047e-07
64	0x33c424fa	9.133687e-08
65	0x3372d4a8	5.6538425e-08
66	0x3483a383	2.4519622e-07
67	0x347766ce	2.3041068e-07
68	0x3431b914	1.655174e-07
69	0x34907e20	2.6913858e-07
70	0x3487a30b	2.526434e-07
71	0x3440d8e7	1.7960302e-07
72	0x30aad352	1.2429189e-09
73	0x312b2c3e	2.4908924e-09
74	0x33956de6	6.9583436e-08
75	0x3084c203	9.659405e-10
76	0x317727e3	3.5965904e-09
77	0x338713b5	6.290012e-08
78	0x3084cf0a	9.663108e-10
79	0x316e6261	3.468948e-09
80	0x3369c6fc	5.4430515e-08
81	0x34321637	1.6585624e-07
82	0x343f0e0b	1.779337e-07
83	0x3241eb13	1.1287528e-08
84	0x340f5ddb	1.3352057e-07
85	0x341849b1	1.4182912e-07
86	0x312b1f0b	2.490142e-09
87	0x33e5ec43	1.0706619e-07
88	0x33f2bfb3	1.1303873e-07
89	0x2fafe579	3.1995365e-10
90	0x36f3fbe2	7.2712874e-06
91	0x3714fff5	8.881082e-06
92	0x371a209e	9.18671e-06
93	0x370d7dbf	8.4335325e-06
94	0x372c5454	1.0271633e-05
95	0x3731bbb8	1.0593729e-05
96	0x370bf627	8.342357e-06
97	0x372addc4	1.0184423e-05
98	0x372fc074	1.0475622e-05
99	0x29d72ad5	9.555348e-14
100	0x29e7ade3	1.0288625e-13
101	0x29d73a2e	9.5580106e-14
102	0x278e83bf	3.9555757e-15
103	0x27b13022	4.9179555e-15
104	0x27ae7cfa	4.84302e-15
105	0x20c1f4ae	3.2857387e-19
106	0x2016abe1	1.2762364e-19
107	0x20e2ba7b	3.8409292e-19
108	0x38389831	4.4010758e-05
109	0x385f6bd6	5.3267773e-05
110	0x3841fa15	4.6247693e-05
111	0x385b723a	5.232005e-05
112	0x38846329	6.3127205e-05
113	0x38678857	5.5201668e-05
114	0x3859775a	5.1847986e-05
115	0x38836907	6.26613e-05
116	0x386688c1	5.4963635e-05
117	0x28a7f7b6	1.8648152e-14
118	0x27ebe994	6.547885e-15
119	0x2715d577	2.0793623e-15
120	0x28806614	1.4255124e-14
121	0x27d33e06	5.863151e-15
122	0x277cefce	3.5102024e-15
123	0x2869cadb	1.29780855e-14
124	0x2806bf8c	7.480029e-15
125	0x27ee38f3	6.6120014e-15
126	0x36901961	4.294489e-06
127	0x36a7bbbb	4.9988425e-06
128	0x36d86fc7	6.4503142e-06
129	0x3655109a	3.1749137e-06
130	0x367a4f2e	3.7298992e-06
131	0x36a7ff8a	5.0067365e-06
132	0x3617482e	2.2542768e-06
133	0x362fedf5	2.6215541e-06
134	0x3672402d	3.6098165e-06
135	0x38ae533b	8.3124694e-05
136	0x38cf0e3f	9.873183e-05
137	0x38d5a0b3	0.00010186564
138	0x38b12850	8.4475265e-05
139	0x38d2f9b8	0.00010060094
140	0x38d9b386	0.00010380805
141	0x389fbc58	7.6167926e-05
142	0x38bec1d4	9.096009e-05
143	0x38c4dcdf	9.387149e-05
144	0x2fc7fb53	3.6376466e-10
145	0x31f54c84	7.1391373e-09
146	0x3283ae10	1.5329562e-08
147	0x300ef947	5.2013543e-10
148	0x31f52274	7.1343553e-09
149	0x32a2acd8	1.8937882e-08
150	0x2f50007e	1.8917665e-10
151	0x321105be	8.4414165e-09
152	0x32868c51	1.5663462e-08
153	0x332a2a13	3.9619476e-08
154	0x32a13429	1.8766587e-08
155	0x310fa8f4	2.0905278e-09
156	0x33630000	5.2852556e-08
157	0x32de772c	2.5898395e-08
158	0x31975f2c	4.405498e-09
159	0x33107908	3.363769e-08
160	0x3256cf89	1.25036275e-08
161	0x2e6ef7c8	5.433501e-11
162	0x35979a60	1.1295306e-06
163	0x35bd98ea	1.4126101e-06
164	0x35b308d6	1.3339111e-06
165	0x35b60f68	1.356454e-06
166	0x35e4085c	1.6989757e-06
167	0x35d83c7e	1.611086e-06
168	0x35cea20e	1.539536e-06
169	0x3601014f	1.922326e-06
170	0x35f2f2e4	1.8101096e-06
171	0x28df0a1a	2.4762354e-14
172	0x28e6d06d	2.562552e-14
173	0x28d87b35	2.403425e-14
174	0x2805e894	7.4334155e-15
175	0x280b877f	7.745431e-15
176	0x27ff5f6a	7.0880166e-15
177	0x26023a18	4.518154e-16
178	0x2029ddca	1.4388241e-19
179	0x1ee0cc19	2.3801335e-20
180	0x36dc17ac	6.5592667e-06
181	0x36eefbfb	7.122287e-06
182	0x36d3b653	6.3095154e-06
183	0x3706ab9d	8.026979e-06
184	0x3711c51e	8.688568e-06
185	0x370197fb	7.724385e-06
186	0x3723a68c	9.754334e-06
187	0x3730df4c	1.0542408e-05
188	0x371e83a1	9.448181e-06
189	0x2ae05205	3.9847306e-13
190	0x2adcf003	3.9246392e-13
191	0x2ab8af9c	3.280682e-13
192	0x2afdba27	4.5070997e-13
193	0x2afa3090	4.4442618e-13
194	0x2ad1f10d	3.729312e-13
195	0x2b0760c8	4.8095946e-13
196	0x2b05fc73	4.7601436e-13
197	0x2ae29d75	4.0254922e-13
198	0x351d7e4d	5.867085e-07
199	0x352007e3	5.961612e-07
200	0x356f4cae	8.914602e-07
201	0x3569868a	8.6995044e-07
202	0x3570c5ff	8.969509e-07
203	0x35ad4ac1	1.2911261e-06
204	0x34e3b304	4.2412296e-07
205	0x34e6551b	4.290276e-07
206	0x353bcc71	6.996043e-07
207	0x37582684	1.2883571e-05
208	0x3780307c	1.5281366e-05
209	0x3782fdf4	1.5615464e-05
210	0x37824d79	1.5533284e-05
211	0x379aa6af	1.8435849e-05
212	0x379d6cd6	1.876654e-05
213	0x3783e520	1.5723112e-05
214	0x379c3c8d	1.8624845e-05
215	0x379e47c5	1.8868488e-05

exp_avg f4 [3]
0	0x378fdba1	1.7149201e-05
1	0xb7e577d1	-2.7354721e-05
2	0x37af2486	2.0878633e-05

exp_avg_sq f4 [3]
0	0x34e6392c	4.2882436e-07
1	0x3911d0d9	0.0001390608
2	0x37f8e72e	2.9671555e-05

exp_avg f4 [8, 3, 3, 3]
0	0x348a4680	2.5755799e-07
1	0xb68dbd2e	-4.224151e-06
2	0xb602fd42	-1.9518925e-06
3	0x3681f97a	3.8735425e-06
4	0x358a16ca	1.0288434e-06
5	0x361ca0a6	2.3339321e-06
6	0x35c111d4	1.4384809e-06
7	0x35cf4c30	1.5444875e-06
8	0x33d1a18f	9.761708e-08
9	0x381b1937	3.6978363e-05
10	0x3809ebb2	3.2882854e-05
11	0x37f9ec9e	2.9793297e-05
12	0x37fc04b0	3.0042924e-05
13	0x38427260	4.6359724e-05
14	0x3853a13f	5.0456492e-05
15	0x37b87837	2.1990489e-05
16	0x380762e5	3.227861e-05
17	0x38197909	3.6590765e-05
18	0x38836ee6	6.267223e-05
19	0x383acda6	4.453738e-05
20	0x3815e9d9	3.5742156e-05
21	0x382fdf32	4.1931118e-05
22	0x38068282	3.2069634e-05
23	0x387013ef	5.7239024e-05
24	0x384e6ff4	4.921849e-05
25	0x38306599	4.205629e-05
26	0x3836679b	4.348867e-05
27	0xb6ca56db	-6.0301804e-06
28	0xb6951066	-4.442455e-06
29	0xb6afad99	-5.235616e-06
30	0xb6bf8fcf	-5.708985e-06
31	0xb69e4800	-4.717149e-06
32	0xb6dd81e2	-6.6014336e-06
33	0x35631a07	8.4601965e-07
34	0xb5d05351	-1.5521456e-06
35	0xb418aa22	-1.4217997e-07
36	0xb6f8bc6f	-7.4129125e-06
37	0xb6bbe20a	-5.5993487e-06
38	0x36bcb642	5.624054e-06
39	0xb72a2537	-1.0141454e-05
40	0xb6b14a87	-5.283687e-06
41	0xb7d60994	-2.5515248e-05
42	0xb7a0a663	-1.9150966e-05
43	0xb6359840	-2.7059723e-06
44	0xb77be831	-1.5014827e-05
45	0xb7c10d8a	-2.3013698e-05
46	0xb80a04e1	-3.2906308e-05
47	0xb7da1927	-2.5999338e-05
48	0xb78beadf	-1.6679462e-05
49	0x36cd1349	6.111721e-06
50	0xb7e8a550	-2.7733535e-05
51	0xb811d632	-3.477018e-05
52	0xb8227903	-3.873651e-05
53	0xb856cae5	-5.1210536e-05
54	0xb59dd658	-1.1759794e-06
55	0xb59e2d84	-1.1785164e-06
56	0xb609cc6f	-2.0533587e-06
57	0x35d98d50	1.6208887e-06
58	0x35c85aab	1.4927549e-06
59	0xb26a7597	-1.36473295e-08
60	0xb520bd1b	-5.987983e-07
61	0x35139f0a	5.49932e-07
62	0xb412cab9	-1.367106e-07
63	0xb360124e	-5.2170712e-08
64	0x3792bbca	1.7492002e-05
65	0x37bbf481	2.2405993e-05
66	0xb696362d	-4.4766552e-06
67	0x372593a5	9.869143e-06
68	0x37cc6608	2.4366207e-05
69	0x36089fc4	2.0358575e-06
70	0x366d7d2a	3.5388607e-06
71	0x372d727f	1.0338262e-05
72	0xb6eb73e0	-7.0170354e-06
73	0x36db79ad	6.5408735e-06
74	0x377336de	1.4496703e-05
75	0x3735e013	1.0840612e-05
76	0x37174481	9.016251e-06
77	0x37603204	1.3363086e-05
78	0x36d7d7c5	6.432618e-06
79	0x36b954a2	5.523282e-06
80	0xb4cbbd44	-3.7949405e-07
81	0xb614ee6b	-2.2192496e-06
82	0xb65f4140	-3.326757e-06
83	0xb5df5686	-1.6639976e-06
84	0xb730382e	-1.0503498e-05
85	0xb7035b23	-7.829428e-06
86	0xb70c7705	-8.372362e-06
87	0xb487348f	-2.518395e-07
88	0xb591dac7	-1.0867014e-06
89	0xb5739307	-9.073851e-07
90	0xb6d62526	-6.3820216e-06
91	0xb83b2f62	-4.4628403e-05
92	0xb7a6d3b6	-1.9887328e-05
93	0xb7d5733e	-2.5445242e-05
94	0xb825cadc	-3.9527993e-05
95	0xb6a6b25f	-4.9679506e-06
96	0xb74fa3a6	-1.2376264e-05
97	0xb7e66688	-2.7465881e-05
98	0x36aac061	5.0887907e-06
99	0xb830b087	-4.2126074e-05
100	0xb8b0b9e9	-8.4269624e-05
101	0xb87510e4	-5.8428283e-05
102	0xb8964e4c	-7.167141e-05
103	0xb8aeee2a	-8.341328e-05
104	0xb8928bb1	-6.987842e-05
105	0xb867d812	-5.5275923e-05
106	0xb885cf6f	-6.380572e-05
107	0xb88cac11	-6.70777e-05
108	0x36aacd0f	5.0902668e-06
109	0x36899bb6	4.1010453e-06
110	0x368c87b8	4.188125e-06
111	0x351d2df4	5.855393e-07
112	0xb2aeca55	-2.0348276e-08
113	0x34832f1f	2.4434937e-07
114	0xb4cea367	-3.848938e-07
115	0x351390c0	5.4972406e-07
116	0x3306031f	3.1202145e-08
117	0x37c6dec7	2.3707178e-05
118	0x3781b319	1.5461397e-05
119	0x371aee89	9.234654e-06
120	0x37aa6453	2.0312296e-05
121	0x37830783	1.5619915e-05
122	0x37949382	1.7711664e-05
123	0x37b179af	2.1156708e-05
124	0x376df01a	1.4182204e-05
125	0x375d47bb	1.3189328e-05
126	0x37cfc614	2.476856e-05
127	0x3803c12b	3.1412736e-05
128	0x378729d3	1.611273e-05
129	0x3774dfbb	1.4595625e-05
130	0x37337e1b	1.0698593e-05
131	0x37c0090c	2.2892396e-05
132	0x37c1879a	2.3070537e-05
133	0x37db7024	2.6159054e-05
134	0x37ef0099	2.8491299e-05
135	0x362a21b4	2.5351592e-06
136	0x33c8e2d4	9.3544855e-08
137	0x3648a4ed	2.9898322e-06
138	0x3752ccdd	1.2564674e-05
139	0x3718e3b8	9.112926e-06
140	0x37113622	8.655277e-06
141	0x366f6fff	3.5678966e-06
142	0x3698e163	4.5561915e-06
143	0xb5780c00	-9.240466e-07
144	0x374a793d	1.2068366e-05
145	0x37da11c6	2.5995902e-05
146	0x381d45d0	3.7496735e-05
147	0x383dc34d	4.5243e-05
148	0x382bd3d1	4.0966846e-05
149	0x385598fa	5.0925628e-05
150	0x37c319e8	2.3257875e-05
151	0x3808d412	3.2622433e-05
152	0x37cb3fa3	2.4229119e-05
153	0x389782c2	7.2245966e-05
154	0x384803f6	4.7687405e-05
155	0x3866df62	5.5044315e-05
156	0x38b9366b	8.8316236e-05
157	0x38a7ad94	7.995512e-05
158	0x38bbef60	8.961442e-05
159	0x386b9aa4	5.6172386e-05
160	0x38782c73	5.9169204e-05
161	0x388ab7e4	6.614605e-05
162	0x36b95c5d	5.524182e-06
163	0x3619930e	2.2884374e-06
164	0x369425c6	4.415141e-06
165	0x36c722da	5.9347194e-06
166	0x361e3cbe	2.3579191e-06
167	0x365bc336	3.274717e-06
168	0x35e99db3	1.7405749e-06
169	0xb33ef9d6	-4.4465047e-08
170	0x35960f76	1.1180371e-06
171	0x37f5272a	2.9224513e-05
172	0x37f04eb8	2.8646886e-05
173	0x37ed1fec	2.8267466e-05
174	0x37c457c3	2.3405888e-05
175	0x3844a26c	4.688131e-05
176	0x37d87793	2.5804888e-05
177	0x3781c0cb	1.5467775e-05
178	0x38091df7	3.2691252e-05
179	0x37e94f8a	2.7812803e-05
180	0x383f63ff	4.5631077e-05
181	0x3822c511	3.8807342e-05
182	0x3833a98c	4.283483e-05
183	0x380cadd2	3.3540484e-05
184	0x3852f977	5.0300234e-05
185	0x384a5fa4	4.8249625e-05
186	0x383f9c4d	4.5683515e-05
187	0x38105966	3.4415534e-05
188	0x382095ab	3.828636e-05
189	0xb5af3f0d	-1.3056866e-06
190	0xb60c7ba1	-2.0933587e-06
191	0xb52f8b4a	-6.539527e-07
192	0xb6a8fc6f	-5.0361773e-06
193	0xb68ca959	-4.19204e-06
194	0xb6983c4e	-4.5369734e-06
195	0xb5c6f97f	-1.4824763e-06
196	0xb56f9e1c	-8.926452e-07
197	0xb51529fa	-5.556791e-07
198	0xb6eec44b	-7.1158042e-06
199	0xb7c9d287	-2.4059102e-05
200	0xb7ec8e72	-2.8199724e-05
201	0xb74faf65	-1.2378999e-05
202	0xb7da1c2a	-2.600074e-05
203	0xb6ef0174	-7.122924e-06
204	0x355861ad	8.060841e-07
205	0xb804686b	-3.15685e-05
206	0xb7cab5d7	-2.4164952e-05
207	0xb818fdd5	-3.6476024e-05
208	0xb7c670fd	-2.3656054e-05
209	0xb8117769	-3.4681903e-05
210	0xb80d137b	-3.3635162e-05
211	0xb84591a5	-4.7104102e-05
212	0xb827288e	-3.9853672e-05
213	0xb7f175b7	-2.8784254e-05
214	0xb80d9875	-3.3759006e-05
215	0xb84fd259	-4.9548547e-05
