logs/epoch=4.ckpt (torch_old, 153933 bytes, 36 tensors)

exp_avg f4 [12, 6, 7, 7]
-2.046005e-18 -1.7186435e-18 -1.861865e-18 -2.1687654e-18 -2.3938251e-18 -2.1687654e-18 -2.0869258e-18 -9.616224e-19
-9.820822e-19 -9.002422e-19 -1.5958837e-18 -2.1278458e-18 -2.271066e-18 -2.1483053e-18 -1.4117428e-18 -7.365619e-19
-6.9564147e-19 -7.570217e-19 -1.6572639e-18 -2.1483053e-18 -2.2915256e-18 -2.496126e-18 -1.2685233e-18 -9.207022e-19
-7.774815e-19 -7.161015e-19 -1.0230025e-18 -1.6572639e-18 -2.8234857e-18 -2.680266e-18 -1.3708234e-18 -7.9794185e-19
-7.161015e-19 -7.9794185e-19 -9.002422e-19 6e-45 6e-45 6e-45 6e-45 6e-45
6e-45 6e-45 6e-45 6e-45 6e-45 6e-45 6e-45 6e-45
6e-45 -7.570217e-19 -6.547213e-19 -7.9794185e-19 -8.5932175e-19 -9.820822e-19 -9.002422e-19 -8.5932175e-19
-2.864407e-19 -3.0690076e-19 -2.864407e-19 -6.3426167e-19 -8.5932175e-19 -9.411624e-19 -9.002422e-19 -5.933414e-19
-2.864407e-19 -2.6598073e-19 -2.4552054e-19 -5.933414e-19 -8.388617e-19 -9.411624e-19 -1.0230025e-18 -5.3196145e-19
-2.864407e-19 -2.2506054e-19 -2.4552054e-19 -3.8874074e-19 -5.728814e-19 -1.1457628e-18 -1.1457628e-18 -5.1150125e-19
-3.2736066e-19 -2.6598073e-19 -2.6598073e-19 -3.2736066e-19 6e-45 6e-45 6e-45 6e-45
6e-45 6e-45 6e-45 6e-45 6e-45 6e-45 6e-45 6e-45
6e-45 6e-45 -2.6598057e-18 -2.0869258e-18 -2.3938251e-18 -2.843946e-18 -2.8848662e-18 -2.700728e-18
-2.5984268e-18 -1.0843827e-18 -1.125303e-18 -1.3094426e-18 -2.2096854e-18 -3.089468e-18 -2.843946e-18 -2.7621064e-18
-1.1866828e-18 -9.002422e-19 -8.388617e-19 -1.0434629e-18 -2.271066e-18 -2.7416467e-18 -2.8234857e-18 -2.8030268e-18
-1.1662234e-18 -8.5932175e-19 -8.184021e-19 -9.411624e-19 -1.5345036e-18 -2.2096854e-18 -3.3554468e-18 -2.9053276e-18
-1.0639229e-18 -8.797816e-19 -8.797816e-19 -7.774815e-19 -1.3912829e-18 6e-45 6e-45 6e-45
6e-45 6e-45 6e-45 6e-45 6e-45 6e-45 6e-45 6e-45
6e-45 6e-45 6e-45 -2.7825659e-18 -2.250606e-18 -2.455206e-18 -3.1508461e-18 -3.2326897e-18
-2.9053276e-18 -2.9257868e-18 -1.227603e-18 -1.3094426e-18 -1.5958837e-18 -2.230146e-18 -3.212227e-18 -3.130387e-18
-2.9053276e-18 -1.6163448e-18 -1.0843827e-18 -9.616224e-19 -1.248063e-18 -2.3733656e-18 -2.8234857e-18 -3.130387e-18
-3.0690072e-18 -1.5754231e-18 -1.1048427e-18 -1.0843827e-18 -1.1866828e-18 -1.6572639e-18 -2.2915256e-18 -3.580507e-18
-3.089468e-18 -1.350364e-18 -1.227603e-18 -1.0639229e-18 -1.0230025e-18 -1.6163448e-18 6e-45 6e-45
6e-45 6e-45 6e-45 6e-45 6e-45 6e-45 6e-45 6e-45
6e-45 6e-45 6e-45 6e-45 -2.843946e-18 -2.3119864e-18 -2.5165851e-18 -3.212227e-18
-3.3145278e-18 -2.9871667e-18 -2.9257868e-18 -1.1457628e-18 -1.2685233e-18 -1.4935834e-18 -2.2096854e-18 -3.2736084e-18
-3.2736084e-18 -2.966707e-18 -1.6368042e-18 -1.0434629e-18 -9.411624e-19 -1.248063e-18 -2.3119864e-18 -2.8030268e-18
-3.1713069e-18 -3.1917674e-18 -1.6163448e-18 -1.125303e-18 -1.0025426e-18 -1.0639229e-18 -1.6981838e-18 -2.3529055e-18
-3.6828087e-18 -3.253148e-18 -1.4117428e-18 -1.1048427e-18 -1.0434629e-18 -9.002422e-19 -1.6368042e-18 6e-45
6e-45 6e-45 6e-45 6e-45 6e-45 6e-45 6e-45 6e-45
6e-45 6e-45 6e-45 6e-45 6e-45 -2.7621064e-18 -2.230146e-18 -2.455206e-18
-3.1917674e-18 -3.3554468e-18 -2.9257868e-18 -3.0076277e-18 -1.248063e-18 -1.4526638e-18 -1.4935834e-18 -2.1892245e-18
00000000: f1f7 16a2 84a0 fda1 a361 09a2 d206 20a2
00000010: 14a2 30a2 d206 20a2 eafc 19a2 11e9 8da1
00000020: 04ee 90a1 30da 84a1 c882 eba1 df01 1da2
00000030: 3993 27a2 5784 1ea2 2356 d0a1 0b65 59a1
00000040: 2f51 4da1 f16e 5fa1 a991 f4a1 5784 1ea2
00000050: b215 29a2 7d2e 38a2 7533 bba1 25df 87a1
00000060: d778 65a1 195b 53a1 f1f7 96a1 a991 f4a1
00000070: 2356 50a2 cbc4 45a2 3e4c caa1 c882 6ba1
00000080: 195b 53a1 c882 6ba1 30da 84a1 0400 0000
00000090: 0400 0000 0400 0000 0400 0000 0400 0000
000000a0: 0400 0000 0400 0000 0400 0000 0400 0000
000000b0: 0400 0000 0400 0000 0400 0000 0400 0000
000000c0: 0400 0000 f16e 5fa1 583d 41a1 c882 6ba1
000000d0: 84a0 7da1 04ee 90a1 30da 84a1 84a0 7da1
000000e0: b215 a9a0 8829 b5a0 b215 a9a0 7533 3ba1
000000f0: 84a0 7da1 1ce4 8aa1 30da 84a1 9c1f 2fa1
00000100: b215 a9a0 df01 9da0 04ee 90a0 9c1f 2fa1
00000110: 9996 77a1 1ce4 8aa1 f1f7 96a1 df01 1da1
00000120: b215 a9a0 30da 84a0 04ee 90a0 d778 e5a0
00000130: b215 29a1 b215 a9a1 b215 a9a1 f1f7 16a1
00000140: 583d c1a0 df01 9da0 df01 9da0 583d c1a0
00000150: 0400 0000 0400 0000 0400 0000 0400 0000
00000160: 0400 0000 0400 0000 0400 0000 0400 0000
00000170: 0400 0000 0400 0000 0400 0000 0400 0000
00000180: 0400 0000 0400 0000 4f42 44a2 eafc 19a2
00000190: 14a2 30a2 9fd8 51a2 95dd 54a2 4f47 47a2
000001a0: e5ba 3fa2 d206 a0a1 bf10 a6a1 583d c1a1
000001b0: c70b 23a2 67f6 63a2 9fd8 51a2 b7ce 4ba2
000001c0: 9c1f afa1 30da 84a1 9996 77a1 eafc 99a1
000001d0: 3993 27a2 3e4c 4aa2 2356 50a2 aed3 4ea2
000001e0: ad1a aca1 84a0 7da1 b78c 71a1 1ce4 8aa1
000001f0: e873 e2a1 c70b 23a2 9996 77a2 1660 56a2
00000200: df01 9da1 36d5 81a1 36d5 81a1 d778 65a1
00000210: 2f51 cda1 0400 0000 0400 0000 0400 0000
00000220: 0400 0000 0400 0000 0400 0000 0400 0000
00000230: 0400 0000 0400 0000 0400 0000 0400 0000
00000240: 0400 0000 0400 0000 0400 0000 2f51 4da2
00000250: bf10 26a2 8829 35a2 cd7d 68a2 c887 6ea2
00000260: 1660 56a2 8de2 57a2 8829 b5a1 583d c1a1
00000270: c882 eba1 448e 24a2 4105 6da2 57fb 66a2
00000280: 1660 56a2 c887 eea1 d206 a0a1 11e9 8da1
00000290: 7d2e b8a1 9c1f 2fa2 2356 50a2 57fb 66a2
000002a0: e873 62a2 cd7d e8a1 c70b a3a1 d206 a0a1
000002b0: 9c1f afa1 a991 f4a1 b215 29a2 ef18 84a2
000002c0: 67f6 63a2 4f47 c7a1 8829 b5a1 df01 9da1
000002d0: f1f7 96a1 c887 eea1 0400 0000 0400 0000
000002e0: 0400 0000 0400 0000 0400 0000 0400 0000
000002f0: 0400 0000 0400 0000 0400 0000 0400 0000
00000300: 0400 0000 0400 0000 0400 0000 0400 0000
00000310: 9fd8 51a2 3098 2aa2 f3b0 39a2 4105 6da2
00000320: a991 74a2 fc69 5ca2 8de2 57a2 b215 a9a1
00000330: 7533 bba1 fc69 dca1 c70b 23a2 b78c 71a2
00000340: b78c 71a2 83e7 5aa2 b78c f1a1 eafc 99a1
00000350: 1ce4 8aa1 7d2e b8a1 3098 2aa2 aed3 4ea2
00000360: 4b00 6aa2 c882 6ba2 c887 eea1 bf10 a6a1
00000370: fdf2 93a1 df01 9da1 929b faa1 219d 2da2
00000380: 25df 87a2 3a0a 70a2 2356 d0a1 c70b a3a1
00000390: eafc 99a1 30da 84a1 b78c f1a1 0400 0000
000003a0: 0400 0000 0400 0000 0400 0000 0400 0000
000003b0: 0400 0000 0400 0000 0400 0000 0400 0000
000003c0: 0400 0000 0400 0000 0400 0000 0400 0000
000003d0: 0400 0000 b7ce 4ba2 448e 24a2 8829 35a2
000003e0: c882 6ba2 9996 77a2 8de2 57a2 7bec 5da2
000003f0: 7d2e b8a1 1660 d6a1 fc69 dca1 4889 21a2

exp_avg_sq f4 [12, 6, 7, 7]
1.1353404e-12 1.1306764e-12 1.1093547e-12 1.1034604e-12 1.1003542e-12 1.0525228e-12 1.0358572e-12 1.1177499e-12
1.123412e-12 1.104309e-12 1.0830463e-12 1.082511e-12 1.0445777e-12 1.0488747e-12 1.0683398e-12 1.0607911e-12
1.0273166e-12 1.0173929e-12 1.0305672e-12 9.659408e-13 9.771981e-13 1.0740793e-12 1.0480635e-12 1.0227729e-12
1.0151378e-12 1.0323127e-12 9.750111e-13 9.682331e-13 1.0691939e-12 1.074605e-12 1.0457437e-12 1.0330112e-12
1.0319181e-12 9.724077e-13 9.794965e-13 1.0418301e-12 1.0424748e-12 1.0306102e-12 1.0366629e-12 1.0375433e-12
9.675979e-13 9.553073e-13 1.055721e-12 1.0507256e-12 1.0469119e-12 1.0369928e-12 1.0405762e-12 9.686033e-13
9.521795e-13 1.8556172e-13 1.8593968e-13 1.8199283e-13 1.8106628e-13 1.8009505e-13 1.7227428e-13 1.7011423e-13
1.82778e-13 1.8364176e-13 1.7973458e-13 1.7625905e-13 1.7647826e-13 1.7023431e-13 1.7137935e-13 1.7511827e-13
1.7263816e-13 1.672545e-13 1.6547068e-13 1.6773613e-13 1.5796158e-13 1.595154e-13 1.7543576e-13 1.7089496e-13
1.6575795e-13 1.6514627e-13 1.6801577e-13 1.5859114e-13 1.5810951e-13 1.7399477e-13 1.7511887e-13 1.7094257e-13
1.6858825e-13 1.6818132e-13 1.584819e-13 1.5946378e-13 1.6950474e-13 1.6979411e-13 1.6800595e-13 1.6851386e-13
1.6903532e-13 1.58313e-13 1.5631776e-13 1.7229204e-13 1.7120372e-13 1.701283e-13 1.6968148e-13 1.6958735e-13
1.5774003e-13 1.5474281e-13 1.994833e-12 1.979158e-12 1.9442343e-12 1.9366793e-12 1.9315322e-12 1.8364745e-12
1.80256e-12 1.9714785e-12 1.9738534e-12 1.9401347e-12 1.9009586e-12 1.903936e-12 1.83037e-12 1.8302575e-12
1.8827548e-12 1.863783e-12 1.7984263e-12 1.7868762e-12 1.8048701e-12 1.6863981e-12 1.7106687e-12 1.8866308e-12
1.8370641e-12 1.7892774e-12 1.7868822e-12 1.8139713e-12 1.701492e-12 1.6950612e-12 1.8893342e-12 1.891127e-12
1.8287357e-12 1.8122105e-12 1.8137254e-12 1.7022802e-12 1.7188127e-12 1.8382156e-12 1.8409948e-12 1.8164734e-12
1.821934e-12 1.8142172e-12 1.6895881e-12 1.6726554e-12 1.8602357e-12 1.8566557e-12 1.843271e-12 1.826968e-12
1.8280425e-12 1.6886454e-12 1.6682772e-12 2.7220882e-12 2.7006201e-12 2.6592571e-12 2.6488614e-12 2.6383522e-12
2.507931e-12 2.4635706e-12 2.6936335e-12 2.6952078e-12 2.6475415e-12 2.5975975e-12 2.6055909e-12 2.496683e-12
2.5060887e-12 2.5719535e-12 2.5403804e-12 2.4569147e-12 2.4504572e-12 2.4724626e-12 2.3084e-12 2.3344725e-12
2.5715036e-12 2.5148703e-12 2.4520989e-12 2.453379e-12 2.4812264e-12 2.3242862e-12 2.3147424e-12 2.5775996e-12
2.5807824e-12 2.503676e-12 2.482857e-12 2.4777565e-12 2.3290129e-12 2.3468733e-12 2.511857e-12 2.5105916e-12
2.479435e-12 2.4884487e-12 2.480299e-12 2.3028582e-12 2.2820105e-12 2.5377539e-12 2.537501e-12 2.5165976e-12
2.492801e-12 2.4950367e-12 2.3038698e-12 2.2794308e-12 2.6375584e-12 2.616353e-12 2.5731075e-12 2.56257e-12
2.5524086e-12 2.4266494e-12 2.381241e-12 2.6108406e-12 2.6086767e-12 2.5615582e-12 2.5112937e-12 2.5140267e-12
2.414807e-12 2.4235345e-12 2.49182e-12 2.4637761e-12 2.3791587e-12 2.3651836e-12 2.3897696e-12 2.2279856e-12
2.2513733e-12 2.494392e-12 2.4340985e-12 2.3726511e-12 2.3673986e-12 2.3980499e-12 2.2500062e-12 2.2394946e-12
2.4966912e-12 2.5016194e-12 2.4264202e-12 2.4000673e-12 2.3982316e-12 2.2477183e-12 2.2663891e-12 2.433054e-12
2.432332e-12 2.400531e-12 2.4039026e-12 2.4010427e-12 2.226396e-12 2.2057885e-12 2.4610084e-12 2.4563591e-12
2.437596e-12 2.4131563e-12 2.415724e-12 2.2300562e-12 2.2051274e-12 2.6381904e-12 2.6209054e-12 2.5787126e-12
2.5603846e-12 2.5561647e-12 2.4286126e-12 2.3880422e-12 2.6101168e-12 2.6103189e-12 2.558153e-12 2.5131034e-12
00000000: f3c8 9f2b e920 9f2b b720 9c2b 5a4c 9b2b
00000010: 70dc 9a2b 2121 942b b0c8 912b 2f4f 9d2b
00000020: 2f1b 9e2b ed6a 9b2b db6c 982b 9259 982b
00000030: e102 932b b29d 932b ff5a 962b 074b 952b
00000040: fb94 902b 712f 8f2b 190a 912b aff1 872b
00000050: 4687 892b c929 972b 7880 932b 47f1 8f2b
00000060: 32de 8e2b fc48 912b 7a38 892b 4644 882b
00000070: c579 962b ba3c 972b e32c 932b 2762 912b
00000080: c53a 912b aeda 882b 15da 892b e39f 922b
00000090: 1db7 922b a50b 912b b8e5 912b 7005 922b
000000a0: 632d 882b 9372 862b 5c94 942b 61e0 932b
000000b0: fa56 932b 9af1 912b b572 922b 9d51 882b
000000c0: e201 862b 86ec 502a 7759 512a dde7 4c2a
000000d0: cddc 4b2a ddc4 4a2a aef6 412a 1788 3f2a
000000e0: 2cca 4d2a 22c3 4e2a f75c 4a2a 3673 462a
000000f0: 65b2 462a b3aa 3f2a bcf4 402a 682a 452a
00000100: 905f 422a d44f 3c2a ad4d 3a2a a6da 3c2a
00000110: 53d9 312a 2f99 332a ea85 452a 1e69 402a
00000120: 7aa0 3a2a 2cf0 392a 402b 3d2a c98e 322a
00000130: f703 322a 94e6 432a 942a 452a d776 402a
00000140: 41d0 3d2a f75a 3d2a 4c6f 322a 4e8a 332a
00000150: 6ad8 3e2a d22b 3f2a 6b28 3d2a d0ba 3d2a
00000160: 1d51 3e2a 9e3e 322a 87ff 2f2a cdfb 412a
00000170: 1dc2 402a 258c 3f2a 5b0b 3f2a 3af0 3e2a
00000180: 7899 312a 9439 2e2a b75f 0c2c 5745 0b2c
00000190: 36d0 082c 1d48 082c 64eb 072c fc3a 012c
000001a0: 11b0 fd2b 00bb 0a2c c8e5 0a2c 5c86 082c
000001b0: a0c4 052c 43fa 052c 04cd 002c fdca 002c
000001c0: b27c 042c ee26 032c 231b fd2b 007b fb2b
000001d0: 4c03 fe2b e556 ed2b 56c1 f02b 85c2 042c
000001e0: 9b45 012c 83d1 fb2b 377b fb2b 344b ff2b
000001f0: b676 ef2b 048f ee2b 38f3 042c 8413 052c
00000200: 93af 002c c40b ff2b 5842 ff2b 1c93 ef2b
00000210: c1e6 f12b 595a 012c 6a8c 012c 5aa5 ff2b
00000220: 0c35 002c 1054 ff2b d4c9 ed2b c367 eb2b
00000230: 07e7 022c 89a6 022c 6bb5 012c bb8f 002c
00000240: 16a3 002c dda7 ed2b 05ca ea2b c88c 3f2c
00000250: 0c0a 3e2c eb20 3b2c a565 3a2c 54a8 392c
00000260: de7a 302c be5b 2d2c 308c 3d2c 8ca8 3d2c
00000270: de4d 3a2c 28ca 362c 275a 372c 3eb0 2f2c
00000280: ae59 302c 32fc 342c 6dc3 322c d7e3 2c2c
00000290: 836f 2c2c edfb 2d2c 7070 222c 1e46 242c
000002a0: 17f4 342c e0f7 302c 168d 2c2c 26a4 2c2c
000002b0: cd99 2e2c 9e8e 232c b1e2 222c e861 352c
000002c0: 3e9b 352c 382e 302c 2db7 2e2c 4b5b 2e2c
000002d0: c4e3 232c 8325 252c 98c1 302c ccaa 302c
000002e0: 8879 2e2c e81b 2f2c 1889 2e2c 9b0c 222c
000002f0: 0c95 202c 1c94 322c 8e8f 322c fe16 312c
00000300: 506a 2f2c 9692 2f2c d41e 222c 9366 202c
00000310: 079a 392c 071c 382c fc10 352c 2853 342c
00000320: 1b9c 332c a1c2 2a2c a090 272c b9b8 372c
00000330: be91 372c ee40 342c 72b7 302c aee8 302c
00000340: 4ced 292c 848a 2a2c a358 2f2c 725f 2d2c
00000350: 1d6b 272c 5c6f 262c 432a 282c d2c7 1c2c
00000360: 236d 1e2c f986 2f2c d248 2b2c e2f5 262c
00000370: 4397 262c 6dbf 282c 8254 1e2c 2697 1d2c
00000380: 64b0 2f2c 2b09 302c 80be 2a2c c5e3 282c
00000390: b3c2 282c 4b2b 1e2c a37b 1f2c 0136 2b2c
000003a0: ff28 2b2c 1fec 282c dc28 292c 57f5 282c
000003b0: 2fab 1c2c f437 1b2c 962d 2d2c d5d9 2c2c
000003c0: d387 2b2c 8fcf 292c d1fd 292c 1fed 1c2c
000003d0: 0b2c 1b2c 6aa5 392c 096e 382c f575 352c
000003e0: ca2b 342c c5df 332c ffe5 2a2c 250b 282c
000003f0: afab 372c 53af 372c 9603 342c 0cd8 302c

exp_avg f4 [12]
-5.2377705e-18 6e-45 6.135113e-05 6e-45 3.38362e-07 -1.5199308e-07 6e-45 -4.2672646e-06
-2.8861925e-06 2.857319e-06 3.7761474e-05 -7.5910257e-06
00000000: 583d c1a2 0400 0000 a3a9 8038 0400 0000
00000010: 1fa8 b534 8a33 23b4 0400 0000 862f 8fb6
00000020: 69b0 41b6 5ec0 3f36 1362 1e38 6ab6 feb6

exp_avg_sq f4 [12]
8.598801e-12 1.4591667e-13 3.6709807e-06 1.34395e-14 2.6410783e-07 1.5291005e-07 8.697417e-12 8.1535956e-10
1.5869e-10 4.394881e-09 4.4949097e-06 4.1115234e-07
00000000: 8f45 172d 9e49 242a f85a 7636 c11a 7228
00000010: b4ca 8d34 982f 2434 af01 192d d41f 6030
00000020: 447b 2e2f c801 9731 fbd2 9636 59bc dc34

exp_avg f4 [8, 12, 5, 5]
-6e-45 -6e-45 -6e-45 -6e-45 -6e-45 -6e-45 -6e-45 -6e-45
-6e-45 -6e-45 -6e-45 -6e-45 -6e-45 -6e-45 -6e-45 -6e-45
-6e-45 6e-45 -6e-45 -6e-45 -6e-45 -6e-45 -6e-45 1.05841424e-19
6e-45 -6e-45 6e-45 -6e-45 -6e-45 6e-45 -6e-45 -6e-45
-6e-45 -6e-45 -6e-45 6e-45 6e-45 -6e-45 -6e-45 -6e-45
6e-45 6e-45 -6e-45 -6e-45 6e-45 -6e-45 6e-45 -6e-45
-6e-45 6e-45 1.5977783e-05 2.9734523e-05 3.3379958e-05 2.104775e-05 -2.3722994e-05 2.7813208e-05
4.025044e-05 4.8549493e-05 4.246005e-05 2.2850548e-07 2.5490282e-05 3.280852e-05 4.0122923e-05 3.9350318e-05
4.4287017e-06 2.3063414e-05 2.458154e-05 2.5535872e-05 2.202052e-05 -8.654259e-06 6.0243197e-05 5.486651e-05
5.156577e-05 4.3347965e-05 7.308152e-06 6e-45 6e-45 -6e-45 -6e-45 6e-45
6e-45 6e-45 -6e-45 -6e-45 6e-45 -6e-45 -6e-45 -6e-45
-6e-45 6e-45 -6e-45 -6e-45 -6e-45 -6e-45 6e-45 6e-45
6e-45 6e-45 -6e-45 6e-45 -2.9856176e-10 6e-45 2.370096e-09 1.1525701e-08
-5.2978426e-09 6e-45 6e-45 1.525152e-13 5.1048397e-09 1.2916086e-09 7.589066e-12 6e-45
5.1055805e-15 2.5787143e-08 5.391486e-09 -3.715601e-14 6e-45 6e-45 -1.5e-44 6e-45
-6e-45 6e-45 6e-45 6e-45 6e-45 6e-45 6e-45 6e-45
6e-45 6e-45 6e-45 6e-45 6e-45 6e-45 6e-45 -6e-45
6e-45 6e-45 6e-45 6e-45 7.550646e-09 -1.1245759e-24 6e-45 6e-45
6e-45 -7.421208e-08 -4.869133e-08 6e-45 6e-45 6e-45 6e-45 6e-45
6e-45 6e-45 6e-45 6e-45 6e-45 6e-45 6e-45 6e-45
6e-45 6e-45 6e-45 6e-45 6e-45 6e-45 6e-45 6e-45
6e-45 6e-45 6e-45 6e-45 6e-45 6e-45 6e-45 -1.0617237e-09
-9.393499e-10 -6e-45 -6e-45 -6e-45 -8.028104e-11 1.258648e-16 -6e-45 -6e-45
-6e-45 3.7344156e-10 5.110627e-12 -6e-45 -6e-45 -6e-45 1.7455825e-12 -6e-45
-6e-45 -6e-45 -6e-45 5.308978e-13 -6e-45 -6e-45 -6e-45 -6e-45
-3.1326095e-07 -1.4199455e-06 -4.8193084e-07 2.5551421e-06 4.2599067e-06 1.5460569e-07 -7.444853e-08 1.8722342e-07
2.4823066e-06 5.0099566e-06 9.117774e-07 -7.047237e-07 7.422322e-07 1.2079695e-06 8.209348e-06 5.1154313e-08
-1.8790626e-08 2.4498647e-08 -1.7776307e-07 4.0648138e-06 7.0357295e-08 7.126187e-08 1.690473e-07 5.086288e-06
3.743555e-06 1.1058353e-06 -3.5347591e-06 -1.9668632e-06 1.4393368e-06 3.1804236e-06 4.235435e-06 2.3079836e-06
1.4077526e-06 8.402786e-10 1.3028124e-07 -5.679377e-07 -8.1124745e-07 -1.2100099e-06 -3.236755e-06 -4.384046e-06
6.6526144e-07 -1.6225354e-06 -1.4358743e-06 -4.408216e-08 1.8394029e-07 -6.480122e-07 -1.3975559e-06 -1.3166358e-06
-1.2514047e-08 4.309145e-07 -1.1872788e-05 1.3846005e-05 3.832356e-05 5.0518585e-05 7.5673574e-06 8.262418e-06
00000000: 0400 0080 0400 0080 0400 0080 0400 0080
00000010: 0400 0080 0400 0080 0400 0080 0400 0080
00000020: 0400 0080 0400 0080 0400 0080 0400 0080
00000030: 0400 0080 0400 0080 0400 0080 0400 0080
00000040: 0400 0080 0400 0000 0400 0080 0400 0080
00000050: 0400 0080 0400 0080 0400 0080 37e9 f91f
00000060: 0400 0000 0400 0080 0400 0000 0400 0080
00000070: 0400 0080 0400 0000 0400 0080 0400 0080
00000080: 0400 0080 0400 0080 0400 0080 0400 0000
00000090: 0400 0000 0400 0080 0400 0080 0400 0080
000000a0: 0400 0000 0400 0000 0400 0080 0400 0080
000000b0: 0400 0000 0400 0080 0400 0000 0400 0080
000000c0: 0400 0080 0400 0000 0708 8637 676e f937
000000d0: 7501 0c38 b38f b037 be00 c7b7 6950 e937
000000e0: 95d2 2838 9fa1 4b38 2217 3238 1c5b 7534
000000f0: f7d3 d537 e19b 0938 a949 2838 150c 2538
00000100: 429a 9436 4e78 c137 7534 ce37 de35 d637
00000110: b5b8 b837 c231 11b7 a4ad 7c38 7720 6638
00000120: 5348 5838 86d0 3538 8c38 f536 0400 0000
00000130: 0400 0000 0400 0080 0400 0080 0400 0000
00000140: 0400 0000 0400 0000 0400 0080 0400 0080
00000150: 0400 0000 0400 0080 0400 0080 0400 0080
00000160: 0400 0080 0400 0000 0400 0080 0400 0080
00000170: 0400 0080 0400 0080 0400 0000 0400 0000
00000180: 0400 0000 0400 0000 0400 0080 0400 0000
00000190: d522 a4af 0400 0000 2bdf 2231 9202 4632
000001a0: 5108 b6b1 0400 0000 0400 0000 83b7 2b2a
000001b0: a566 af31 7084 b130 1d82 052d 0400 0000
000001c0: abf2 b727 8782 dd32 0340 b931 f755 27a9
000001d0: 0400 0000 0400 0000 0b00 0080 0400 0000
000001e0: 0400 0080 0400 0000 0400 0000 0400 0000
000001f0: 0400 0000 0400 0000 0400 0000 0400 0000
00000200: 0400 0000 0400 0000 0400 0000 0400 0000
00000210: 0400 0000 0400 0000 0400 0000 0400 0080
00000220: 0400 0000 0400 0000 0400 0000 0400 0000
00000230: 18b8 0132 0b05 ae97 0400 0000 0400 0000
00000240: 0400 0000 865e 9fb3 af20 51b3 0400 0000
00000250: 0400 0000 0400 0000 0400 0000 0400 0000
00000260: 0400 0000 0400 0000 0400 0000 0400 0000
00000270: 0400 0000 0400 0000 0400 0000 0400 0000
00000280: 0400 0000 0400 0000 0400 0000 0400 0000
00000290: 0400 0000 0400 0000 0400 0000 0400 0000
000002a0: 0400 0000 0400 0000 0400 0000 0400 0000
000002b0: 0400 0000 0400 0000 0400 0000 15ec 91b0
000002c0: 701a 81b0 0400 0080 0400 0080 0400 0080
000002d0: 358a b0ae bb1c 1125 0400 0080 0400 0080
000002e0: 0400 0080 3a4d cd2f 70d0 b32c 0400 0080
000002f0: 0400 0080 0400 0080 3dab f52b 0400 0080
00000300: 0400 0080 0400 0080 0400 0080 386f 152b
00000310: 0400 0080 0400 0080 0400 0080 0400 0080
00000320: 422e a8b4 f594 beb5 095e 01b5 0279 2b36
00000330: 52f0 8e36 b001 2634 83e0 9fb3 9507 4934
00000340: b495 2636 331b a836 dec0 7435 3e2c 3db5
00000350: cf3d 4735 8421 a235 e2ba 0937 c3b4 5b33
00000360: 0669 a1b2 1871 d232 24df 3eb4 7c64 8836
00000370: 5517 9733 a108 9933 5e83 3534 e2aa aa36
00000380: c939 7b36 366c 9435 b336 6db6 74fe 03b6
00000390: 3c2f c135 436f 5536 1c1e 8e36 dbe2 1a36
000003a0: 03f2 bc35 5af9 6630 6fe3 0b34 6274 18b5
000003b0: 80c4 59b5 a067 a2b5 0737 59b6 ab1a 93b6
000003c0: 6b94 3235 e4c5 d9b5 44b8 c0b5 d954 3db3
000003d0: 1f81 4534 0ff3 2db5 a893 bbb5 43b7 b0b5
000003e0: 5cfd 56b2 7058 e734 3c31 47b7 234c 6837
000003f0: 9cbd 2038 ebe3 5338 1beb fd36 d19e 0a37

exp_avg_sq f4 [8, 12, 5, 5]
1.2028571e-11 1.3767472e-11 1.37535235e-11 1.4606254e-11 1.657463e-11 1.3444352e-11 1.5507538e-11 1.540635e-11
1.6347215e-11 1.8448094e-11 1.44462645e-11 1.6585169e-11 1.6416663e-11 1.7530711e-11 1.9654087e-11 1.5455335e-11
1.7624801e-11 1.7634621e-11 1.8745363e-11 2.0891549e-11 1.5206229e-11 1.7380234e-11 1.7631736e-11 1.8803941e-11
2.0891188e-11 2.7385381e-17 1.3661995e-17 1.7461854e-17 6.663002e-15 3.2666223e-17 2.3592792e-17 1.08567075e-17
2.5381675e-17 6.5597382e-15 3.1591004e-16 1.5187124e-17 2.3916168e-18 7.504888e-18 5.6829062e-15 1.3527848e-16
2.871443e-17 5.1201504e-18 9.5720265e-18 6.2133225e-15 3.0982702e-17 1.6228562e-17 8.845766e-18 8.5563885e-18
7.528647e-15 4.3739482e-16 1.7263735e-06 2.2329089e-06 2.5209224e-06 2.4398346e-06 2.76421e-06 1.7908156e-06
2.323572e-06 2.61588e-06 2.5168263e-06 2.8367965e-06 1.7384219e-06 2.283717e-06 2.5776874e-06 2.4530468e-06
2.746098e-06 1.7558485e-06 2.3132247e-06 2.6041478e-06 2.4650094e-06 2.740566e-06 1.7628785e-06 2.3126702e-06
2.591386e-06 2.450838e-06 2.7312567e-06 2.9664813e-20 2.123371e-19 4.00257e-18 2.5952655e-16 2.0168216e-18
1.2582903e-19 8.803861e-20 4.865036e-18 2.6546298e-16 2.8206755e-18 1.3677398e-19 4.6841093e-19 5.332716e-18
2.5419694e-16 2.4429377e-18 1.0289658e-17 1.1068051e-17 9.1958e-18 2.1540495e-16 1.7836438e-17 1.1645548e-16
1.4914367e-16 1.152927e-16 2.5644331e-17 1.9404748e-16 6.3674327e-10 1.7278148e-09 2.1354056e-09 1.7956788e-09
1.8544585e-09 5.4049126e-10 1.5393945e-09 1.8855992e-09 1.5505799e-09 1.6075762e-09 5.567407e-10 1.5504941e-09
1.8706123e-09 1.5173838e-09 1.5647961e-09 6.194359e-10 1.6266163e-09 1.9287911e-09 1.5759373e-09 1.6406019e-09
7.110257e-10 1.7106436e-09 1.9961692e-09 1.6416575e-09 1.7349484e-09 2.456944e-09 2.981789e-09 8.6585294e-10
3.5045167e-10 3.1072064e-10 2.456555e-09 2.8921856e-09 8.1463913e-10 3.3033037e-10 3.1331862e-10 2.3785383e-09
2.6982425e-09 7.185828e-10 2.8386601e-10 2.7674038e-10 2.3527547e-09 2.5889575e-09 6.491527e-10 2.612652e-10
2.6421998e-10 2.5434057e-09 2.7864966e-09 7.7710505e-10 3.4669767e-10 3.4420275e-10 2.3357333e-13 2.5882681e-13
2.7128552e-13 2.7188568e-13 3.5537225e-13 2.5358792e-13 2.8110462e-13 2.915685e-13 2.894933e-13 3.8516106e-13
2.4481605e-13 2.7381694e-13 2.878822e-13 2.8574135e-13 3.7568952e-13 2.6905843e-13 3.0005114e-13 3.1318833e-13
3.0672052e-13 4.0697805e-13 2.506099e-13 2.8786175e-13 3.0137744e-13 2.9665785e-13 3.861517e-13 1.9107454e-12
2.1053218e-12 1.8628554e-12 1.3744113e-12 1.3312798e-12 7.256317e-13 7.8570256e-13 7.448947e-13 5.1665876e-13
4.9484836e-13 1.128737e-12 1.2299201e-12 1.1817406e-12 7.8301303e-13 7.804384e-13 1.6193611e-12 1.6780531e-12
1.6323813e-12 1.1927978e-12 1.1919259e-12 1.5924678e-12 1.6437942e-12 1.5751264e-12 1.1863455e-12 1.146211e-12
4.9715826e-12 5.648548e-12 5.7619907e-12 1.0206701e-10 9.8828876e-11 2.5044847e-12 3.0340684e-12 3.4035671e-12
8.554553e-11 1.0499248e-10 4.9330184e-12 5.318117e-12 6.6305078e-12 1.9735853e-10 1.8387936e-10 2.5102576e-12
2.9629866e-12 3.1877207e-12 1.1503181e-10 1.2392878e-10 2.3965504e-12 3.0311298e-12 3.0865766e-12 8.3946794e-11
9.378233e-11 4.255234e-09 8.199237e-09 3.3521437e-09 1.4711206e-09 1.6293586e-09 1.1173105e-09 3.3845884e-09
4.4334708e-10 8.418392e-13 8.8118716e-13 8.021288e-10 2.0897244e-09 3.9610562e-10 6.902852e-10 5.5116905e-10
8.684085e-10 3.0223528e-09 3.7636366e-10 2.5570713e-13 5.29502e-13 6.456873e-10 2.220795e-09 2.3423535e-10
3.2182327e-13 1.0160413e-12 6.314323e-07 8.313156e-07 1.1229338e-06 9.364808e-07 1.0352254e-06 6.764236e-07
00000000: de9b 532d 2f33 722d 5df4 712d 5c7a 802d
00000010: c0ca 912d fb83 6c2d df67 882d 0484 872d
00000020: a8ca 8f2d 6a45 a22d 3124 7e2d 7be2 912d
00000030: 0a67 902d a733 9a2d 12e1 ac2d 52f2 872d
00000040: 8607 9b2d a31d 9b2d cee2 a42d 96c3 b72d
00000050: 62c1 852d cfe0 982d 2417 9b2d b666 a52d
00000060: c6c2 b72d e795 fc23 f304 7c23 a30e a123
00000070: 590f f027 78a5 1624 e89a d923 5a45 4823
00000080: c91a ea23 e856 ec27 181c b625 9513 8c23
00000090: 5d78 3022 d570 0a23 8fbf cc27 29f7 1b25
000000a0: 046c 0424 74e6 bc22 9e92 3023 c9db df27
000000b0: ebe1 0e24 9cae 9523 f32c 2323 67d6 1d23
000000c0: c29f 0728 1524 fc25 beb5 e735 15d9 1536
000000d0: 1e2d 2936 0abc 2336 c480 3936 f55b f035
000000e0: aaee 1b36 7a8c 2f36 bfe6 2836 cb5f 3e36
000000f0: b953 e935 f641 1936 55fc 2c36 069f 2436
00000100: 9b49 3836 7faa eb35 e63c 1b36 ebc2 2e36
00000110: 8a6c 2536 91ea 3736 0b9c ec35 5f33 1b36
00000120: ace7 2d36 1479 2436 a24a 3736 8f16 0c1f
00000130: f3ae 7a20 34ab 9322 5c9b 9525 afd0 1422
00000140: 7e8d 1420 13e0 cf1f f77c b322 6c07 9925
00000150: 0e21 5022 6679 2120 2140 0a21 14be c422
00000160: d988 9225 ca41 3422 89cf 3d23 652b 4c23
00000170: f0a1 2923 5258 7825 1983 a423 9743 0625
00000180: 71f3 2b25 66ec 0425 f786 ec23 b5b8 5f25
00000190: d306 2f30 1478 ed30 74be 1231 d5cb f630
000001a0: f5df fe30 b191 1430 a192 d330 d093 0131
000001b0: 2e1c d530 8ff1 dc30 2509 1930 2919 d530
000001c0: 298c 0031 328c d030 5e10 d730 ed44 2a30
000001d0: 798f df30 a78b 0431 5d98 d830 8c7b e130
000001e0: fc71 4330 ec1b eb30 fb2c 0931 b0a0 e130
000001f0: 1273 ee30 04d7 2831 30e8 4c31 fc00 6e30
00000200: b0a9 c02f 0bd2 aa2f 2cd0 2831 debf 4631
00000210: 22ed 5f30 de99 b52f ad3f ac2f b073 2331
00000220: fc6b 3931 c585 4530 970e 9c2f bf23 982f
00000230: 19ae 2131 6ce9 3131 0f70 3230 cfa1 8f2f
00000240: a841 912f 11c8 2e31 917c 3f31 e89b 5530
00000250: 5c99 be2f 3b3a bd2f 777d 832a e0b4 912a
00000260: 5db8 982a db0e 992a 8a0e c82a dfc1 8e2a
00000270: 723f 9e2a 7323 a42a 62f8 a22a 8fd3 d82a
00000280: b6d1 892a 2e25 9a2a 3310 a22a abdb a02a
00000290: 917e d32a 6877 972a ede9 a82a 324f b02a
000002a0: 16ab ac2a b81b e52a b114 8d2a 400d a22a
000002b0: 11a9 a92a e700 a72a 5362 d92a ee74 062c
000002c0: 1b26 142c 3816 032c 636e c12b 695c bb2b
000002d0: 463f 4c2b d627 5d2b 52ab 512b 306d 112b
000002e0: 9549 0b2b 09db 9e2b 8b18 ad2b b150 a62b
000002f0: 0966 5c2b 83ac 5b2b a2e7 e32b 3c2a ec2b
00000300: bcbc e52b 12df a72b a8bf a72b b31e e02b
00000310: ed57 e72b e9ad dd2b 9af6 a62b 9a50 a12b
00000320: 09ec ae2c 99bd c62c 66bb ca2c 9e72 e02e
00000330: b653 d92e c93c 302c eb80 552c 3781 6f2c
00000340: da1d bc2e 83e1 e62e ae90 ad2c 571d bb2c
00000350: 4e4a e92c 7dff 582f 702d 4a2f c8a4 302c
00000360: 6c80 502c df50 602c 27f5 fc2e da42 082f
00000370: 6aa4 282c fb4b 552c d232 592c d899 b82e
00000380: c23a ce2e 6f35 9231 a0dc 0c32 895b 6631
00000390: 7430 ca30 f6ef df30 de8f 9930 4f96 6831
000003a0: 8ebb f32f e8f4 6c2b 3a08 782b cc7c 5c30
000003b0: d29a 0f31 e9c2 d92f 81be 3d30 1381 1730
000003c0: d1b4 6e30 cbb1 4f31 7ae8 ce2f 48f3 8f2a
000003d0: a40a 152b 347c 3130 a49c 1831 b2c5 802f
000003e0: 9f2b b52a bffe 8e2b b27f 2935 9327 5f35
000003f0: b6b7 9635 7862 7b35 13f2 8a35 7a93 3535

exp_avg f4 [8]
-4.7386326e-05 -1.2460731e-06 0.00014492663 -7.1597847e-06 6e-45 5.6589766e-07 -1.5536052e-05 -4.6473284e-05
00000000: aec0 46b8 bf3e a7b5 72f7 1739 153e f0b6
00000010: 0400 0000 31e8 1735 6b53 82b7 4fec 42b8

exp_avg_sq f4 [8]
1.5449955e-06 5.8250714e-07 1.9477879e-05 1.8423445e-07 2.2389515e-14 4.71595e-09 2.7727725e-07 7.1300116e-07
00000000: a45d cf35 965d 1c35 6d64 a337 fbd1 4534
00000010: b5aa c928 ef09 a231 b2dc 9434 1165 3f35

exp_avg f4 [3, 8, 3, 3]
0.00018335758 0.00012170537 -9.091654e-05 9.734653e-05 9.210793e-05 -6.557096e-05 9.532427e-05 -7.7756755e-05
-0.00017823373 -1.4530812e-05 2.2959667e-07 -4.2352573e-07 -1.6720704e-05 -7.1679888e-06 -1.8969091e-06 -1.54062e-05
-2.3180617e-06 -1.7444155e-06 0.0001547002 0.00011085031 -0.00010219927 0.00019875444 0.00011181512 -8.28119e-05
0.00017226128 0.00011366203 -5.230423e-05 1.8234477e-05 -2.979672e-05 5.592134e-06 -8.06409e-06 -4.1108233e-05
-1.1142822e-05 4.8904847e-05 1.659303e-05 -1.5361411e-05 6e-45 6e-45 -6e-45 6e-45
6e-45 -6e-45 6e-45 -6e-45 -6e-45 1.314403e-15 -8.143514e-08 -1.5134142e-07
1.00250835e-10 4.1612527e-08 -1.0490713e-07 -4.370559e-10 -8.8713506e-08 -2.8247328e-07 4.2290017e-06 3.8435614e-05
2.9144523e-05 8.0321715e-06 3.298408e-05 1.609354e-05 5.453871e-07 8.50939e-06 3.6121648e-06 5.8925612e-05
-3.0997e-05 -8.590919e-05 2.6534359e-05 -0.00013137092 -0.0002230267 -0.0001356001 -0.00011128572 -0.000121853795
-1.0673646e-05 4.2951037e-06 -7.377359e-06 -8.899741e-06 2.1567352e-05 1.8146016e-05 2.3783348e-06 -1.3773252e-06
-2.0761e-05 -1.4194089e-06 4.6537363e-07 1.4731029e-06 4.5704218e-07 1.1669042e-06 5.132953e-07 6.120005e-07
1.8721298e-06 8.3315354e-07 -1.1027287e-05 -8.696978e-06 -2.5664693e-05 -4.680213e-06 1.04553665e-05 1.8108678e-07
-3.382638e-06 1.9771385e-05 8.468538e-06 -4.8656243e-06 -9.481887e-06 -5.5964574e-06 -1.8613305e-06 -7.318649e-06
-1.8703374e-06 2.264304e-06 -2.3981534e-06 -4.785732e-06 6e-45 6e-45 -6e-45 6e-45
-6e-45 -6e-45 -6e-45 6e-45 -6e-45 -1.8523568e-16 2.983752e-08 -9.8941015e-11
-1.9951982e-15 -1.173962e-08 -1.6181355e-09 -5.519654e-11 -3.426563e-09 -3.364365e-09 -1.443953e-06 -1.370197e-06
-2.75403e-06 6.717407e-06 3.1847512e-06 9.534759e-06 3.3817e-07 1.1209376e-06 -1.7059575e-06 -1.043298e-05
-2.6347323e-05 -2.4905616e-05 2.1950327e-06 -1.8872481e-06 -4.3651166e-06 -1.7880131e-05 2.0681955e-06 1.6406066e-05
6e-45 6e-45 6e-45 6e-45 6e-45 6e-45 6e-45 6e-45
6e-45 6e-45 6e-45 -6e-45 6e-45 6e-45 -6e-45 6e-45
6e-45 -6e-45 6e-45 6e-45 6e-45 6e-45 6e-45 6e-45
6e-45 6e-45 6e-45 6e-45 6e-45 6e-45 6e-45 6e-45
6e-45 6e-45 6e-45 6e-45 0.0 0.0 -6e-45 0.0
0.0 -6e-45 0.0 0.0 6e-45 6e-45 6e-45 6e-45
6e-45 6e-45 6e-45 6e-45 6e-45 6e-45 6e-45 6e-45
6e-45 6e-45 6e-45 6e-45 6e-45 6e-45 6e-45 6e-45
6e-45 6e-45 6e-45 6e-45 6e-45 6e-45 6e-45 6e-45
00000000: ad43 4039 133c ff38 72aa beb8 8526 cc38
00000010: 122a c138 2483 89b8 d4e8 c738 5711 a3b8
00000020: 41e4 3ab9 5dc9 73b7 0d87 7634 ef60 e3b4
00000030: 7043 8cb7 8e84 f0b6 4d99 feb5 903c 81b7
00000040: ff8f 1bb6 a921 eab5 0537 2239 4f78 e838
00000050: d153 d6b8 bd68 5039 497e ea38 4dab adb8
00000060: 09a1 3439 d65d ee38 3d61 5bb8 3ef6 9837
00000070: f8f3 f9b7 11a4 bb36 014b 07b7 a16b 2cb8
00000080: 0ef2 3ab7 2e1f 4d38 4331 8b37 61dc 80b7
00000090: 0400 0000 0400 0000 0400 0080 0400 0000
000000a0: 0400 0000 0400 0080 0400 0000 0400 0080
000000b0: 0400 0080 e96c bd26 71e1 aeb3 6a80 22b4
000000c0: 3474 dc2e 75b9 3233 4e49 e1b3 2646 f0af
000000d0: c482 beb3 d5a6 97b4 d9e6 8d36 ed35 2138
000000e0: 637b f437 eac1 0637 6358 0a38 9d00 8737
000000f0: b766 1235 8dc3 0e37 8568 7236 e526 7738
00000100: c602 02b8 252a b4b8 1a96 de37 9dc0 09b9
00000110: 46dc 69b9 e02f 0eb9 1162 e9b8 c28b ffb8
00000120: f612 33b7 a91e 9036 088b f7b6 1950 15b7
00000130: 89eb b437 4638 9837 7b9b 1f36 89dc b8b5
00000140: e827 aeb7 8582 beb5 77d8 f934 6eb7 c535
00000150: 665f f534 869e 9c35 62c9 0935 5b48 2435
00000160: e445 fb35 e0a5 5f35 d601 39b7 3ce9 11b7
00000170: 824a d7b7 b90a 9db6 7569 2f37 c170 4234
00000180: 4701 63b6 bada a537 1814 0e37 6543 a3b6
00000190: 6514 1fb7 34c9 bbb6 d4d2 f9b5 b792 f5b6
000001a0: 4e08 fbb5 72f4 1736 f6ef 20b6 2095 a0b6
000001b0: 0400 0000 0400 0000 0400 0080 0400 0000
000001c0: 0400 0080 0400 0080 0400 0080 0400 0000
000001d0: 0400 0080 ec8f 55a5 b326 0033 d792 d9ae
000001e0: e9c4 0fa7 65af 49b2 1565 deb0 c7c1 72ae
000001f0: bc78 6bb1 8932 67b1 d9cd c1b5 9ce7 b7b5
00000200: e0d1 38b6 1666 e136 9cb9 5536 7af7 1f37
00000210: bb8d b534 1f73 9635 41f8 e4b5 4f09 2fb7
00000220: 7204 ddb7 67ec d0b7 604e 1336 5a4d fdb5
00000230: 1178 92b6 4afd 95b7 54cb 0a36 c29f 8937
00000240: 0400 0000 0400 0000 0400 0000 0400 0000
00000250: 0400 0000 0400 0000 0400 0000 0400 0000
00000260: 0400 0000 0400 0000 0400 0000 0400 0080
00000270: 0400 0000 0400 0000 0400 0080 0400 0000
00000280: 0400 0000 0400 0080 0400 0000 0400 0000
00000290: 0400 0000 0400 0000 0400 0000 0400 0000
000002a0: 0400 0000 0400 0000 0400 0000 0400 0000
000002b0: 0400 0000 0400 0000 0400 0000 0400 0000
000002c0: 0400 0000 0400 0000 0400 0000 0400 0000
000002d0: 0000 0000 0000 0000 0400 0080 0000 0000
000002e0: 0000 0000 0400 0080 0000 0000 0000 0000
000002f0: 0400 0000 0400 0000 0400 0000 0400 0000
00000300: 0400 0000 0400 0000 0400 0000 0400 0000
00000310: 0400 0000 0400 0000 0400 0000 0400 0000
00000320: 0400 0000 0400 0000 0400 0000 0400 0000
00000330: 0400 0000 0400 0000 0400 0000 0400 0000
00000340: 0400 0000 0400 0000 0400 0000 0400 0000
00000350: 0400 0000 0400 0000 0400 0000 0400 0000

exp_avg_sq f4 [3, 8, 3, 3]
5.2967727e-05 5.166162e-05 5.8604914e-05 5.6307304e-05 5.4608645e-05 6.199711e-05 5.5038785e-05 5.3787167e-05
6.125178e-05 5.8095786e-08 2.564902e-08 1.5164694e-08 5.51943e-08 2.386715e-08 1.2705647e-08 5.252073e-08
2.2716836e-08 1.27146e-08 0.00016413582 0.00017469934 0.0002034646 0.00017778957 0.00018874084 0.00021845644
0.00019841158 0.00020941954 0.00024023815 2.5085255e-05 2.5079173e-05 2.5178428e-05 2.5562409e-05 2.5663512e-05
2.5768295e-05 2.5269834e-05 2.5391691e-05 2.5764904e-05 3.4003238e-16 1.459214e-17 2.2449076e-16 1.2066893e-15
2.4327152e-16 2.250674e-16 2.020094e-15 1.1857757e-16 1.6207435e-15 1.8101987e-09 1.0423117e-09 5.671317e-10
1.954169e-09 1.1849697e-09 6.7232664e-10 5.251081e-10 2.8544198e-10 2.3028689e-10 5.5713567e-08 4.203356e-08
1.069182e-07 3.4827433e-08 2.8841034e-08 7.732658e-08 8.3969644e-11 1.4546856e-08 1.03379545e-08 2.2014934e-05
2.3705188e-05 2.2641116e-05 2.0754567e-05 2.249536e-05 2.1621521e-05 2.4818615e-05 2.6346323e-05 2.5111405e-05
5.1875904e-06 5.9522777e-06 6.1952614e-06 5.0471444e-06 5.7977454e-06 6.0199163e-06 5.0197905e-06 5.776079e-06
5.9818217e-06 1.1528667e-09 2.0191757e-09 4.923087e-10 1.463156e-09 2.3508075e-09 5.7239474e-10 1.4516557e-09
2.1423918e-09 4.920739e-10 2.4872475e-06 2.8775914e-06 3.034895e-06 2.577889e-06 2.9920316e-06 3.1492737e-06
2.744497e-06 3.1809618e-06 3.3473507e-06 1.1152197e-05 1.2458944e-05 1.2637262e-05 1.0641392e-05 1.18918815e-05
1.2030685e-05 1.0716446e-05 1.1979153e-05 1.2087741e-05 6.7545094e-17 3.605163e-17 8.28244e-17 5.2614312e-17
9.179528e-18 2.5672425e-16 3.2274592e-16 1.5828866e-16 2.5362715e-16 7.434383e-11 1.0663134e-10 7.596454e-11
1.0841273e-10 1.4525048e-10 1.102854e-10 6.963985e-10 7.691708e-10 7.0257733e-10 8.064456e-11 2.1939923e-10
8.5203074e-11 5.992747e-09 5.9962835e-09 7.398719e-09 2.9937498e-12 2.010923e-11 1.301263e-11 4.1830813e-06
4.611013e-06 4.658959e-06 4.079375e-06 4.501946e-06 4.541394e-06 4.093084e-06 4.513483e-06 4.5391253e-06
1.7428527e-11 1.391666e-11 1.4262678e-11 1.7887476e-11 1.4492379e-11 1.496718e-11 1.7647122e-11 1.4412879e-11
1.4933686e-11 9.587134e-13 7.749891e-12 4.039022e-12 1.0063561e-12 8.031212e-12 4.0415327e-12 9.692837e-13
7.667753e-12 3.8323034e-12 3.0200988e-11 2.8602178e-11 2.7250783e-11 3.398369e-11 3.2276085e-11 3.042435e-11
3.5991914e-11 3.4338213e-11 3.218594e-11 4.720702e-12 3.9102415e-12 3.4889962e-12 5.6358906e-12 4.474864e-12
3.5495838e-12 5.8617954e-12 4.703886e-12 3.7271705e-12 0.0 0.0 9.37611e-18 0.0
0.0 1.5086338e-16 0.0 0.0 3.7987327e-18 4.767279e-10 4.4120954e-10 4.0082881e-10
5.112069e-10 4.756787e-10 4.3181966e-10 5.323158e-10 4.9961485e-10 4.5507742e-10 7.838538e-18 1.2236387e-17
1.9597894e-14 2.295089e-19 8.003788e-20 1.3115208e-14 3.3355937e-19 1.6522102e-19 1.200033e-14 2.9177788e-14
6.7030246e-13 5.761365e-12 1.5438588e-13 7.4071375e-13 5.987851e-12 2.2249543e-13 7.8808385e-13 5.8667715e-12
00000000: aa29 5e38 3eaf 5838 8cce 7538 822b 6c38
00000010: 960b 6538 7204 8238 72d9 6638 8899 6138
00000020: 4d74 8038 fe84 7933 cb52 dc32 8443 8232
00000030: c60e 6d33 6b04 cd32 0748 5a32 2793 6133
00000040: da22 c332 676f 5a32 e01b 2c39 7f2f 3739
00000050: 1d59 5539 066d 3a39 bce8 4539 7411 6539
00000060: b40c 5039 a197 5b39 70e8 7b39 2d6e d237
00000070: 1d61 d237 4336 d337 db6e d637 f947 d737
00000080: fe28 d837 8efa d337 3e00 d537 b621 d837
00000090: ec03 c425 b796 8623 fd68 8125 fae6 ad26
000000a0: 8a3c 8c25 16be 8125 2890 1127 ecb5 0825
000000b0: e292 e926 b4ca f830 1541 8f30 58e4 1b30
000000c0: 1b4a 0631 6adc a230 c8ce 3830 3357 1030
000000d0: 63ec 9c2f ff33 7d2f b749 6f33 6388 3433
000000e0: e79a e533 2b95 1533 1bbe f732 bd0e a633
000000f0: b5a6 b82e c0e9 7932 ce9a 3132 b6ac b837
00000100: 81da c637 6ded bd37 181a ae37 6bb4 bc37
00000110: dd5f b537 9231 d037 4c02 dd37 55a6 d237
00000120: 1011 ae36 adb9 c736 e4e0 cf36 a45a a936
00000130: 418a c236 b0fe c936 ac6f a836 24d0 c136
00000140: 75b7 c836 e472 9e30 b7c1 0a31 2553 0730
00000150: 3a18 c930 d88b 2131 b356 1d30 9883 c730
00000160: 5b39 1331 9f42 0730 96ea 2636 a51c 4136
00000170: 19ab 4b36 ccff 2c36 b6ca 4836 1c58 5336
00000180: 192e 3836 8278 5536 0ca3 6036 521a 3b37
00000190: c206 5137 a104 5437 6e88 3237 3e83 4737
000001a0: 66d7 4937 c9ca 3337 12fa 4837 74cc 4a37
000001b0: 96bf 9b24 4142 2624 e5fa be24 04a4 7224
000001c0: 1855 2923 d0fd 9325 e40c ba25 917e 3625
000001d0: c334 9225 db7b a32e 1c7c ea2e 3c0c a72e
000001e0: f166 ee2e 60b4 1f2f 2985 f22e b06c 3f30
000001f0: 956d 5330 7c1f 4130 da56 b12e 653b 712f
00000200: 115d bb2e c3e8 cd31 de07 ce31 d237 fe31
00000210: 9aaa 522c f6e1 b02d adeb 642d 655c 8c36
00000220: 4db8 9a36 2754 9c36 90e1 8836 6c0f 9736
00000230: 4762 9836 5357 8936 8672 9736 ca4e 9836
00000240: 8e4d 992d 11d3 742d 64e9 7a2d 0457 9d2d
00000250: dff3 7e2d 18a7 832d c939 9b2d d68d 7d2d
00000260: ac5b 832d 4aed 862b 6856 082d 471c 8e2c
00000270: cda1 8d2b 5d49 0d2d e432 8e2c 206a 882b
00000280: 7de4 062d 52d6 862c 4ad3 042e 6196 fb2d
00000290: 4fb3 ef2d 3c76 152e a4f3 0d2e c6ce 052e
000002a0: 4b4b 1e2e 6405 172e 268e 0d2e 4e18 a62c
000002b0: 5394 892c 2b84 752c 974b c62c fe71 9d2c
000002c0: 9ec7 792c 5c3e ce2c d780 a52c 5e23 832c
000002d0: 0000 0000 0000 0000 6df5 2c23 0000 0000
000002e0: 0000 0000 03ef 2d25 0000 0000 0000 0000
000002f0: 0426 8c22 be0a 0330 b98e f22f a45b dc2f
00000300: fd84 0c30 eac0 0230 3765 ed2f 6552 1230
00000310: 4555 0930 742e fa2f 7398 1023 b4b8 6123
00000320: ab85 b028 687a 8720 eefb bc1f 3943 6c28
00000330: 11e6 c420 fd0e 4320 c12d 5828 b367 0329
00000340: 62ac 3c2b c3b5 ca2c b3d2 2d2a 0d7e 502b
00000350: c4ad d22c f181 7a2a 6dd3 5d2b 2e6b ce2c

exp_avg f4 [3]
-0.0005242036 -1.8954675e-05 -6e-45
00000000: b56a 09ba db00 9fb7 0400 0080

exp_avg_sq f4 [3]
0.00029427392 3.273413e-06 1.6281191e-09
00000000: c748 9a39 cfac 5b36 59c4 df30

exp_avg f4 [8, 3, 3, 3]
1.6581109e-05 2.1406056e-05 4.9252805e-05 -3.7406392e-06 1.07803135e-05 2.5084271e-05 4.4171633e-05 4.0452418e-05
2.4547844e-05 1.0806751e-05 -3.9031743e-06 1.6647349e-06 1.2580397e-05 -2.168825e-06 -4.5232866e-07 7.973384e-06
-2.1582614e-06 1.2084445e-06 0.0 0.0 -6e-45 0.0 0.0 0.0
0.0 0.0 0.0 9.743811e-06 3.988136e-05 7.431466e-05 -8.021702e-06 1.4590137e-06
4.0981842e-05 -1.4440738e-05 -9.820623e-06 4.7739372e-06 6.4238446e-07 3.93298e-06 9.562029e-06 4.7649164e-06
4.7656936e-06 4.5736792e-06 1.8007653e-06 4.930667e-06 -1.0919082e-06 -6e-45 6e-45 6e-45
-6e-45 -6e-45 -6e-45 -6e-45 6e-45 6e-45 4.6863232e-07 -4.430043e-06
2.651206e-06 1.6371181e-05 1.4023051e-05 8.213942e-06 3.262723e-05 7.93004e-06 1.5538511e-05 8.0627515e-06
3.0055182e-06 3.5021374e-06 -2.476665e-06 -6.282599e-06 -2.8063234e-06 -1.4702998e-06 -6.0409598e-06 -1.7209697e-06
-6e-45 -6e-45 6e-45 -6e-45 -6e-45 6e-45 -6e-45 -6e-45
-6e-45 -6.4498413e-06 9.512654e-07 1.2061964e-06 -3.8146478e-05 -5.7298224e-05 -7.473381e-05 1.1841339e-06
7.427933e-07 -3.2040364e-06 6.479302e-08 6.633667e-08 1.6806659e-07 4.3502416e-07 3.9188674e-08 6.6211605e-08
-1.9151587e-08 6.7429253e-09 -4.4787605e-08 0.0 0.0 0.0 0.0 0.0
0.0 0.0 0.0 0.0 0.00010777723 0.00010851873 8.200503e-05 4.8590267e-05
2.6403384e-05 5.554088e-05 0.00013059072 0.00013029076 0.00016794245 -4.752166e-06 -2.4067492e-06 -2.8103318e-06
-2.6793725e-06 1.7366293e-06 9.652425e-07 -5.8814217e-06 2.118439e-06 9.487973e-07 6e-45 6e-45
6e-45 6e-45 6e-45 6e-45 6e-45 6e-45 6e-45 6e-45
6e-45 6e-45 6e-45 6e-45 6e-45 0.0 0.0 6e-45
6e-45 6e-45 6e-45 0.0 0.0 0.0 0.0 0.0
0.0 0.0 0.0 0.0 0.0 0.0 0.0 0.0
0.0 0.0 -3.6223776e-06 4.3494525e-05 9.2179735e-06 -5.9486038e-06 4.9419476e-05 4.4961475e-06
2.068074e-06 2.0032096e-05 -2.8252898e-05 1.1913734e-05 1.6006807e-05 7.9384845e-06 4.5687234e-06 5.4816687e-06
2.2496529e-06 1.8443087e-06 4.7550756e-07 -1.0430435e-08 6e-45 -6e-45 -6e-45 6e-45
-6e-45 0.0 6e-45 0.0 0.0 -0.00011870437 -9.077799e-05 -2.9835703e-05
-7.2781375e-05 -4.6252713e-05 -2.4017758e-05 -5.012132e-05 -4.864259e-05 -8.374057e-05 -2.987549e-06 -1.2888605e-06
1.9041358e-06 -3.7372301e-06 -4.2995994e-06 1.9481915e-06 5.7377787e-07 -6.17063e-06 -2.5497957e-06 6e-45
-6e-45 -6e-45 6e-45 -6e-45 -6e-45 6e-45 -6e-45 -6e-45
00000000: a917 8b37 2891 b337 cc94 4e38 b107 7bb6
00000010: 18dd 3437 106c d237 ee44 3938 74ab 2938
00000020: 18ec cd37 a44e 3537 03f8 82b6 db6f df35
00000030: 6510 5337 218c 11b6 94d7 f2b4 6cc5 0537
00000040: a6d6 10b6 d631 a235 0000 0000 0000 0000
00000050: 0400 0080 0000 0000 0000 0000 0000 0000
00000060: 0000 0000 0000 0000 0000 0000 5979 2337
00000070: 4946 2738 61d9 9b38 f394 06b7 54d3 c335
00000080: ebe3 2b38 7f46 72b7 41c3 24b7 cf2f a036
00000090: 5370 2c35 0af8 8336 9a6c 2037 52e2 9f36
000000a0: ffe8 9f36 9b77 9936 d3b1 f135 1b72 a536
000000b0: ae8d 92b5 0400 0080 0400 0000 0400 0000
000000c0: 0400 0080 0400 0080 0400 0080 0400 0080
000000d0: 0400 0000 0400 0000 5698 fb34 c8a5 94b6
000000e0: 5feb 3136 d854 8937 8c44 6b37 9dce 0937
000000f0: 39d9 0838 430b 0537 b358 8237 4145 0737
00000100: 69b2 4936 4306 6b36 c834 26b6 1dcf d2b6
00000110: 4554 3cb6 1e57 c5b5 73b3 cab6 12fc e6b5
00000120: 0400 0080 0400 0080 0400 0000 0400 0080
00000130: 0400 0080 0400 0000 0400 0080 0400 0080
00000140: 0400 0080 b76b d8b6 765a 7f35 98e4 a135
00000150: 78ff 1fb8 8053 70b8 69ba 9cb8 88ee 9e35
00000160: 5e64 4735 ed04 57b6 5724 8b33 f874 8e33
00000170: cb75 3434 448d e934 6750 2833 3730 8e33
00000180: c982 a4b2 66af e731 7e5c 40b3 0000 0000
00000190: 0000 0000 0000 0000 0000 0000 0000 0000
000001a0: 0000 0000 0000 0000 0000 0000 0000 0000
000001b0: 7606 e238 8d94 e338 1efa ab38 67cd 4b38
000001c0: d67c dd37 91f4 6838 2eef 0839 a99e 0839
000001d0: b519 3039 cc74 9fb6 a383 21b6 2299 3cb6
000001e0: 45cf 33b6 2116 e935 7b8d 8135 0759 c5b6
000001f0: 812a 0e36 dbb0 7e35 0400 0000 0400 0000
00000200: 0400 0000 0400 0000 0400 0000 0400 0000
00000210: 0400 0000 0400 0000 0400 0000 0400 0000
00000220: 0400 0000 0400 0000 0400 0000 0400 0000
00000230: 0400 0000 0000 0000 0000 0000 0400 0000
00000240: 0400 0000 0400 0000 0400 0000 0000 0000
00000250: 0000 0000 0000 0000 0000 0000 0000 0000
00000260: 0000 0000 0000 0000 0000 0000 0000 0000
00000270: 0000 0000 0000 0000 0000 0000 0000 0000
00000280: 0000 0000 0000 0000 f917 73b6 e46d 3638
00000290: e5a6 1a37 1e9a c7b6 c247 4f38 9ddd 9636
000002a0: 3ec9 0a36 990a a837 a300 edb7 19e1 4737
000002b0: 5b46 8637 882f 0537 094d 9936 2def b736
000002c0: bef8 1636 f789 f735 4349 ff34 8a31 33b2
000002d0: 0400 0000 0400 0080 0400 0080 0400 0000
000002e0: 0400 0080 0000 0000 0400 0000 0000 0000
000002f0: 0000 0000 ecf0 f8b8 1060 beb8 af47 fab7
00000300: 34a2 98b8 79ff 41b8 be79 c9b7 5c39 52b8
00000310: 9505 4cb8 e09d afb8 b37d 48b6 e9fc acb5
00000320: 9c91 ff35 20cd 7ab6 4745 90b6 adbd 0236
00000330: b705 1a35 4f0d cfb6 281d 2bb6 0400 0000
00000340: 0400 0080 0400 0080 0400 0000 0400 0080
00000350: 0400 0080 0400 0000 0400 0080 0400 0080

exp_avg_sq f4 [8, 3, 3, 3]
3.300221e-08 6.994773e-09 1.3565323e-06 2.873274e-08 5.3373395e-09 1.464631e-06 4.1975474e-07 3.5043354e-07
2.497643e-06 1.0765046e-08 7.684252e-10 1.5617116e-09 8.6154754e-09 1.0501764e-10 4.5202665e-11 7.575894e-09
9.610531e-11 3.0895416e-12 0.0 0.0 1.0228573e-16 0.0 0.0 0.0
0.0 0.0 0.0 2.3811879e-08 4.9757665e-07 9.72823e-07 2.002236e-08 5.0123805e-07
1.0042759e-06 6.671905e-07 1.6877358e-06 2.571431e-06 1.7151859e-09 5.8473987e-10 9.612783e-10 4.1371397e-08
3.771023e-08 3.4964938e-08 2.5083486e-09 1.3050454e-09 1.042946e-09 1.552053e-14 1.5602291e-14 1.3570407e-14
6.5097366e-15 5.9765107e-15 5.0396758e-15 2.7308453e-16 4.4095953e-16 6.516654e-16 4.36018e-08 8.272703e-08
1.7278046e-07 6.975977e-08 1.5945125e-07 2.6723106e-07 1.0772303e-07 2.177986e-07 3.3493143e-07 5.0060986e-08
4.805491e-08 4.311038e-08 1.888774e-08 1.7537971e-08 1.5094148e-08 2.1411168e-09 1.5486978e-09 8.4219665e-10
7.306867e-11 7.150052e-11 6.1149044e-11 8.187244e-11 7.977422e-11 6.810765e-11 8.1845905e-11 7.92053e-11
6.7463195e-11 9.666091e-10 2.6608532e-08 8.872413e-09 5.3443523e-07 6.0252137e-07 5.633711e-07 1.5101344e-09
2.4987878e-08 3.2926926e-09 2.9821237e-12 1.6398916e-12 5.2168127e-12 8.5221814e-13 2.1920906e-14 5.081555e-13
3.9805297e-15 5.504268e-14 4.9365525e-13 0.0 0.0 0.0 0.0 0.0
0.0 0.0 0.0 0.0 2.8736588e-07 4.212074e-07 5.1619486e-07 4.511674e-07
6.339729e-07 7.370512e-07 5.589191e-07 7.443956e-07 8.3792685e-07 3.2326044e-09 3.2506908e-09 3.2932301e-09
1.0653611e-09 9.66978e-10 8.2111395e-10 5.231325e-10 3.636963e-10 2.55113e-10 1.5556922e-11 1.5052536e-11
1.3323912e-11 1.7812809e-11 1.7312868e-11 1.5428925e-11 1.9007986e-11 1.8576033e-11 1.6506138e-11 1.0457591e-16
4.2988527e-17 9.425588e-18 6.0938367e-16 3.044683e-16 1.7984386e-16 0.0 0.0 8.594351e-19
1.0033226e-14 1.0108113e-14 5.486095e-15 0.0 0.0 0.0 0.0 0.0
0.0 0.0 0.0 0.0 0.0 0.0 0.0 0.0
0.0 0.0 1.4265219e-08 5.1630116e-07 1.2875099e-08 8.0356705e-10 4.8262683e-07 2.0599225e-09
7.661165e-07 2.0156779e-06 7.6509326e-07 2.7336824e-07 2.8264242e-07 2.6007913e-07 1.638782e-08 1.4489569e-08
1.1523514e-08 1.9829154e-09 1.2945242e-09 7.789892e-10 1.23234375e-14 9.474396e-18 1.3096272e-16 9.955278e-15
8.912459e-18 0.0 6.9410903e-15 0.0 0.0 1.2661454e-06 1.4900797e-06 1.8025823e-06
1.540649e-06 1.8120726e-06 2.1646138e-06 1.8527174e-06 2.1553153e-06 2.532049e-06 1.0025763e-07 9.748249e-08
8.699914e-08 6.0202424e-08 5.8518122e-08 5.0064852e-08 3.9248327e-08 3.6716607e-08 2.947617e-08 2.650726e-14
4.9127457e-14 1.7937386e-14 2.881718e-14 5.2506464e-14 1.9002213e-14 2.9804325e-14 6.655092e-14 2.4772946e-14
00000000: 50be 0d33 ad56 f031 1812 b635 f7cf f632
00000010: bc63 b731 5794 c435 a75a e134 3823 bc34
00000020: 2e9d 2736 2cf1 3832 1e39 5330 d8a3 d630
00000030: 4303 1432 adef e62e adcd 462e 2227 0232
00000040: 7b56 d32e 3c68 592c 0000 0000 0000 0000
00000050: d6da eb24 0000 0000 0000 0000 0000 0000
00000060: 0000 0000 0000 0000 0000 0000 e08a cc32
00000070: 3591 0535 f291 8235 a3fd ab32 d18c 0635
00000080: a8ca 8635 fb18 3335 2986 e235 d990 2c36
00000090: bdbb eb30 69bb 2030 f91d 8430 55b0 3133
000000a0: d6f6 2133 5b2c 1633 565f 2c31 345d b330
000000b0: 6657 8f30 e8cb 8b28 6f88 8c28 7576 7428
000000c0: b989 ea27 9553 d727 ce92 b527 2a6c 9d25
000000d0: 2432 fe25 6bd4 3b26 b044 3b33 aaa7 b133
000000e0: 8885 3934 d7ce 9533 a035 2b34 f577 8f34
000000f0: 5d55 e733 06dc 6934 a0d0 b334 a302 5733
00000100: ef64 4e33 5d28 3933 943e a232 68a6 9632
00000110: 62a8 8132 ed22 1331 f6d9 d430 5280 6730
00000120: 01ae a02e 373b 9d2e da77 862e 160a b42e
00000130: e56c af2e 33c5 952e 26fb b32e 9f2c ae2e
00000140: 675a 942e 89d9 8430 c890 e432 496d 1832
00000150: 1c76 0f35 f4bc 2135 913a 1735 218d cf30
00000160: eda4 d632 a945 6231 2ad9 512c 52cb e62b
00000170: df8c b72c cae0 6f2b 2b72 c528 7608 0f2b
00000180: e869 8f27 e4e3 7729 9cf3 0a2b 0000 0000
00000190: 0000 0000 0000 0000 0000 0000 0000 0000
000001a0: 0000 0000 0000 0000 0000 0000 0000 0000
000001b0: 4447 9a34 4e22 e234 a490 0a35 fa37 f234
000001c0: 492e 2a35 c6d9 4535 a108 1635 7ad2 4735
000001d0: e5ed 6035 9424 5e31 c262 5f31 1e4f 6231
000001e0: 106c 9230 84e6 8430 c2b4 6130 2dcc 0f30
000001f0: b4f1 c72f f63f 8c2f 13d7 882d 4c67 842d
00000200: 9165 6a2d e1ae 9c2d 1d49 982d dab6 872d
00000210: 2e32 a72d 8265 a32d 8530 912d b922 f124
00000220: e53f 4624 15df 2d23 94a4 2f26 9783 af25
00000230: 8a58 4f25 0000 0000 0000 0000 15a9 7d21
00000240: 17be 3428 7217 3628 4ca8 c527 0000 0000
00000250: 0000 0000 0000 0000 0000 0000 0000 0000
00000260: 0000 0000 0000 0000 0000 0000 0000 0000
00000270: 0000 0000 0000 0000 0000 0000 0000 0000
00000280: 0000 0000 0000 0000 1913 7532 f297 0a35
00000290: 4931 5d32 01e2 5c30 dd8d 0135 8a8e 0d31
000002a0: 20a7 4d35 1545 0736 cf60 4d35 72c3 9234
000002b0: 14be 9734 01a1 8b34 33c5 8c32 cced 7832
000002c0: f3f8 4532 d143 0831 05eb b130 7e20 5630
000002d0: d3ff 5d28 92c5 2e23 5ffd 1625 9e56 3328
000002e0: e667 2423 0000 0000 4214 fa27 0000 0000
000002f0: 0000 0000 6df0 a935 c0fe c735 42f0 f135
00000300: 4cc8 ce35 5736 f335 c843 1136 e3aa f835
00000310: 09a4 1036 45ec 2936 374d d733 9157 d133
00000320: 48d4 ba33 a248 8133 5b55 7b33 e306 5733
00000330: fe91 2833 56b2 1d33 c932 fd32 95c1 ee28
00000340: 1a40 5d29 cc90 a128 f2c7 0129 d577 6c29
00000350: 1f28 ab28 0c3a 0629 fedb 9529 8622 df28

exp_avg f4 [8]
7.757984e-05 -3.7940993e-06 0.00013891137 -0.00011566908 0.00062733324 6e-45 7.19725e-05 -0.0001839769
00000000: 5cb2 a238 219e 7eb6 bda8 1139 5d93 f2b8
00000010: 9f73 243a 0400 0000 f1ef 9638 ece9 40b9

exp_avg_sq f4 [8]
6.23978e-06 1.624393e-05 1.4062841e-05 2.2933411e-06 7.666005e-05 7.542854e-15 8.341951e-06 0.000389661
00000000: 4d5f d136 9343 8837 71ef 6b37 4de7 1936
00000010: 8dc4 a038 46e1 0728 68f4 0b37 6a4b cc39
