logs/epoch=4_v0.ckpt (torch_old, 153933 bytes, 36 tensors)

exp_avg f4 [12, 6, 7, 7]
00000000: b0ce 7a37 c376 7137 74de 7637 9960 6d37
00000010: ecd1 6837 ed42 7637 3d5a 8837 32b5 6837
00000020: a508 5e37 2444 6237 835a 6037 0fe1 6037
00000030: 6b5a 7237 1d12 8a37 2b10 4f37 a7df 4c37
00000040: a244 5337 1ba2 5537 60e4 5a37 53f9 6c37
00000050: d197 8437 e97f 4637 138b 4937 80c4 5937
00000060: c156 5a37 b1f6 5d37 e694 6c37 40fe 8137
00000070: b48a 3937 cefa 4437 fa41 5637 f5ce 5637
00000080: cf7a 5f37 2132 6637 3dea 7037 d122 3537
00000090: ac88 4c37 a9c8 5c37 2bb4 6437 5b73 6a37
000000a0: 043c 7237 ee22 7837 ea3d 3d37 ba56 5237
000000b0: 67ea 6537 a15f 7737 229f 7f37 5fb6 8037
000000c0: dcbf 7c37 4a3d da36 ccd6 d336 c93a d936
000000d0: 726c d136 d51a d036 0c73 d936 d9d2 e836
000000e0: 2bf3 c736 032d be36 e9dd c336 223d c236
000000f0: 7ae9 c336 9e86 d536 4dac ec36 9334 a936
00000100: 267f a836 c846 b236 77d8 b036 b4f9 b836
00000110: 8e1d c936 bc40 dd36 2b1f 9d36 0a61 a036
00000120: feea b336 27d6 b536 9673 b936 d80d c736
00000130: b8f1 d436 d3ef 8736 33f1 9836 5a19 aa36
00000140: d132 a836 e359 b236 f684 b936 4755 be36
00000150: ab8e 8536 5696 9d36 e065 ad36 2f82 b536
00000160: ffb5 bc36 ae35 c236 1517 c336 a257 8f36
00000170: 941a a536 c32b b636 3a24 c436 8816 ce36
00000180: 2714 d036 7a96 c736 24f0 9337 d28f 8a37
00000190: 3637 8d37 5860 8437 6570 8437 fba0 8d37
000001a0: 6ab5 a037 7224 8a37 fd65 8037 0060 8137
000001b0: 0a91 7d37 6703 8337 48ed 9237 2d4a aa37
000001c0: b66c 8137 ba83 7537 8412 7b37 90b2 7e37
000001d0: 9862 8237 bcd9 9137 1e50 a937 966e 8437
000001e0: f5b7 8337 f12b 8b37 15d8 8a37 90ae 9037
000001f0: 7dde 9c37 dcbe ad37 5ab4 8637 9241 8b37
00000200: e22a 9537 157e 9537 7cf6 9e37 6c96 a337
00000210: 2869 ac37 3709 8937 cf3e 9737 4413 a037
00000220: af45 a437 6781 ab37 82ce af37 68b8 b437
00000230: 065b 9137 82ce 9e37 972a aa37 1d59 b537
00000240: b9e3 ba37 14ac bb37 4ffc b637 efd5 9437
00000250: 1b62 8a37 e375 8e37 eed8 8537 23eb 8737
00000260: 7e33 9337 45e9 aa37 0571 8a37 b8af 7d37
00000270: 9b6d 8037 53d5 7c37 d3a2 8537 b4a6 9737
00000280: 3f3d b437 2bd9 8237 1501 7537 2d3c 7b37
00000290: 7bb0 8037 1f8a 8537 1743 9637 db89 b137
000002a0: 8772 8637 9f2a 8537 36e2 8d37 9f08 8e37
000002b0: ed1f 9437 7671 a137 50c1 b537 4c44 8a37
000002c0: 2742 8e37 e08e 9837 0753 9837 3f48 a337
000002d0: 4c56 a837 f129 b337 25f7 8f37 dfb4 9d37
000002e0: 6704 a737 4eb9 aa37 9aba b237 5927 b637
000002f0: 24f1 bc37 54c6 9537 eb81 a437 b89d b037
00000300: f3d7 bc37 a296 c237 6c65 c237 f8b0 bd37
00000310: 09e8 9b37 cd67 8f37 aa20 9337 1aeb 8a37
00000320: 4756 8d37 ca2c 9837 7838 af37 3c66 9037
00000330: 8402 8437 7e56 8537 ca59 8337 592f 8a37
00000340: 4fe3 9c37 a71e b937 5eef 8737 98ac 7e37
00000350: 8f84 8237 4cb9 8537 98dc 8937 ba6c 9b37
00000360: 9ff7 b637 2e66 8d37 4861 8c37 a029 9437
00000370: cd4f 9437 fc1d 9b37 384d a837 11cc ba37
00000380: 1493 9037 ff10 9537 422a a037 1ecb 9f37
00000390: 3e0a ab37 75ab b137 7319 ba37 d302 9737
000003a0: da78 a537 ffb2 ae37 8ee0 b337 630d bb37
000003b0: 369e be37 943b c437 533c 9d37 7125 ac37
000003c0: 9b70 b937 d069 c537 91cf cb37 f124 cc37
000003d0: 6863 c537 775c 9937 1799 8d37 5382 9137
000003e0: c5ca 8a37 7dc4 8e37 a85c 9937 4484 b237
000003f0: 5a08 8d37 1dc3 8137 a508 8337 38e8 8137
1.4949284e-05 1.4392371e-05 1.47145365e-05 1.4148792e-05 1.3877154e-05 1.4678325e-05 1.6254484e-05 1.3870465e-05
1.3234244e-05 1.3486515e-05 1.3372514e-05 1.3403841e-05 1.4445376e-05 1.6459317e-05 1.2341926e-05 1.2211421e-05
1.259256e-05 1.27335325e-05 1.3046985e-05 1.41247465e-05 1.5806321e-05 1.1831501e-05 1.2012914e-05 1.2979959e-05
1.30140115e-05 1.3230064e-05 1.4101364e-05 1.5496393e-05 1.1059154e-05 1.1740905e-05 1.2770755e-05 1.280358e-05
1.3320429e-05 1.372074e-05 1.4359653e-05 1.0796547e-05 1.2191169e-05 1.3159742e-05 1.3631808e-05 1.3974345e-05
1.44382975e-05 1.4790085e-05 1.1279693e-05 1.2537168e-05 1.370404e-05 1.4744613e-05 1.5236235e-05 1.5343712e-05
1.5065041e-05 6.5040413e-06 6.3132957e-06 6.4739475e-06 6.24131e-06 6.2020067e-06 6.480497e-06 6.9386847e-06
5.9589706e-06 5.6676813e-06 5.8372866e-06 5.7887673e-06 5.838633e-06 6.363566e-06 7.0534065e-06 5.042713e-06
5.021592e-06 5.3130534e-06 5.2704086e-06 5.5126966e-06 5.9937074e-06 6.5938493e-06 4.682593e-06 4.7796684e-06
5.3619724e-06 5.419151e-06 5.5268856e-06 5.932274e-06 6.346232e-06 4.0512327e-06 4.5580323e-06 5.069346e-06
5.012706e-06 5.3152776e-06 5.5289083e-06 5.672369e-06 3.9803176e-06 4.696466e-06 5.1676616e-06 5.4093757e-06
5.6240237e-06 5.7878997e-06 5.81414e-06 4.271934e-06 4.9204773e-06 5.429117e-06 5.8454725e-06 6.1419014e-06
6.201229e-06 5.94818e-06 1.763559e-05 1.6517854e-05 1.683422e-05 1.578049e-05 1.5787964e-05 1.6883472e-05
1.9157964e-05 1.6467853e-05 1.5306281e-05 1.5422702e-05 1.5113745e-05 1.5618001e-05 1.7515049e-05 2.030012e-05
1.542862e-05 1.4633808e-05 1.4965077e-05 1.5181155e-05 1.5543119e-05 1.7386737e-05 2.0183677e-05 1.5787122e-05
1.5702079e-05 1.6590553e-05 1.6551503e-05 1.7247425e-05 1.8700253e-05 2.0712083e-05 1.6058028e-05 1.6600625e-05
1.7782153e-05 1.7820896e-05 1.8949846e-05 1.950116e-05 2.0552965e-05 1.6335964e-05 1.802985e-05 1.9082458e-05
1.9582772e-05 2.0445046e-05 2.0957788e-05 2.1543543e-05 1.7327733e-05 1.893123e-05 2.0285412e-05 2.1618378e-05
2.227897e-05 2.2372267e-05 2.1813581e-05 1.7742595e-05 1.6496566e-05 1.6982614e-05 1.5955851e-05 1.6202748e-05
1.7547743e-05 2.0374204e-05 1.650351e-05 1.5120888e-05 1.5309828e-05 1.5070039e-05 1.5930656e-05 1.807823e-05
2.1486192e-05 1.5598334e-05 1.460339e-05 1.4974777e-05 1.534097e-05 1.5919153e-05 1.7912635e-05 2.1164238e-05
1.6027376e-05 1.5874683e-05 1.6913848e-05 1.6931734e-05 1.7657841e-05 1.924553e-05 2.16669e-05 1.6482685e-05
1.6958524e-05 1.8186343e-05 1.8158475e-05 1.9464756e-05 2.0067346e-05 2.1357993e-05 1.7162014e-05 1.8800083e-05
1.9910001e-05 2.0351868e-05 2.1306147e-05 2.1714413e-05 2.2523636e-05 1.7854538e-05 1.9610821e-05 2.1054278e-05
2.2511906e-05 2.3196746e-05 2.317383e-05 2.2612963e-05 1.858549e-05 1.7095264e-05 1.7538976e-05 1.656036e-05
1.6848686e-05 1.8140669e-05 2.0887921e-05 1.7213744e-05 1.5736798e-05 1.5895112e-05 1.5658228e-05 1.647293e-05
1.8702498e-05 2.2067992e-05 1.6204718e-05 1.5179765e-05 1.5558935e-05 1.5941121e-05 1.6434395e-05 1.852807e-05
2.1811398e-05 1.6856091e-05 1.67346e-05 1.7662358e-05 1.7680135e-05 1.8491402e-05 2.0063118e-05 2.2267954e-05
1.7234626e-05 1.7770099e-05 1.9093164e-05 1.904886e-05 2.0389558e-05 2.1179885e-05 2.2184779e-05 1.8001918e-05
1.9725809e-05 2.0825768e-05 2.144303e-05 2.229837e-05 2.2723438e-05 2.3392764e-05 1.874395e-05 2.0521433e-05
2.2106155e-05 2.3533503e-05 2.4296141e-05 2.4335897e-05 2.353052e-05 1.8282079e-05 1.6879798e-05 1.7346034e-05
1.6545304e-05 1.7019216e-05 1.8282168e-05 2.1280845e-05 1.6812399e-05 1.5468855e-05 1.5620442e-05 1.5486134e-05

exp_avg_sq f4 [12, 6, 7, 7]
00000000: d137 5c34 9c20 5d34 1e10 5d34 6b19 5c34
00000010: 70e3 5934 a886 5834 c42b 5134 d574 5b34
00000020: 5bae 5d34 c51c 5e34 0a9b 5b34 eb90 5834
00000030: 213f 5634 38dd 4c34 290e 5734 5e61 5934
00000040: 260e 5934 4e7b 5734 dc75 5534 cd6f 5434
00000050: 0dbb 4b34 8a8d 5334 88d8 5534 a51e 5634
00000060: 4d36 5534 77ed 5334 09c2 5234 aae0 4934
00000070: 9d34 4e34 75ae 4e34 9840 4e34 c3f1 4e34
00000080: 93a5 4e34 88b8 4e34 1fcd 4734 ace6 4934
00000090: 70b1 4734 7376 4734 29c2 4734 4b87 4734
000000a0: 7186 4834 6072 4234 925d 3834 d983 3734
000000b0: 4793 3734 01a3 3534 ecd3 3434 1c12 3534
000000c0: b0d7 2f34 737f 1133 f748 1233 ab3f 1233
000000d0: b88d 1133 1be9 0f33 8c99 0e33 d96b 0933
000000e0: 1418 1133 b6a9 1233 d9d7 1233 2b27 1133
000000f0: e9f2 0e33 bceb 0c33 4e78 0633 e702 0e33
00000100: 12ac 0f33 9b95 0f33 7f5a 0e33 9d04 0d33
00000110: 180d 0c33 e5b5 0533 fb66 0b33 1a2a 0d33
00000120: de4d 0d33 cdb2 0c33 37df 0b33 69b7 0a33
00000130: 909a 0433 83b5 0733 19d6 0733 3597 0733
00000140: c0d9 0733 8fb3 0733 7fa6 0733 e5f9 0233
00000150: a077 0433 89dc 0233 e9aa 0233 70dc 0233
00000160: 19a8 0233 5e24 0333 4cef fd32 84c1 f132
00000170: df4e f032 3a6f f032 b3e7 ed32 cff3 eb32
00000180: 7515 ec32 2b51 e532 3a70 c334 0b56 c434
00000190: a6f1 c334 ce1c c334 c5ad c034 8d35 bf34
000001a0: e6f8 b834 38bd c234 3180 c434 65a3 c434
000001b0: 3417 c234 e5fd be34 b6e5 bc34 87e6 b434
000001c0: 7074 be34 883f c034 68d7 bf34 b052 be34
000001d0: 4931 bc34 ddfa ba34 b824 b334 5175 bb34
000001e0: 08d4 bc34 55f4 bc34 ff21 bc34 46a7 ba34
000001f0: dbfe b834 ba72 b134 d2b7 b534 f21c b634
00000200: 1af0 b534 97c7 b634 22f3 b534 61c9 b534
00000210: 4293 af34 3d17 b134 c953 af34 f196 af34
00000220: 24d4 af34 eb96 af34 9147 b034 6bf5 aa34
00000230: 0df1 a134 4b3f a134 c855 a134 0142 9f34
00000240: 30ce 9e34 f7c6 9e34 2c89 9a34 cfae 0335
00000250: cf5b 0435 9326 0435 8682 0335 c5f1 0135
00000260: b206 0135 dda8 f934 c318 0335 0520 0435
00000270: 263c 0435 9696 0235 218f 0035 ebc2 fe34
00000280: ce25 f434 9a47 0035 f14f 0135 2320 0135
00000290: f42d 0035 54b6 fd34 7e94 fc34 9c3b f234
000002a0: 7ea0 fc34 c9fc fd34 fd2a fe34 6e5a fd34
000002b0: 4f56 fb34 b484 f934 c8c8 ef34 8cf5 f434
000002c0: fc5b f534 471d f534 e02f f634 3f33 f534
000002d0: 0970 f534 a68d ed34 9dca ef34 776b ed34
000002e0: cae6 ed34 5ff1 ed34 8b66 ed34 7a96 ee34
000002f0: 6f86 e734 e764 db34 6503 db34 5dcb da34
00000300: 7f0f d834 a39f d734 1fbf d734 d600 d234
00000310: bae1 0035 748e 0135 f25b 0135 aead 0035
00000320: ff41 fe34 af25 fc34 68b0 f334 774a 0035
00000330: d25f 0135 5b7d 0135 729e ff34 f389 fb34
00000340: 2803 f934 f446 ee34 35d0 fa34 7a1f fd34
00000350: 28a0 fc34 e8a8 fa34 6032 f834 75a6 f634
00000360: 1258 ec34 a1d2 f634 ba6e f834 198d f834
00000370: d86a f734 9eb8 f534 16bd f334 faeb e934
00000380: 2426 ef34 e37c ef34 ec21 ef34 9a3e f034
00000390: 9b59 ef34 be6d ef34 f553 e734 4015 ea34
000003a0: a189 e734 47fb e734 55f4 e734 4942 e734
000003b0: 1f6f e834 e151 e134 13f3 d534 d072 d534
000003c0: 6a4a d534 3c83 d234 bb0b d234 5ede d134
000003d0: 0651 cc34 80ee 0035 c492 0135 a661 0135
000003e0: f098 0035 1209 fe34 ba15 fc34 bc85 f334
000003f0: 3af5 ff34 33f1 0035 9502 0135 56cf fe34
2.0509403e-07 2.0594092e-07 2.0588092e-07 2.0498344e-07 2.0292441e-07 2.0165555e-07 1.9480564e-07 2.0438468e-07
2.0645659e-07 2.0685827e-07 2.0452367e-07 2.0169288e-07 1.9953269e-07 1.907946e-07 2.0028587e-07 2.0245122e-07
2.0214847e-07 2.0068293e-07 1.9880048e-07 1.9784711e-07 1.8973897e-07 1.9702398e-07 1.9915944e-07 1.9941452e-07
1.9856925e-07 1.9737296e-07 1.9628364e-07 1.8801316e-07 1.9204386e-07 1.9248712e-07 1.9208744e-07 1.9273197e-07
1.924548e-07 1.9252377e-07 1.8607942e-07 1.8803502e-07 1.859787e-07 1.8576411e-07 1.8603954e-07 1.8582539e-07
1.8675361e-07 1.8109267e-07 1.7170376e-07 1.7091169e-07 1.7096782e-07 1.6916239e-07 1.6840903e-07 1.6863527e-07
1.6376612e-07 3.3876358e-08 3.4059635e-08 3.405118e-08 3.3889336e-08 3.350679e-08 3.32016e-08 3.1995885e-08
3.3782342e-08 3.4147625e-08 3.4189586e-08 3.3796066e-08 3.3282877e-08 3.281069e-08 3.1308723e-08 3.306459e-08
3.345128e-08 3.3430847e-08 3.3144257e-08 3.2833317e-08 3.26082e-08 3.1131908e-08 3.245712e-08 3.2867412e-08
3.289994e-08 3.275891e-08 3.2566472e-08 3.229744e-08 3.087422e-08 3.159722e-08 3.1626858e-08 3.156966e-08
3.163018e-08 3.1595444e-08 3.1583564e-08 3.049526e-08 3.0842443e-08 3.046856e-08 3.0423426e-08 3.046847e-08
3.0420868e-08 3.053389e-08 2.9561896e-08 2.8144093e-08 2.7975544e-08 2.7990257e-08 2.7695796e-08 2.7468472e-08
2.7483773e-08 2.669602e-08 3.6403236e-07 3.657045e-07 3.6497403e-07 3.6342539e-07 3.588922e-07 3.5615486e-07
3.4453768e-07 3.627299e-07 3.6601116e-07 3.662673e-07 3.6152198e-07 3.557499e-07 3.5184866e-07 3.3695343e-07
3.5474977e-07 3.5809012e-07 3.573325e-07 3.545042e-07 3.5053588e-07 3.4827727e-07 3.3368065e-07 3.4916823e-07
3.5172002e-07 3.5195504e-07 3.5042464e-07 3.4766907e-07 3.4458103e-07 3.3052294e-07 3.3847624e-07 3.3921202e-07
3.3888574e-07 3.4045362e-07 3.389078e-07 3.38604e-07 3.2703434e-07 3.2985727e-07 3.2657252e-07 3.2706114e-07
3.2750643e-07 3.2706097e-07 3.2834626e-07 3.1843533e-07 3.0163974e-07 3.003464e-07 3.0051e-07 2.9664082e-07
2.9579815e-07 2.957456e-07 2.878454e-07 4.9055683e-07 4.930743e-07 4.9229965e-07 4.899124e-07 4.8408066e-07
4.806599e-07 4.6502728e-07 4.8837336e-07 4.9220426e-07 4.926136e-07 4.8647905e-07 4.7891996e-07 4.7453008e-07
4.5476048e-07 4.778791e-07 4.8172575e-07 4.810301e-07 4.7750586e-07 4.7257583e-07 4.70467e-07 4.5119384e-07
4.705543e-07 4.7308848e-07 4.7342465e-07 4.7190719e-07 4.681519e-07 4.6476418e-07 4.4663307e-07 4.56272e-07
4.5701734e-07 4.5656108e-07 4.5855904e-07 4.5672093e-07 4.5716322e-07 4.4247753e-07 4.466464e-07 4.422288e-07
4.431261e-07 4.432031e-07 4.42193e-07 4.444044e-07 4.3124916e-07 4.0865345e-07 4.07944e-07 4.075363e-07
4.024441e-07 4.0163022e-07 4.018593e-07 3.9116156e-07 4.801219e-07 4.826354e-07 4.8190043e-07 4.7936453e-07
4.7359205e-07 4.6966076e-07 4.539063e-07 4.7792076e-07 4.819568e-07 4.823866e-07 4.7612735e-07 4.6852765e-07
4.638216e-07 4.438258e-07 4.671762e-07 4.7147824e-07 4.7055187e-07 4.6689024e-07 4.6230252e-07 4.5942184e-07
4.4022505e-07 4.5974323e-07 4.6274164e-07 4.6296262e-07 4.6085074e-07 4.5769133e-07 4.5399855e-07 4.3571328e-07
4.454497e-07 4.4608086e-07 4.45419e-07 4.4749032e-07 4.4582416e-07 4.4597067e-07 4.308819e-07 4.3601358e-07
4.312724e-07 4.320993e-07 4.3204878e-07 4.3075332e-07 4.329422e-07 4.196909e-07 3.9851201e-07 3.975788e-07
3.9728485e-07 3.9211034e-07 3.9124083e-07 3.9091077e-07 3.8056913e-07 4.803078e-07 4.8269817e-07 4.819834e-07
4.790627e-07 4.7317786e-07 4.6954466e-07 4.5359582e-07 4.7675877e-07 4.8034707e-07 4.806e-07 4.7462044e-07

exp_avg f4 [12]
00000000: 3aec da37 b766 4637 e695 f0b7 0400 0000
00000010: 36b1 a7b8 08af 1f36 a1be 1037 511d 3835
00000020: 807a 6637 aa7c 32b8 d04e 40b8 43c6 b237
2.6097627e-05 1.1825635e-05 -2.8680031e-05 6e-45 -7.996189e-05 2.3794728e-06 8.627453e-06 6.8588e-07
1.373759e-05 -4.255461e-05 -4.5849767e-05 2.1311576e-05

exp_avg_sq f4 [12]
00000000: 9449 b035 b337 5431 735b f134 c11a 1e2c
00000010: 928c 4636 a890 ad32 306c bc31 5abf f131
00000020: 9474 b733 f2ec 5d35 950b bd35 8759 9833
1.3134436e-06 3.0881722e-09 4.4956286e-07 2.2468002e-12 2.9586122e-06 2.0205633e-08 5.4838196e-09 7.0357773e-09
8.542807e-08 8.2673716e-07 1.4084968e-06 7.0943365e-08

exp_avg f4 [8, 12, 5, 5]
00000000: 0000 0000 0000 0000 0000 0000 0000 0000
00000010: 0000 0000 0000 0000 0000 0000 0000 0000
00000020: 0000 0000 0000 0000 0400 0000 0400 0000
00000030: 0400 0000 0400 0080 0400 0000 0000 0000
00000040: 0000 0000 0400 0080 0400 0080 0400 0000
00000050: 0000 0000 0400 0000 0400 0000 0400 0000
00000060: 0400 0000 0400 0000 0400 0000 0400 0000
00000070: 0400 0000 0400 0000 0400 0000 0400 0000
00000080: 0400 0000 0400 0000 0400 0000 0400 0000
00000090: 0400 0000 0400 0000 0400 0000 0400 0000
000000a0: 0400 0000 0400 0000 0400 0000 0400 0000
000000b0: 0400 0080 0400 0000 0400 0000 0400 0000
000000c0: 0400 0000 0400 0000 0400 0000 0400 0000
000000d0: 0400 0000 0400 0000 0400 0000 0400 0000
000000e0: 0400 0000 0400 0000 0400 0000 0400 0000
000000f0: 0400 0000 0400 0000 0400 0000 0400 0000
00000100: 0400 0000 0400 0000 0400 0000 0400 0000
00000110: 0400 0000 0400 0000 0400 0000 0400 0000
00000120: 0400 0000 0400 0000 0400 0000 0400 0000
00000130: 0400 0000 0400 0000 0400 0000 0400 0000
00000140: 0400 0000 0400 0000 0400 0000 0400 0000
00000150: 0400 0000 0400 0000 0400 0000 0400 0000
00000160: 0400 0000 0400 0000 0400 0000 0400 0000
00000170: 0400 0000 0400 0000 0400 0000 0400 0000
00000180: 0400 0000 0400 0000 0400 0000 0400 0000
00000190: 0400 0000 0400 0000 0400 0000 0400 0000
000001a0: 0400 0000 0400 0000 0400 0000 0400 0000
000001b0: 0400 0000 0400 0000 0400 0000 0400 0000
000001c0: 0400 0000 0400 0000 0400 0000 0400 0000
000001d0: 0400 0000 0400 0000 0400 0000 0400 0000
000001e0: 0400 0000 0400 0000 0400 0000 0400 0000
000001f0: 0400 0000 0400 0000 0400 0000 0400 0080
00000200: 0400 0080 0400 0080 0400 0000 0400 0000
00000210: 0400 0080 0400 0080 0400 0080 0400 0000
00000220: 0400 0080 0400 0080 0400 0080 0400 0080
00000230: 0400 0000 0400 0080 0400 0080 0400 0080
00000240: 0400 0000 0400 0000 0400 0080 0400 0080
00000250: 0400 0080 0400 0000 0400 0000 0400 0000
00000260: 0400 0080 0400 0000 0400 0000 0400 0000
00000270: 0400 0080 0400 0080 0400 0080 0400 0000
00000280: 0400 0000 0400 0000 0400 0080 0400 0080
00000290: 0400 0000 0400 0000 0400 0000 0400 0080
000002a0: 0400 0080 0000 0000 0400 0000 0000 0000
000002b0: 0400 0080 0400 0080 0000 0000 0400 0000
000002c0: 0400 0000 0400 0000 0400 0000 0400 0000
000002d0: 0400 0000 0400 0000 0400 0000 0400 0000
000002e0: 0400 0000 0400 0000 0400 0000 0400 0000
000002f0: 0400 0000 0400 0000 0400 0000 0400 0000
00000300: 0400 0000 0400 0000 0400 0000 0400 0000
00000310: 0400 0000 0400 0000 0400 0000 0400 0000
00000320: 0400 0000 0400 0000 0400 0000 0400 0000
00000330: 0400 0000 0400 0000 0400 0000 0400 0000
00000340: 0400 0000 0400 0000 0400 0000 0400 0000
00000350: 0400 0000 0400 0000 0400 0000 0400 0000
00000360: 0400 0000 0400 0000 0400 0000 0400 0000
00000370: 0400 0000 0400 0000 0400 0000 0400 0000
00000380: 0400 0000 0400 0000 0400 0000 0400 0000
00000390: 0400 0000 0400 0000 0400 0000 0400 0000
000003a0: 0400 0000 0400 0000 0400 0000 0400 0000
000003b0: 0400 0000 0400 0000 0400 0000 0400 0000
000003c0: 0400 0000 0400 0000 0400 0000 0400 0000
000003d0: 0400 0000 0400 0000 0400 0000 0400 0000
000003e0: 0400 0000 0400 0000 0400 0000 0400 0000
000003f0: 0400 0000 0400 0000 0400 0000 0400 0000
0.0 0.0 0.0 0.0 0.0 0.0 0.0 0.0
0.0 0.0 6e-45 6e-45 6e-45 -6e-45 6e-45 0.0
0.0 -6e-45 -6e-45 6e-45 0.0 6e-45 6e-45 6e-45
6e-45 6e-45 6e-45 6e-45 6e-45 6e-45 6e-45 6e-45
6e-45 6e-45 6e-45 6e-45 6e-45 6e-45 6e-45 6e-45
6e-45 6e-45 6e-45 6e-45 -6e-45 6e-45 6e-45 6e-45
6e-45 6e-45 6e-45 6e-45 6e-45 6e-45 6e-45 6e-45
6e-45 6e-45 6e-45 6e-45 6e-45 6e-45 6e-45 6e-45
6e-45 6e-45 6e-45 6e-45 6e-45 6e-45 6e-45 6e-45
6e-45 6e-45 6e-45 6e-45 6e-45 6e-45 6e-45 6e-45
6e-45 6e-45 6e-45 6e-45 6e-45 6e-45 6e-45 6e-45
6e-45 6e-45 6e-45 6e-45 6e-45 6e-45 6e-45 6e-45
6e-45 6e-45 6e-45 6e-45 6e-45 6e-45 6e-45 6e-45
6e-45 6e-45 6e-45 6e-45 6e-45 6e-45 6e-45 6e-45
6e-45 6e-45 6e-45 6e-45 6e-45 6e-45 6e-45 6e-45
6e-45 6e-45 6e-45 6e-45 6e-45 6e-45 6e-45 -6e-45
-6e-45 -6e-45 6e-45 6e-45 -6e-45 -6e-45 -6e-45 6e-45
-6e-45 -6e-45 -6e-45 -6e-45 6e-45 -6e-45 -6e-45 -6e-45
6e-45 6e-45 -6e-45 -6e-45 -6e-45 6e-45 6e-45 6e-45
-6e-45 6e-45 6e-45 6e-45 -6e-45 -6e-45 -6e-45 6e-45
6e-45 6e-45 -6e-45 -6e-45 6e-45 6e-45 6e-45 -6e-45
-6e-45 0.0 6e-45 0.0 -6e-45 -6e-45 0.0 6e-45
6e-45 6e-45 6e-45 6e-45 6e-45 6e-45 6e-45 6e-45
6e-45 6e-45 6e-45 6e-45 6e-45 6e-45 6e-45 6e-45
6e-45 6e-45 6e-45 6e-45 6e-45 6e-45 6e-45 6e-45
6e-45 6e-45 6e-45 6e-45 6e-45 6e-45 6e-45 6e-45
6e-45 6e-45 6e-45 6e-45 6e-45 6e-45 6e-45 6e-45
6e-45 6e-45 6e-45 6e-45 6e-45 6e-45 6e-45 6e-45
6e-45 6e-45 6e-45 6e-45 6e-45 6e-45 6e-45 6e-45
6e-45 6e-45 6e-45 6e-45 6e-45 6e-45 6e-45 6e-45
6e-45 6e-45 6e-45 6e-45 6e-45 6e-45 6e-45 6e-45
6e-45 6e-45 6e-45 6e-45 6e-45 6e-45 6e-45 6e-45

exp_avg_sq f4 [8, 12, 5, 5]
00000000: 0000 0000 0000 0000 0000 0000 0000 0000
00000010: 0000 0000 0000 0000 0000 0000 0000 0000
00000020: 0000 0000 0000 0000 7dec 251c b908 921b
00000030: fa58 aa1d a059 bf1e 5776 6621 0000 0000
00000040: 0000 0000 1eb4 2c1c b981 bc1e 7fb1 141f
00000050: 0000 0000 728a b51c 7e9d 8a1e 0068 fd1f
00000060: 24ba 6a20 dd2d b625 a509 9725 7a4e 5c25
00000070: d94b 3225 0bec 3b25 20fd 4d24 deb8 6124
00000080: 1f39 1e24 598e 0e24 4545 1d24 82a5 9d23
00000090: a708 de23 b084 6b23 1b5f 9122 3382 6922
000000a0: a070 2b23 dcfb 9223 832c 4423 6031 2e22
000000b0: 9fae 0f22 a827 b023 57b7 e423 2bd8 b323
000000c0: 916c 1c23 6697 a822 0dc6 e929 ff89 e729
000000d0: 7602 ed29 6ff2 fb29 2422 1a2a 5974 002a
000000e0: bfd2 fb29 2726 f829 8349 042a 2fa2 232a
000000f0: 6a7f f029 ea32 e429 a52f e729 2e02 012a
00000100: 28ba 1f2a 32d6 cd29 4dbe c929 00b8 d029
00000110: 0722 e829 d073 112a 93d7 ee29 4f9f e629
00000120: 41b5 e729 8f91 fc29 636c 162a b9c9 112a
00000130: 4257 142a 6c47 162a 123d 1c2a c7a5 222a
00000140: 9e4c 162a c292 192a 68b1 222a d831 2d2a
00000150: ee26 332a 0a80 0e2a 5488 152a 59c7 192a
00000160: 852e 272a c761 2c2a cbd3 0f2a a611 112a
00000170: 1bdd 172a 9f10 232a 1e46 292a bcd0 122a
00000180: 1302 182a 9c6c 1a2a d2ea 232a 8f12 2a2a
00000190: 2292 712b 6abb 702b 2a88 792b 248c 812b
000001a0: 111a 862b e8aa 662b e20f 6b2b 729f 6e2b
000001b0: 316f 722b 685e 762b ea1e 5e2b dda4 5c2b
000001c0: 4035 5b2b 7ffe 5e2b 9d57 632b 58db 562b
000001d0: 6ea3 542b 73cc 572b 9c36 592b 5657 5f2b
000001e0: 198e 352b 9a12 372b 6036 372b f0de 392b
000001f0: 2f20 3f2b 359f 7a1d fed0 ae17 3b3d 821f
00000200: 5424 761e a305 cf18 e437 8d1d 6eff 1a18
00000210: c88c 851f 721b 741e 7ae5 bb19 ff63 e11d
00000220: 1731 031e 7502 4120 80a6 9f1e 18e7 141b
00000230: 4c9a f01d 0623 cd1c a453 bf1f eb2a 211e
00000240: 8599 c71b f3b9 491e a8f7 e81b 1f6c 5d1f
00000250: 76be ce1d 3824 841b 2e80 3421 b97f 9520
00000260: 3b24 a720 bcf9 8b1f c665 2d20 0279 911c
00000270: 3d6e 661b a764 311f 53d3 9a1d a155 e71c
00000280: 7092 5b1e d58d df1d 3272 0020 6ad7 971d
00000290: 7df5 f71d 966a c61a 12a4 c21a 5526 d31e
000002a0: 6617 281d 0000 0000 7e75 d91a 0000 0000
000002b0: 61ee d11e e19c 381d 0000 0000 6c38 5425
000002c0: 703e 4a25 3ad9 3a25 e7bc 2125 fe26 e525
000002d0: f799 2b27 ec73 2627 7b92 1f27 1dc7 2027
000002e0: 18b2 5027 08bb 7927 4518 7027 40da 7427
000002f0: d6e5 7827 9079 9f27 118e 9626 2c77 8d26
00000300: 7279 8126 9a86 8626 4dc6 0927 1faa d526
00000310: 2cf8 be26 e675 b626 8700 bb26 d994 2727
00000320: 704e 6427 31d9 5727 2546 5227 3bc2 5627
00000330: 540a 5227 c879 b627 eba3 ae27 628b ac27
00000340: b110 af27 2f25 b027 6a6b 8827 2631 8327
00000350: b050 8427 e683 8327 603e 8127 464d c525
00000360: aaab ab25 784e 9a25 0d9f 7925 8438 8025
00000370: d60b 9525 736a 6d25 00b9 4d25 e2c2 3125
00000380: b3bb 2b25 d0b6 9928 5416 9928 acb7 a928
00000390: 8472 c028 1748 b728 5449 8728 8d8c 8f28
000003a0: 0099 aa28 d391 c728 f0e3 b528 110b 1b28
000003b0: aa2c 2c28 2606 3f28 9751 6a28 996f 5428
000003c0: d020 2328 a277 1928 04bb 4a28 b892 5c28
000003d0: 9ef8 3c28 dbda c727 4423 d727 b746 fa27
000003e0: 9911 1028 1232 0328 da0e 322a 5c22 2e2a
000003f0: 88ef 2d2a 1e38 352a f542 3e2a c5da 102a
0.0 0.0 0.0 0.0 0.0 0.0 0.0 0.0
0.0 0.0 5.4899574e-22 2.415931e-22 4.5090625e-21 2.025998e-20 7.8083653e-19 0.0
0.0 5.714282e-22 1.9958926e-20 3.148704e-20 0.0 1.2013363e-21 1.4676456e-20 1.0732172e-19
1.988216e-19 3.1603045e-16 2.620086e-16 1.9108547e-16 1.5464737e-16 1.6299639e-16 4.4666694e-17 4.8945686e-17
3.4309172e-17 3.0911915e-17 3.4102622e-17 1.709207e-17 2.4072953e-17 1.2767473e-17 3.9403026e-18 3.1646315e-18
9.293778e-18 1.5936018e-17 1.0634607e-17 2.3607536e-18 1.9472557e-18 1.9098753e-17 2.4797457e-17 1.949877e-17
8.479767e-18 4.569679e-18 1.0381635e-13 1.0282399e-13 1.0525341e-13 1.1188695e-13 1.3689793e-13 1.140905e-13
1.1183198e-13 1.1020031e-13 1.174946e-13 1.4533577e-13 1.0680244e-13 1.0134066e-13 1.0266726e-13 1.1458258e-13
1.4186623e-13 9.140986e-14 8.959205e-14 9.2689745e-14 1.03087725e-13 1.2918768e-13 1.06067194e-13 1.02416875e-13
1.0289903e-13 1.12162985e-13 1.336028e-13 1.2948574e-13 1.3175314e-13 1.3347456e-13 1.3876771e-13 1.4446006e-13
1.3349258e-13 1.3640047e-13 1.445004e-13 1.538278e-13 1.59119e-13 1.2656556e-13 1.3281157e-13 1.3658292e-13
1.4848719e-13 1.5310592e-13 1.2774432e-13 1.288471e-13 1.3488206e-13 1.4483075e-13 1.5034542e-13 1.3039824e-13
1.3501032e-13 1.3715629e-13 1.4558778e-13 1.5105472e-13 8.58232e-13 8.552522e-13 8.8651536e-13 9.204898e-13
9.528508e-13 8.1949595e-13 8.3510813e-13 8.477586e-13 8.612998e-13 8.752777e-13 7.8913146e-13 7.8388495e-13
7.787833e-13 7.922343e-13 8.076819e-13 7.6332473e-13 7.5544334e-13 7.6667074e-13 7.716967e-13 7.934672e-13
6.450132e-13 6.5040475e-13 6.509012e-13 6.603459e-13 6.7901495e-13 3.3169533e-21 1.12972435e-24 5.515844e-20
1.3030644e-20 5.3513938e-24 3.738018e-21 2.0032993e-24 5.6560594e-20 1.2922928e-20 1.9428032e-23 5.9660398e-21
6.945234e-21 1.6348549e-19 1.6903643e-20 1.2316943e-22 6.368701e-21 1.3574815e-21 8.103002e-20 8.532144e-21
3.3020998e-22 1.0679305e-20 3.8541225e-22 4.6888006e-20 5.4724678e-21 2.1860974e-22 6.1156017e-19 2.5326102e-19
2.8314876e-19 5.928194e-20 1.4687344e-19 9.626575e-22 1.9060774e-22 3.7564466e-20 4.0981965e-21 1.5308432e-21
1.1624046e-20 5.917426e-21 1.0879806e-19 4.01921e-21 6.5634185e-21 8.206308e-23 8.050159e-23 2.2356348e-20
2.2246712e-21 0.0 8.9938915e-23 0.0 2.2227327e-20 2.4433302e-21 0.0 1.8407185e-16
1.7541862e-16 1.6206528e-16 1.4028527e-16 3.975159e-16 2.3814482e-15 2.309997e-15 2.214509e-15 2.23124e-15
2.8962343e-15 3.4657081e-15 3.3319847e-15 3.3980116e-15 3.4541508e-15 4.4263164e-15 1.0446848e-15 9.816142e-16
8.984091e-16 9.334602e-16 1.9120068e-15 1.4825955e-15 1.3251166e-15 1.2660743e-15 1.2975875e-15 2.3256596e-15
3.1683877e-15 2.9954983e-15 2.918138e-15 2.9803758e-15 2.9148953e-15 5.0647183e-15 4.847242e-15 4.789071e-15
4.8590354e-15 4.8890128e-15 3.786404e-15 3.641309e-15 3.672484e-15 3.650281e-15 3.587232e-15 3.4226415e-16
2.9780096e-16 2.6767914e-16 2.1651196e-16 2.2242757e-16 2.58554e-16 2.059254e-16 1.7843596e-16 1.5418332e-16
1.4895481e-16 1.7065695e-14 1.6996096e-14 1.8842424e-14 2.1365945e-14 2.0348345e-14 1.5019812e-14 1.5937143e-14
1.8940145e-14 2.215668e-14 2.0193889e-14 8.606628e-15 9.557603e-15 1.0603963e-14 1.3007301e-14 1.1792563e-14
9.055433e-15 8.519147e-15 1.1253805e-14 1.2244268e-14 1.0490007e-14 5.547088e-15 5.9712723e-15 6.946561e-15
7.997422e-15 7.282818e-15 1.5814729e-13 1.5466225e-13 1.5448591e-13 1.6095499e-13 1.689862e-13 1.286567e-13

exp_avg f4 [8]
00000000: 0400 0000 a222 8336 d0db d3b8 b698 5cb8
00000010: 07b7 beb5 3b09 adb8 1108 b537 3e97 0637
6e-45 3.908136e-06 -0.00010102207 -5.259431e-05 -1.4209371e-06 -8.251002e-05 2.1580638e-05 8.022236e-06

exp_avg_sq f4 [8]
00000000: dd0c ef2c 654a 3032 8f0f 8136 1df9 cc35
00000010: 5730 af2f d59b 2a36 be7d f732 44d4 6f33
6.7942167e-12 1.0261464e-08 3.846311e-06 1.5271686e-06 3.1866662e-10 2.542268e-06 2.8811765e-08 5.583958e-08

exp_avg f4 [3, 8, 3, 3]
00000000: 0400 0000 0400 0000 0400 0000 0400 0000
00000010: 0400 0000 0400 0000 0400 0000 0400 0000
00000020: 0400 0000 4b71 8935 b507 4eb6 b3e7 10b5
00000030: c48d 32b6 d145 3bb6 e293 96b6 0fbd 6934
00000040: d456 db34 3cbc be35 b907 e5b5 bb04 12b7
00000050: bdae 49b7 c1e8 9937 b62b 8237 82b6 8037
00000060: 6749 fd37 07b8 f237 ccd7 e437 7ae3 feb5
00000070: cee7 6cb6 cb99 86b6 3a22 3237 fdf4 6b36
00000080: e97e 6e36 2b6f b037 7a08 cd37 2704 e937
00000090: 16b3 d2b3 b8a4 5eb5 493c 29b4 8077 82b5
000000a0: 9229 0e33 1818 82b4 1218 a434 76a9 0936
000000b0: 7438 53b4 b04c 9db6 fa5e 8cb7 8f6d 63b7
000000c0: b4b0 f937 c3f7 b337 9705 e137 f3b7 1c38
000000d0: 7068 3138 bef8 4d38 9b38 77b5 00c0 36b6
000000e0: a140 2836 024b a437 27fe 1437 9c70 1037
000000f0: 61a9 7735 0f04 e9b5 1ddd 6535 ea5d eab4
00000100: 0b7c 7db6 86d4 3136 da61 1136 0e6b 1db6
00000110: ec63 e3b6 33de 6835 d1db 48b6 8592 c6b4
00000120: 0400 0080 0400 0080 0400 0080 0400 0080
00000130: 0400 0080 0400 0080 0400 0080 0400 0080
00000140: 0400 0080 e3ed 63b6 6569 5636 2583 d934
00000150: e47d 25b8 6f20 fab7 a8b1 1cb8 d7ad f2b6
00000160: 6388 83b6 febc 60b7 ba52 8db9 cb05 8db9
00000170: 67e4 90b9 5e91 87b9 9b2a 90b9 0cda 8eb9
00000180: c46f 80b9 5fdb 87b9 61ab 82b9 3a3d beb8
00000190: e000 d2b8 d362 dbb8 da0a cab8 e478 03b9
000001a0: 1239 ceb8 a1c3 c0b8 c17e 02b9 d69f deb8
000001b0: 943a 9434 b679 ce35 fd76 e930 dd13 c435
000001c0: 95fa a035 8883 8c32 7d90 2936 404f 1035
000001d0: 66e1 0933 c32b beb9 b7fd cab9 1f94 ccb9
000001e0: de80 bcb9 ce65 d8b9 1a23 c6b9 ebfd bdb9
000001f0: 38ca c9b9 1f16 b6b9 f771 0b36 a539 b037
00000200: 708d 9c35 99ec 68b7 a4e3 1e36 f64a 5eb7
00000210: 1abc 11b7 cc6a 0d37 bb80 13b7 c591 14b8
00000220: bc43 29b7 b67b 66b5 292f cab7 5026 29b5
00000230: e33e 9134 7691 17b7 3107 8436 5e37 4a36
00000240: 0000 0000 0000 0000 0000 0000 0400 0000
00000250: 0400 0080 0400 0000 0000 0000 0000 0000
00000260: 0000 0000 c28f 0ab7 b616 edb5 e382 a732
00000270: 4a7d f1b7 f019 b8b7 0e31 06b8 4e36 5d36
00000280: ff79 b2b6 7c94 15b5 08c7 f0b8 baac 29b9
00000290: a23c 39b9 4b9d deb8 8f8a 1db9 d588 20b9
000002a0: 9057 d1b8 d033 f0b8 d90b 0fb9 d171 b736
000002b0: b373 c7b7 542f a837 e654 f6b7 c868 01b9
000002c0: 73ec acb8 5e59 63b8 54e5 02b8 6ee9 9cb8
000002d0: c34a 09b6 ecb4 8bb4 a2e2 7633 60db 0fb5
000002e0: 29b8 df35 6ff6 0f34 b6fe cd35 30ec ebb4
000002f0: a573 5a33 13db 07b9 7b01 6db9 7a22 37b9
00000300: a602 2db9 b22f 8db9 f683 6cb9 ef84 47b9
00000310: cb3b 28b9 402a 4eb9 37d7 bf37 4ffc cf37
00000320: 7dfb 1f38 e834 c2b7 8fbd ceb7 ec58 37b7
00000330: 311d cbb7 d611 ddb6 f627 6cb6 13d2 cab7
00000340: 4125 55b7 a155 c3b6 e46a 6fb7 c401 68b7
00000350: 36a6 28b6 bb7a 1cb7 c696 24b7 77a3 a135
6e-45 6e-45 6e-45 6e-45 6e-45 6e-45 6e-45 6e-45
6e-45 1.0240268e-06 -3.0700878e-06 -5.3981347e-07 -2.6606585e-06 -2.790581e-06 -4.487564e-06 2.1768595e-07
4.0855105e-07 1.4210887e-06 -1.7064077e-06 -8.7033795e-06 -1.2021218e-05 1.8347406e-05 1.5517562e-05 1.5343776e-05
3.019413e-05 2.8934342e-05 2.7280206e-05 -1.8990679e-06 -3.5301669e-06 -4.011415e-06 1.0617596e-05 3.516033e-06
3.5538635e-06 2.1032602e-05 2.4441852e-05 2.7777698e-05 -9.8114626e-08 -8.294114e-07 -1.5761283e-07 -9.720534e-07
3.309976e-08 -2.4231917e-07 3.0564894e-07 2.051323e-06 -1.9671444e-07 -4.687892e-06 -1.6733527e-05 -1.3555763e-05
2.9765397e-05 2.1453836e-05 2.6824693e-05 3.7364614e-05 4.2297354e-05 4.9107468e-05 -9.209704e-07 -2.7231872e-06
2.507157e-06 1.9585252e-05 8.880662e-06 8.609288e-06 9.226115e-07 -1.7361034e-06 8.563091e-07 -4.3654228e-07
-3.777214e-06 2.649876e-06 2.166364e-06 -2.3457137e-06 -6.7767596e-06 8.675008e-07 -2.9930272e-06 -3.698698e-07
-6e-45 -6e-45 -6e-45 -6e-45 -6e-45 -6e-45 -6e-45 -6e-45
-6e-45 -3.3964104e-06 3.1949833e-06 4.051482e-07 -3.945631e-05 -2.9817425e-05 -3.7358754e-05 -7.2323996e-06
-3.9199817e-06 -1.3395444e-05 -0.00026955252 -0.00026897932 -0.00027635993 -0.00025857514 -0.00027497564 -0.00027246808
-0.00024497334 -0.0002591265 -0.0002492322 -9.07131e-05 -0.00010013743 -0.00010461141 -9.634132e-05 -0.00012538169
-9.8334756e-05 -9.191712e-05 -0.00012444986 -0.00010615557 2.760977e-07 1.5383619e-06 1.69868e-09 1.4608919e-06
1.1993858e-06 1.6357959e-08 2.5267066e-06 5.3759504e-07 3.2102797e-08 -0.0003627223 -0.00038717475 -0.0003902027
-0.00035954168 -0.0004127458 -0.00037791656 -0.00036238073 -0.00038488372 -0.00034730227 2.077895e-06 2.1007678e-05
1.166407e-06 -1.3883365e-05 2.367634e-06 -1.3249684e-05 -8.686469e-06 8.4291205e-06 -8.791855e-06 -3.5421708e-05
-1.0088956e-05 -8.58617e-07 -2.4102237e-05 -6.301316e-07 2.705411e-07 -9.034169e-06 3.9347437e-06 3.0132574e-06
0.0 0.0 0.0 6e-45 -6e-45 6e-45 0.0 0.0
0.0 -8.258912e-06 -1.7664486e-06 1.950088e-08 -2.8787781e-05 -2.1946587e-05 -3.1993775e-05 3.2963176e-06
-5.3190156e-06 -5.57229e-07 -0.00011481164 -0.00016181442 -0.00017665562 -0.00010615083 -0.00015024304 -0.00015309763
-9.9822064e-05 -0.000114537426 -0.00013641956 5.467075e-06 -2.3776525e-05 2.00492e-05 -2.936502e-05 -0.00012341433
-8.245641e-05 -5.4204247e-05 -3.1207994e-05 -7.482139e-05 -2.0458108e-06 -2.6022406e-07 5.748246e-08 -5.3590884e-07
1.6668392e-06 1.3407565e-07 1.5347821e-06 -4.394401e-07 5.086226e-08 -0.00012956215 -0.00022602633 -0.00017465084
-0.00016499552 -0.00026929151 -0.00022555873 -0.0001902764 -0.00016044003 -0.0001966143 2.2869192e-05 2.4793813e-05
3.814277e-05 -2.3151239e-05 -2.4645384e-05 -1.0928354e-05 -2.4213079e-05 -6.5883896e-06 -3.519e-06 -2.41781e-05
-1.2704463e-05 -5.8214214e-06 -1.42703975e-05 -1.3828689e-05 -2.5130698e-06 -9.3269e-06 -9.810266e-06 1.2043009e-06

exp_avg_sq f4 [3, 8, 3, 3]
00000000: 0333 9a29 1475 6829 ab1b 8e29 2103 b629
00000010: 9fd9 8629 77c4 9c29 f901 8329 dd2a 3329
00000020: 60b7 5329 92fb 6a2e 15af 1d2e 558a 3c2d
00000030: f4fd fb2f 0962 882f 9a23 7c2e 410c 722e
00000040: 62e3 862e bec5 6e2e baf6 b832 3ac3 a532
00000050: ccf7 8932 8d1d d232 14c6 c632 5cb1 b532
00000060: c6a8 2833 57e6 2f33 f10b 2733 12dd 9131
00000070: 31f3 8131 09bb 7631 d660 2332 e060 3a32
00000080: f2d7 4f32 2d87 7832 8dc1 9132 fe62 9732
00000090: f624 942d 7836 222d eef8 922b 5241 ad2d
000000a0: 85fa 842d 21b1 802b 3b21 652d 60c0 7d2d
000000b0: fb31 7b2b e285 9932 3479 9132 d93a 8132
000000c0: 0884 4933 a08c 7433 e3a4 8033 07aa d133
000000d0: 33e1 fc33 589b fb33 c41f 812d ed4b 852e
000000e0: 96be 002e 95db 4332 8841 7832 81fd 6532
000000f0: fe04 8d2e 29f2 8f2f 10fd 502d 2764 ef2e
00000100: 2a13 702f cdaa 1e2f 6e5f 2230 0bc6 7230
00000110: c31b c32f 7b87 eb2e 67c2 412f d01b c82e
00000120: 140f d929 f31d ca29 c845 9629 e076 d329
00000130: 894a c429 67e8 8d29 be70 ce29 6df3 be29
00000140: deaa 8a29 23e8 e630 a041 ae2f b78c f22d
00000150: 6f2d 9233 2524 8033 c8e2 5533 a624 8a33
00000160: 5b9c 7033 e903 4833 68dd 8937 f747 9137
00000170: 2a9f 8237 cf39 8e37 7a58 9537 3802 8637
00000180: fa9f 7b37 71ee 8337 8261 6c37 beb7 2037
00000190: 9c78 2637 f7e3 1237 b04d 2d37 37ca 3237
000001a0: d774 1d37 e653 1637 2ab5 1a37 67e5 0737
000001b0: d609 cd2e 148a 3e2d 8528 e32b 4b5d 5a2f
000001c0: c9a8 e52d 7580 a62b 6c0a 802f 9306 242e
000001d0: 0202 ad2b 3519 ab38 8e48 b038 8720 9c38
000001e0: 191e af38 70b3 b338 baca 9e38 370f 9a38
000001f0: 63ca 9d38 e413 8b38 91d0 cf33 202c 4433
00000200: 8b05 b132 b224 7c33 7a25 ad32 d4d7 a631
00000210: 5abe 3c33 a826 6b32 b5ec 0331 a554 f632
00000220: fe14 f231 2e20 3f30 3555 b332 28d8 9431
00000230: 149b f12e 79bc 9232 c0a4 7031 1915 8a2e
00000240: 0000 0000 0000 0000 0000 0000 e23f cc1e
00000250: 1226 721e e4c6 221e 0000 0000 0000 0000
00000260: 0000 0000 119d 5430 791c a930 2ab3 fa2d
00000270: 54d0 cf33 d27c f633 f957 c833 be1d ac32
00000280: 4787 e432 45cc b232 b9e2 a436 91e1 d236
00000290: c324 da36 0cd9 a036 af6b ce36 457a d536
000002a0: 8217 7836 d0b6 a036 fb02 a736 45db 1836
000002b0: c979 4a36 3796 5536 a16c 3536 95ec 6c36
000002c0: 4950 7836 04d5 e535 1e7f 1a36 5abb 2436
000002d0: 9bee ab2e b5a4 6d2e 4cc9 1b29 f591 382f
000002e0: 5a39 3f2f 529a 6729 f220 d12e 4ce2 762f
000002f0: 1caf ab29 7594 9d37 477b d737 01ad d737
00000300: d2da 9b37 e4fa d437 4dcc d437 9dbf 6037
00000310: 1d76 9c37 d954 9c37 0b0a 1933 005d ce33
00000320: 2fb3 5e32 19a2 b732 7d62 9e33 a8ae 7931
00000330: 523e 3732 b39f 6033 2b2f 8830 0f59 2732
00000340: 4124 f332 9900 0230 03af bc31 d784 ae32
00000350: ebda 982e 3c51 9931 b890 9932 218c 952e
6.847823e-14 5.1615897e-14 6.3108664e-14 8.0829664e-14 5.9885467e-14 6.961873e-14 5.817911e-14 3.9783162e-14
4.7010464e-14 5.342888e-11 3.585317e-11 1.0717279e-11 4.5837079e-10 2.4807914e-10 5.7329787e-11 5.5035313e-11
6.134006e-11 5.4290565e-11 2.1532617e-08 1.9297307e-08 1.6061584e-08 2.4460656e-08 2.314031e-08 2.1151827e-08
3.9269047e-08 4.0954856e-08 3.8893578e-08 4.245188e-09 3.782042e-09 3.5904029e-09 9.509867e-09 1.0848652e-08
1.2098086e-08 1.4466235e-08 1.6968238e-08 1.762373e-08 1.6842066e-11 9.220728e-12 1.0443016e-12 1.9696831e-11
1.5117916e-11 9.14411e-13 1.30245216e-11 1.4424101e-11 8.9242475e-13 1.7872427e-08 1.6935338e-08 1.5044337e-08
4.691904e-08 5.6938575e-08 5.990457e-08 9.763249e-08 1.1775628e-07 1.1716355e-07 1.4679709e-11 6.061627e-11
2.9273105e-11 1.1400421e-08 1.44504e-08 1.33871945e-08 6.4128244e-11 2.6183614e-10 1.1879622e-11 1.0886252e-10
2.1834681e-10 1.4430697e-10 5.907087e-10 8.8320523e-10 3.549002e-10 1.0710629e-10 1.7622313e-10 9.0998875e-11
9.6393515e-14 8.9757974e-14 6.673443e-14 9.390904e-14 8.717078e-14 6.301973e-14 9.1677954e-14 8.4799226e-14
6.158072e-14 1.680068e-09 3.1697045e-10 2.7574705e-11 6.806919e-08 5.967039e-08 4.9799183e-08 6.432792e-08
5.602156e-08 4.6569685e-08 1.6434773e-05 1.7318858e-05 1.5571324e-05 1.6954638e-05 1.7803384e-05 1.5975078e-05
1.4998013e-05 1.572745e-05 1.4089399e-05 9.579524e-06 9.922453e-06 8.755355e-06 1.0329692e-05 1.0656709e-05
9.385133e-06 8.960231e-06 9.221296e-06 8.100039e-06 9.324068e-11 1.0830909e-11 1.6140567e-12 1.9860129e-10
2.6109242e-11 1.1830663e-12 2.329047e-10 3.7295122e-11 1.2292947e-12 8.1586106e-05 8.405848e-05 7.444718e-05
8.3502564e-05 8.568808e-05 7.571788e-05 7.346126e-05 7.524041e-05 6.6317414e-05 9.677127e-08 4.5674938e-08
2.0608033e-08 5.8706696e-08 2.0156893e-08 4.8557727e-09 4.3945285e-08 1.368759e-08 1.9197561e-09 2.8676661e-08
7.0455135e-09 6.9531125e-10 2.087709e-08 4.331941e-09 1.09869586e-10 1.7082344e-08 3.5018246e-09 6.279261e-11
0.0 0.0 0.0 2.1625761e-20 1.2819246e-20 8.617338e-21 0.0 0.0
0.0 7.7348355e-10 1.2304461e-09 2.8501274e-11 9.677083e-08 1.1477972e-07 9.329228e-08 2.003696e-08
2.660421e-08 2.0814818e-08 4.913975e-06 6.284747e-06 6.501186e-06 4.793639e-06 6.1518144e-06 6.3621287e-06
3.6968563e-06 4.7896538e-06 4.977335e-06 2.2777397e-06 3.0171234e-06 3.182691e-06 2.7034332e-06 3.530445e-06
3.7001612e-06 1.7123825e-06 2.302178e-06 2.4546957e-06 7.8185645e-11 5.403385e-11 3.459151e-14 1.6786557e-10
1.7391724e-10 5.1426155e-14 9.510072e-11 2.2453966e-10 7.624302e-14 1.878499e-05 2.5687403e-05 2.5710558e-05
1.8579336e-05 2.53892e-05 2.5367504e-05 1.3396054e-05 1.865165e-05 1.863616e-05 3.5632223e-08 9.609539e-08
1.2962842e-08 2.1377717e-08 7.375363e-08 3.633355e-09 1.0666172e-08 5.229931e-08 9.908708e-10 9.740929e-09
2.830541e-08 4.7294574e-10 5.4914167e-09 2.0316675e-08 6.9510474e-11 4.4621213e-09 1.7877355e-08 6.8006274e-11

exp_avg f4 [3]
00000000: 46d0 ad37 f86c 75b9 f260 18b9
2.0720192e-05 -0.00023405615 -0.00014531965

exp_avg_sq f4 [3]
00000000: a446 2433 bc97 9d37 a7a5 ca36
3.8248473e-08 1.8786515e-05 6.0393536e-06

exp_avg f4 [8, 3, 3, 3]
00000000: b109 db36 ffd7 e236 6e8e 9536 c592 8033
00000010: 74b4 93b5 6072 a9b4 9d9f e135 626a 5735
00000020: 6786 afb3 d1f6 bd39 4c52 c639 6c8a c039
00000030: 92cc bf39 745c cf39 63db e039 0885 9639
00000040: 957c b939 a668 cb39 0045 ff38 bb67 1c39
00000050: a0dd ed38 b085 2639 16b1 ff38 345e fc38
00000060: 70e4 0839 9029 1339 11ed 1839 7b84 ad34
00000070: 0de3 1f36 14e3 7036 cb93 a935 d79b f135
00000080: f893 4f36 89b0 d7b3 6dc7 a2b3 eeb8 0d34
00000090: 6ad7 e738 b49a e638 c3bf e338 2e99 f138
000000a0: 8b90 ec38 91a1 d738 7722 da38 3791 db38
000000b0: 9173 bf38 13be 1b38 df49 3c38 b27c 3b38
000000c0: b1ae d337 cf70 1238 7945 4c38 ef79 4e38
000000d0: de63 2438 87ff f637 fc7b e535 8f62 3f35
000000e0: fe80 e635 2913 6f35 5fab 5133 b050 3234
000000f0: 6bfe 83b4 8d52 82b5 de48 dfb4 6cf6 6b39
00000100: 754a 8439 c3a8 8739 540b 7b39 cf41 8939
00000110: 3eb6 8639 df6a 7c39 18ae 8339 fcb5 8439
00000120: ac44 9338 33b8 9238 dd37 a538 09ff a438
00000130: 45b6 b938 f9e6 9838 99ab b838 2cfb ce38
00000140: ddb8 c038 ad1e d035 81e6 a435 362c cf36
00000150: a34c d5b6 8e31 bbb6 67f8 34b6 d059 5eb4
00000160: 39df 2bb5 7112 8535 bead 813a 0107 913a
00000170: bee5 993a dfad 803a 732b 913a 8502 9a3a
00000180: 57ba 733a e0ff 883a 5398 8e3a 1bbf bb39
00000190: 3291 bc39 d081 b939 daf3 af39 97b2 cf39
000001a0: 7564 ce39 6d15 9639 8a15 bc39 3b74 c639
000001b0: 89a0 b7b5 9a60 53b5 c74d b535 b489 9333
000001c0: 9633 a134 07b9 f433 bfef 41b5 037c 86b4
000001d0: 47cb b134 b6ae e137 b813 3138 d3cd 7038
000001e0: 585a 1f38 8836 7538 79b4 7138 e082 6b38
000001f0: d048 9038 e256 7d38 f55a 32b6 2a54 d1b6
00000200: cd4e 6037 a67e 5db5 46df 4037 d97e 3c37
00000210: eb45 04b5 173d 7a37 eec6 1735 3178 8036
00000220: 1f60 8936 187a 34b5 7cb5 3136 950e 6236
00000230: ae92 1b36 9b31 5b35 e00e c835 73cc 59b3
00000240: 0e0f b3b9 be77 d4b9 0da2 e8b9 d594 b9b9
00000250: fead e6b9 2e5e e9b9 bbf8 bbb9 f75c dbb9
00000260: ee66 d0b9 1e2a fdb8 08af dab8 9c53 fdb8
00000270: f6f0 d0b8 1c7e 0cb9 28e0 16b9 bed9 ddb8
00000280: 31ce 20b9 2ff0 0ab9 0e5d f735 ba07 13b4
00000290: 8c30 7d33 17c1 e136 f983 0fb5 06f1 0b36
000002a0: d5c5 2535 ed60 0d35 7c7e 9b33 894c 70b8
000002b0: f049 5eb8 3fc5 a4b7 5362 e4b7 2617 d7b7
000002c0: 4f5f 0f37 41a9 c1b7 8021 40b7 d5ec a837
000002d0: 263f 8fb7 6df0 8ab6 0e40 5636 d9bf 49b7
000002e0: ad06 86b7 f1ad 68b6 b3c0 1137 28f5 0d36
000002f0: ffdb 4d37 f1c1 23b6 1010 45b6 4742 08b7
00000300: 851e 2737 84b5 0d37 5cf8 a336 fa16 8a35
00000310: e7aa c035 5038 d8b4 5166 bcb9 3f2a d9b9
00000320: 6f38 efb9 d08b cbb9 66e1 fab9 505e 04ba
00000330: d57d dfb9 1d56 ffb9 0506 01ba 44c1 ebb8
00000340: 74c1 d5b8 b127 f6b8 d710 00b9 70fc 0cb9
00000350: be5e 24b9 88db ffb8 119a 33b9 3190 1cb9
6.527837e-06 6.76047e-06 4.457127e-06 5.987162e-08 -1.1004872e-06 -3.1561922e-07 1.681026e-06 8.024855e-07
-8.17352e-08 0.00036232782 0.0003782682 0.00036724226 0.00036582776 0.00039551 0.00042888065 0.00028709345
0.0003537877 0.00038797146 0.000121722 0.00014915962 0.000113423215 0.00015880796 0.00012192332 0.00012033843
0.0001305507 0.00014034496 0.00014584164 3.2320153e-07 2.3825007e-06 3.5894964e-06 1.2634495e-06 1.8001255e-06
3.0931533e-06 -1.0043829e-07 -7.579988e-08 1.3198925e-07 0.00011055062 0.0001099607 0.00010859922 0.000115203075
0.0001128028 0.00010282093 0.000104014696 0.00010469782 9.129116e-05 3.71319e-05 4.489149e-05 4.4700406e-05
2.5234507e-05 3.4914174e-05 4.870209e-05 4.9227787e-05 3.9193656e-05 2.9444474e-05 1.7097914e-06 7.1296466e-07
1.7173877e-06 8.906232e-07 4.8817466e-08 1.6606896e-07 -2.4585765e-07 -9.70978e-07 -4.1590005e-07 0.00022503146
0.00025232477 0.00025874944 0.00023941445 0.00026179707 0.00025694253 0.00024072405 0.00025115977 0.0002531259
7.022297e-05 6.996132e-05 7.8782185e-05 7.8676334e-05 8.855438e-05 7.290947e-05 8.805766e-05 9.86963e-05
9.189707e-05 1.5506135e-06 1.2286038e-06 6.1742276e-06 -6.3568164e-06 -5.578803e-06 -2.696668e-06 -2.0708035e-07
-6.4027296e-07 9.914639e-07 0.0009893698 0.0011064709 0.0011741442 0.0009817443 0.0011075571 0.0011750018
0.0009297481 0.0010452233 0.0010879136 0.00035809804 0.00035966333 0.00035382668 0.00033560285 0.00039615177
0.00039366228 0.00028626193 0.00035874202 0.000378521 -1.3681284e-06 -7.87442e-07 1.3508187e-06 6.870269e-08
3.002612e-07 1.1395792e-07 -7.224698e-07 -2.5049675e-07 3.3116723e-07 2.6903446e-05 4.2218453e-05 5.7412148e-05
3.7992693e-05 5.8463338e-05 5.7626956e-05 5.6150253e-05 6.8800175e-05 6.0400816e-05 -2.657701e-06 -6.2384834e-06
1.3369788e-05 -8.2513213e-07 1.1496077e-05 1.1235207e-05 -4.9275576e-07 1.4915385e-05 5.6541364e-07 3.8286894e-06
4.094108e-06 -6.7232895e-07 2.6480693e-06 3.3685112e-06 2.3182179e-06 8.1656043e-07 1.490549e-06 -5.0710195e-08
-0.00034152757 -0.00040525006 -0.00044371226 -0.00035396838 -0.00043998653 -0.00044511392 -0.00035852738 -0.000418402
-0.0003974954 -0.00012071825 -0.00010427652 -0.000120795536 -9.963095e-05 -0.0001339842 -0.0001438862 -0.00010578659
-0.00015335601 -0.00013250181 1.8430017e-06 -1.3693253e-07 5.8950306e-08 6.728001e-06 -5.3463697e-07 2.0852908e-06
6.1755173e-07 5.266764e-07 7.240757e-08 -5.7291738e-05 -5.2997784e-05 -1.9642173e-05 -2.7225504e-05 -2.5640777e-05
8.545655e-06 -2.3086208e-05 -1.1451892e-05 2.0137444e-05 -1.7076334e-05 -4.1407097e-06 3.192577e-06 -1.2025202e-05
-1.5977153e-05 -3.4671941e-06 8.68754e-06 2.1153337e-06 1.2270174e-05 -2.4401782e-06 -2.9364637e-06 -8.121663e-06
9.961082e-06 8.446517e-06 4.8866914e-06 1.0288488e-06 1.4354854e-06 -4.0274108e-07 -0.00035934386 -0.0004142094
-0.0004562768 -0.00038823346 -0.0004785165 -0.0005049454 -0.00042627627 -0.0004870155 -0.00049218565 -0.00011241672
-0.00010192665 -0.00011737587 -0.00012213305 -0.0001344548 -0.00015675553 -0.000122002384 -0.00017128164 -0.00014931035

exp_avg_sq f4 [8, 3, 3, 3]
00000000: 6d77 1330 b738 b02f e483 7d2f 5073 0130
00000010: 415c 772f 6a67 392f a0c7 a72f 3511 8b2e
00000020: ea04 db2d 5d30 2637 facc 3d37 9bcd 3d37
00000030: 44a0 2537 ffbe 3d37 668f 3e37 bcb1 1437
00000040: a840 2a37 3b0b 2c37 53ae 9135 fa03 9635
00000050: 4483 8535 0f38 b135 3c1f bb35 1d69 a735
00000060: a467 ac35 fb2c b835 8244 a635 d623 b830
00000070: 072b bf30 5e1c ae30 bd84 ad30 dda5 b030
00000080: 2361 9f30 54f5 8630 1048 8b30 22ad 7e30
00000090: 1df6 ca35 6af6 f035 eefa 0136 c647 da35
000000a0: baba 0136 35c1 0b36 7b10 cf35 adf4 f535
000000b0: d454 0436 6008 d033 fd88 f033 b726 e433
000000c0: 9f95 f933 a1db 1134 a1f2 0a34 54f6 1334
000000d0: 77a8 2d34 febc 2534 98e7 c431 d0f4 cf31
000000e0: 4a24 c331 dc08 ae31 bc1b bc31 d246 b331
000000f0: 6fad 9231 13dd 9f31 ca44 9931 0f52 1a37
00000100: 0970 2837 0324 2b37 b9f1 2437 43e2 3337
00000110: 671e 3637 04d9 1f37 8306 2e37 bfec 2f37
00000120: 8177 1235 b6f3 1835 40f9 0f35 bc4e 2c35
00000130: 0a83 3435 25a9 2935 d7a8 4c35 e144 5635
00000140: fbae 4835 62b6 9432 013b 8932 abd4 5d32
00000150: 2cee d131 2b36 b231 be3d 8331 6238 7730
00000160: 6d5e e22f bf15 012f 274a 6939 acda 8039
00000170: c5e5 7d39 88b7 7639 b545 8839 9327 8639
00000180: ebf8 6739 0f14 8039 ab0f 7c39 bc41 4237
00000190: eb22 4c37 1d8a 3937 a085 7037 17e1 7c37
000001a0: 4d19 6637 ead8 7e37 b12d 8637 34a6 7437
000001b0: b555 e430 8df4 e730 a074 d130 8a42 5c30
000001c0: 8929 5d30 db0b 5230 3955 0030 758d 0630
000001d0: 80f8 0930 fd7e 2437 f750 3537 6ac8 3037
000001e0: e323 2f37 a129 4137 b863 3c37 b6f8 2437
000001f0: 56e7 3537 b178 3137 b6e9 b834 e49c b934
00000200: de3e a234 af0f ee34 4127 ef34 972c d134
00000210: 2847 f934 adfe fb34 7500 dd34 1829 bf31
00000220: bcfe b231 6586 8f31 83d5 fa30 bbc1 d130
00000230: dbef 9f30 2fcb 7f30 184c 4230 77c3 2530
00000240: 42e3 6538 00c6 8038 52a3 7f38 4354 7038
00000250: 7fbc 8638 a6e0 8538 9199 5d38 2386 7838
00000260: 52f6 7638 56ee 6d36 25ea 7f36 e7f7 6636
00000270: 7007 9436 db64 9f36 3a96 9036 664a 9c36
00000280: 3886 a836 9d3f 9936 b1c7 1e2e d911 e42c
00000290: e765 372c 70f5 1131 83bf ff30 aea0 c830
000002a0: a413 ea2d ea98 a12d 141b 912b 25ad bb34
000002b0: 1ad5 0b35 e776 ec33 d693 2d35 5ac8 7035
000002c0: 0150 9d34 8ca9 6935 7fe5 9a35 880c f634
000002d0: dd85 4633 365f 3c33 d773 1332 1035 6133
000002e0: 0b42 4d33 0204 0532 b34a e733 90f3 e233
000002f0: 01e5 0933 ccba 7132 5ebd 6532 7b14 3f32
00000300: ebea ec31 0430 c831 7e45 9a31 3ba3 0b30
00000310: ea4f fa2e ca9d a82d 3f2b cc38 b609 e738
00000320: 45b5 ec38 6c68 e638 f327 0239 85e2 0439
00000330: 4da6 e538 c177 0139 d0df 0339 49bc 9336
00000340: f1c5 9f36 5b10 9336 402c b236 9653 c036
00000350: 0c8d b036 f006 ea36 a818 fc36 8c32 e736
5.3648e-10 3.2054512e-10 2.3057073e-10 4.7093796e-10 2.2497294e-10 1.6862392e-10 3.0518965e-10 6.324045e-11
2.48996e-11 9.9056315e-06 1.1313003e-05 1.1313149e-05 9.872081e-06 1.1309748e-05 1.135827e-05 8.862869e-06
1.0147844e-05 1.0254614e-05 1.0854077e-06 1.1177028e-06 9.947476e-07 1.3203843e-06 1.3941676e-06 1.2473062e-06
1.2845162e-06 1.3722159e-06 1.2387902e-06 1.3397947e-09 1.3909308e-09 1.2668229e-09 1.2625133e-09 1.2852827e-09
1.159638e-09 9.81951e-10 1.0134062e-09 9.26507e-10 1.5121801e-06 1.7953109e-06 1.9368558e-06 1.6263155e-06
1.9331187e-06 2.0825075e-06 1.5427498e-06 1.8325132e-06 1.971891e-06 9.687278e-08 1.1200789e-07 1.06241195e-07
1.1622182e-07 1.3584078e-07 1.294052e-07 1.3780055e-07 1.6173168e-07 1.5435577e-07 5.73068e-09 6.052325e-09
5.6793725e-09 5.0650737e-09 5.474673e-09 5.217637e-09 4.2688764e-09 4.6526423e-09 4.4607065e-09 9.198221e-06
1.00396655e-05 1.0200779e-05 9.831442e-06 1.0721912e-05 1.0855124e-05 9.527666e-06 1.0372724e-05 1.0485935e-05
5.456314e-07 5.697906e-07 5.363436e-07 6.4189567e-07 6.724591e-07 6.3203544e-07 7.6241616e-07 7.9821444e-07
7.4760436e-07 1.7312406e-08 1.5975731e-08 1.2912248e-08 6.1097776e-09 5.18664e-09 3.819621e-09 8.99382e-10
4.1176254e-10 1.1740207e-10 0.00022248235 0.00024576986 0.00024213556 0.00023528759 0.00025991877 0.00025587957
0.00022122606 0.00024429007 0.0002403843 1.1578606e-05 1.21674775e-05 1.1059016e-05 1.4336227e-05 1.5072778e-05
1.3714959e-05 1.5190084e-05 1.5995322e-05 1.45822305e-05 1.6613543e-09 1.6876968e-09 1.5239898e-09 8.013009e-10
8.0458357e-10 7.64144e-10 4.668724e-10 4.894994e-10 5.019345e-10 9.8047285e-06 1.0807292e-05 1.053708e-05
1.0439168e-05 1.1513389e-05 1.1228891e-05 9.833069e-06 1.0842303e-05 1.0578123e-05 3.4442718e-07 3.4573088e-07
3.0220593e-07 4.4342366e-07 4.454578e-07 3.8961727e-07 4.6431637e-07 4.6937694e-07 4.116479e-07 5.5635034e-09
5.2094418e-09 4.1771266e-09 1.8250578e-09 1.5261813e-09 1.1636944e-09 9.30572e-10 7.0684925e-10 6.030442e-10
5.4809505e-05 6.140396e-05 6.094884e-05 5.7298934e-05 6.424728e-05 6.383778e-05 5.2833526e-05 5.9252732e-05
5.8880374e-05 3.5454482e-06 3.813425e-06 3.441697e-06 4.4116096e-06 4.7503104e-06 4.309023e-06 4.6578234e-06
5.0224153e-06 4.567161e-06 3.6102402e-11 6.4821312e-12 2.6062431e-12 2.1239792e-09 1.8608123e-09 1.4597583e-09
2.6611442e-11 1.8371488e-11 1.0310385e-12 3.4957444e-07 5.209164e-07 1.10112346e-07 6.466265e-07 8.9698517e-07
2.930174e-07 8.7045987e-07 1.1540686e-06 4.5830188e-07 4.6222215e-08 4.3858755e-08 8.582865e-09 5.2435155e-08
4.7790348e-08 7.74253e-09 1.07703634e-07 1.0568249e-07 3.2106076e-08 1.4070519e-08 1.33726115e-08 1.112232e-08
6.895211e-09 5.826225e-09 4.4898902e-09 5.079987e-10 1.13828794e-10 1.9169461e-11 9.735533e-05 0.00011016747
0.00011287121 0.00010986705 0.00012412648 0.00012672886 0.00010950547 0.0001234701 0.0001257651 4.4028607e-06
4.7616127e-06 4.3828454e-06 5.3099648e-06 5.7317766e-06 5.2616288e-06 6.974551e-06 7.5130556e-06 6.890221e-06

exp_avg f4 [8]
00000000: d848 e439 89a4 8438 74c9 5a39 f369 863a
00000010: 61fa 7338 1126 ecb9 5f94 cc37 bd09 f9b9
0.00043541822 6.3248975e-05 0.00020865147 0.0010254964 5.81689e-05 -0.0004504179 2.4387786e-05 -0.00047500237

exp_avg_sq f4 [8]
00000000: 499a 2937 7f0f c935 60f6 eb36 35aa 3839
00000010: ac21 f136 1d31 4238 03e1 6435 6388 ab38
1.0109107e-05 1.4980177e-06 7.0322276e-06 0.00017611014 7.1862796e-06 4.6298945e-05 8.5264054e-07 8.1793194e-05
