logs/epoch=4_v2.ckpt (torch_old, 153933 bytes, 36 tensors)

exp_avg f4 [12, 6, 7, 7]
5.6271542e-08 -1.2413136e-07 -1.1817984e-07 -2.5839938e-07 -1.4183053e-07 -1.3974585e-07 1.026337e-07 4.4078355e-08
-1.4622525e-07 -1.3237374e-07 -2.7199235e-07 -1.4792387e-07 -1.5497925e-07 3.6058196e-08 4.524997e-08 -1.5089363e-07
-1.3841526e-07 -2.778302e-07 -1.4956217e-07 -1.6692019e-07 3.8103927e-08 2.5759618e-08 -1.7876974e-07 -1.5525538e-07
-2.988401e-07 -1.69916e-07 -2.0480694e-07 -1.2352142e-07 3.0336626e-08 -1.7133482e-07 -1.4490985e-07 -2.8338792e-07
-1.5188682e-07 -1.7870317e-07 -9.5528804e-08 3.1163985e-08 -1.6903451e-07 -1.4423794e-07 -2.7422996e-07 -1.4407881e-07
-1.7456276e-07 -1.03997344e-07 6.641453e-08 -1.08106406e-07 -8.159407e-08 -1.8633285e-07 -6.222039e-08 -8.6407525e-08
-2.598065e-08 5.5534436e-08 -3.9795783e-08 -3.4602657e-08 -9.7687675e-08 -6.350168e-08 -5.6637155e-08 1.0127421e-08
4.3383213e-08 -5.7356736e-08 -5.014301e-08 -1.0851735e-07 -7.115516e-08 -6.797447e-08 -1.7208473e-08 4.4642245e-08
-6.001572e-08 -5.2219416e-08 -1.1154584e-07 -7.660767e-08 -7.7201264e-08 -1.2335591e-08 3.0816253e-08 -7.525496e-08
-6.7623844e-08 -1.1939912e-07 -8.7349065e-08 -8.1018506e-08 -7.5585895e-08 3.6259543e-08 -6.5365384e-08 -5.6843987e-08
-1.0876278e-07 -7.279085e-08 -5.753907e-08 -5.944468e-08 3.5945874e-08 -6.383358e-08 -5.5029968e-08 -1.0551937e-07
-6.996206e-08 -5.9231418e-08 -6.270043e-08 7.2417684e-08 -1.01689865e-08 5.0213395e-10 -3.4654747e-08 1.0149801e-09
4.8396456e-09 -6.1367462e-09 6.375748e-08 -1.2682033e-08 -6.2729333e-10 -2.5610884e-08 8.454254e-09 6.1575864e-09
1.3523331e-07 5.5053956e-08 -2.5738574e-08 -1.5229352e-08 -3.6057386e-08 7.486173e-10 -1.3247942e-08 5.9974525e-08
5.414303e-08 -2.6321944e-08 -1.6833752e-08 -3.386548e-08 -2.3118152e-09 -2.9505488e-08 6.161862e-08 3.923287e-08
-4.7630074e-08 -3.7844135e-08 -6.718277e-08 -3.0448284e-08 -7.894492e-08 -1.5016354e-07 4.9339103e-08 -3.3847623e-08
-2.1358325e-08 -4.613576e-08 -8.549083e-09 -6.0169185e-08 -1.3299784e-07 4.8088495e-08 -3.1363548e-08 -2.0634456e-08
-3.5151338e-08 4.4804263e-09 -6.991483e-08 -1.4732773e-07 8.7604356e-08 2.697954e-08 4.219213e-08 4.2350734e-08
8.2271555e-08 4.4581412e-08 -3.4487872e-08 1.1780823e-07 1.1502802e-07 9.416324e-08 1.382816e-07 9.606903e-08
1.7879141e-07 2.47682e-07 8.903527e-08 8.3158874e-08 6.598631e-08 1.14590755e-07 6.68355e-08 1.3950854e-07
1.576359e-07 9.199486e-08 8.553452e-08 6.416918e-08 1.1990898e-07 6.598596e-08 1.2695666e-07 1.5762842e-07
4.873374e-08 3.5403136e-08 1.7479037e-08 6.599852e-08 7.979221e-09 4.685706e-08 -7.526407e-08 6.079846e-08
5.7758935e-08 4.2280124e-08 1.01252056e-07 4.290034e-08 8.266904e-08 -3.1178544e-08 6.3612596e-08 5.9598815e-08
4.641164e-08 1.0833412e-07 6.0626604e-08 8.777365e-08 -3.5626485e-08 1.1950048e-07 1.4563446e-07 1.627039e-07
2.4905e-07 2.2576815e-07 2.8652175e-07 1.702604e-07 1.280216e-07 1.10125285e-07 9.11874e-08 9.467361e-08
1.06278485e-07 1.07843796e-07 2.7045763e-07 1.0077561e-07 8.169434e-08 6.2982515e-08 7.932719e-08 8.170665e-08
6.2556985e-08 1.674836e-07 1.03319465e-07 7.908376e-08 5.7321028e-08 7.5877345e-08 7.971502e-08 5.4668273e-08
1.7076107e-07 6.208266e-08 3.2246167e-08 1.5952708e-08 1.9315943e-08 1.798074e-08 -1.2451056e-08 -5.6273542e-08
7.590385e-08 5.5224476e-08 5.002902e-08 5.947838e-08 6.0976106e-08 2.6157766e-08 -1.2278727e-08 8.1449635e-08
6.248344e-08 5.6730133e-08 7.856307e-08 7.476655e-08 2.157998e-08 -1.4290626e-08 1.3472389e-07 1.4849856e-07
1.5950287e-07 2.0659019e-07 2.2534759e-07 2.1486602e-07 1.8474103e-07 2.180868e-07 2.2290976e-07 2.3686168e-07
2.4518062e-07 2.2518851e-07 1.897838e-07 3.3942055e-07 1.7462034e-07 1.8010746e-07 2.0112572e-07 2.0060143e-07
00000000: 37af 7133 f848 05b4 0eca fdb3 24ba 8ab4
00000010: 144a 18b4 0c0d 16b4 7967 dc33 aa50 3d33
00000020: 1702 1db4 9e22 0eb4 5806 92b4 01d5 1eb4
00000030: 5f68 26b4 68de 1a33 de58 4233 5305 22b4
00000040: 4c9f 14b4 b128 95b4 5697 20b4 ac3a 33b4
00000050: b6a7 2333 0046 dd32 daf3 3fb4 46b4 26b4
00000060: 4570 a0b4 2872 36b4 e7e8 5bb4 4fa1 04b4
00000070: 794b 0233 28f8 37b4 8498 1bb4 8a24 98b4
00000080: 5516 23b4 8ee1 3fb4 8425 cdb3 2ad9 0533
00000090: da7f 35b4 d3df 1ab4 e139 93b4 15b4 1ab4
000000a0: 726f 3bb4 2555 dfb3 c69f 8e33 2028 e8b3
000000b0: d038 afb3 c912 48b4 059e 85b3 0a8f b9b3
000000c0: 0e2c dfb2 c284 6e33 edeb 2ab3 069e 14b3
000000d0: 5ec8 d1b3 6b5e 88b3 3641 73b3 defc 2d32
000000e0: 5954 3a33 6658 76b3 d35c 57b3 0b0a e9b3
000000f0: f7cd 98b3 5cf9 91b3 d5d1 93b2 abbc 3f33
00000100: fee1 80b3 db47 60b3 f98a efb3 8383 a4b3
00000110: d8c9 a5b3 81ec 53b2 d45a 0433 da9b a1b3
00000120: 9a38 91b3 2e34 00b4 a894 bbb3 65fc adb3
00000130: c951 a2b3 cabb 1b33 005f 8cb3 a024 74b3
00000140: f890 e9b3 3151 9cb3 e020 77b3 1e50 7fb3
00000150: e862 1a33 e214 89b3 175a 6cb3 e399 e2b3
00000160: 0d3e 96b3 a265 7eb3 eda5 86b3 0b84 9b33
00000170: adb3 2eb2 8906 0a30 4cd7 14b3 707f 8b30
00000180: f949 a631 64db d2b1 0ceb 8833 2ce0 59b2
00000190: d86d 2cb0 eefe dbb2 343e 1132 b492 d331
000001a0: a634 1134 7774 6c33 b917 ddb2 b3d1 82b2
000001b0: 84dd 1ab3 42c7 4d30 1199 63b2 58cb 8033
000001c0: e48a 6833 911a e2b2 d099 90b2 7d73 11b3
000001d0: e2dd 1eb1 4173 fdb2 3253 8433 ff80 2833
000001e0: d291 4cb3 118a 22b3 1e46 90b3 3ec6 02b3
000001f0: 6e88 a9b3 a43c 21b4 ebe8 5333 db5f 11b3
00000200: 7477 b7b2 ce26 46b3 44df 12b2 5c36 81b3
00000210: 2bce 0eb4 dc89 4e33 96b4 06b3 a63f b1b2
00000220: 4ef9 16b3 3ff2 9931 1624 96b3 2331 1eb4
00000230: 0121 bc33 a3c0 e732 bd36 3533 20e5 3533
00000240: 44ad b033 c879 3f33 d11f 14b3 c2fd fc33
00000250: 5305 f733 ca36 ca33 8f7a 1434 824e ce33
00000260: cff9 3f34 28f9 8434 a833 bf33 1395 b233
00000270: 5cb4 8d33 ef14 f633 3487 8f33 d1cb 1534
00000280: a042 2934 b68e c533 1aaf b733 61cd 8933
00000290: 54c0 0034 2ab4 8d33 9551 0834 9240 2934
000002a0: 504f 5133 290e 1833 cf24 9632 12bb 8d33
000002b0: fc14 0932 e23f 4933 dca0 a1b3 4f90 8233
000002c0: 9f12 7833 7d97 3533 e86f d933 6c41 3833
000002d0: c987 b133 2ce9 05b3 659b 8833 97f9 7f33
000002e0: 2356 4733 50a5 e833 d431 8233 137e bc33
000002f0: bc03 19b3 0b50 0034 b25f 1c34 b5b3 2e34
00000300: 2cb5 8534 ad6a 7234 40d3 9934 d3d0 3634
00000310: 4f76 0934 047e ec33 ced2 c333 5e4f cb33
00000320: 373b e433 c197 e733 6a33 9134 fa69 d833
00000330: f06f af33 0141 8733 955a aa33 b576 af33
00000340: 1157 8633 8bd5 3334 7ae0 dd33 c2d4 a933
00000350: 2331 7633 03f2 a233 cc2f ab33 67cc 6a33
00000360: 725a 3734 4e52 8533 097f 0a33 6008 8932
00000370: 35ec a532 1174 9a32 53e8 55b2 6ab1 71b3
00000380: 9500 a333 f42f 6d33 7ddf 5633 2c75 7f33
00000390: f8f1 8233 89b1 e032 6af2 52b2 69e9 ae33
000003a0: a22e 8633 71a7 7333 81b6 a833 588f a033
000003b0: e15e b932 d682 75b2 9fa8 1034 f972 1f34
000003c0: d143 2b34 14d3 5d34 13f7 7134 ecb5 6634
000003d0: 3a5d 4634 3e2b 6a34 f858 6f34 0b54 7e34
000003e0: 5ea1 8334 59cb 7134 60c7 4b34 9b39 b634
000003f0: 467f 3b34 9063 4134 04f5 5734 e764 5734

exp_avg_sq f4 [12, 6, 7, 7]
7.695105e-13 1.2997615e-12 1.4920438e-12 2.239688e-12 1.894117e-12 2.1254715e-12 2.0749231e-12 1.0769405e-12
1.7122227e-12 1.8973644e-12 2.7178032e-12 2.488507e-12 2.6920768e-12 2.704243e-12 2.0548001e-12 2.9656746e-12
3.2402195e-12 4.1928227e-12 3.956394e-12 4.2825487e-12 4.344752e-12 2.2032224e-12 3.2069512e-12 3.555392e-12
4.4417295e-12 4.299739e-12 4.6459793e-12 4.753614e-12 2.293199e-12 3.3504655e-12 3.62688e-12 4.4848413e-12
4.2960266e-12 4.6791516e-12 4.814362e-12 1.4723719e-12 2.3287466e-12 2.5305194e-12 3.3689447e-12 3.0974977e-12
3.3868754e-12 3.40648e-12 1.546221e-12 2.4084085e-12 2.491289e-12 3.306243e-12 2.9998007e-12 3.2782145e-12
3.3089091e-12 1.365112e-13 2.4573418e-13 2.8151613e-13 4.3071547e-13 3.7768603e-13 3.9762096e-13 3.785627e-13
1.8160659e-13 3.0870158e-13 3.4697543e-13 5.071169e-13 4.6516583e-13 4.806189e-13 4.6627974e-13 3.2241167e-13
4.9565305e-13 5.515946e-13 7.3209364e-13 7.0435357e-13 7.443315e-13 7.4815e-13 3.5387071e-13 5.3419953e-13
5.9930484e-13 7.817845e-13 7.5387635e-13 7.995107e-13 8.11696e-13 3.7583567e-13 5.652204e-13 6.1802115e-13
7.9151193e-13 7.6889927e-13 8.1236737e-13 8.2195237e-13 2.5462808e-13 4.1842346e-13 4.5236422e-13 6.153264e-13
5.8515676e-13 6.192815e-13 6.0495863e-13 2.5370298e-13 4.1042774e-13 4.2860027e-13 5.9254446e-13 5.5448024e-13
5.846194e-13 5.722561e-13 1.4407638e-12 2.186422e-12 2.5284566e-12 2.9302758e-12 3.2881029e-12 3.732639e-12
4.2055556e-12 2.0286416e-12 2.9404936e-12 3.3487566e-12 3.9148463e-12 4.475493e-12 4.8977155e-12 5.4483805e-12
3.7206566e-12 5.137344e-12 5.74493e-12 6.5422255e-12 7.218953e-12 7.891105e-12 8.48978e-12 4.044407e-12
5.734846e-12 6.3411732e-12 7.122596e-12 7.835828e-12 8.602392e-12 9.2432615e-12 4.21626e-12 5.9713037e-12
6.506303e-12 7.206196e-12 7.927936e-12 8.567952e-12 9.300558e-12 2.7504693e-12 4.149406e-12 4.52942e-12
5.08542e-12 5.631408e-12 6.171253e-12 6.77689e-12 2.8586992e-12 4.297127e-12 4.4317714e-12 4.9681947e-12
5.372657e-12 5.946012e-12 6.507232e-12 2.3167178e-12 3.4658327e-12 4.240731e-12 5.074476e-12 5.805431e-12
6.531729e-12 7.434522e-12 3.1676825e-12 4.5894486e-12 5.4072515e-12 6.4239677e-12 7.420826e-12 8.147856e-12
9.1023656e-12 5.541623e-12 7.608201e-12 8.7158804e-12 9.9808495e-12 1.1147421e-11 1.2092547e-11 1.3145258e-11
5.891787e-12 8.2737645e-12 9.404331e-12 1.0638833e-11 1.18497104e-11 1.2932533e-11 1.3950187e-11 6.0638014e-12
8.611133e-12 9.5655974e-12 1.06911285e-11 1.1861258e-11 1.2761792e-11 1.3984665e-11 3.9887312e-12 6.0146337e-12
6.7579904e-12 7.714096e-12 8.685434e-12 9.5112815e-12 1.0487743e-11 4.265936e-12 6.332905e-12 6.7803354e-12
7.697369e-12 8.479117e-12 9.305607e-12 1.0167974e-11 2.1030803e-12 3.2085283e-12 3.8947344e-12 4.6855393e-12
5.3327668e-12 6.088744e-12 6.8972918e-12 2.9001508e-12 4.2695235e-12 5.002639e-12 5.9701723e-12 6.8666123e-12
7.583357e-12 8.4340234e-12 5.138241e-12 7.156854e-12 8.192572e-12 9.411641e-12 1.0460852e-11 1.14580775e-11
1.23733445e-11 5.497004e-12 7.772929e-12 8.863995e-12 1.0048163e-11 1.1124551e-11 1.2278166e-11 1.3260463e-11
5.6793715e-12 8.1030235e-12 8.952904e-12 1.0085166e-11 1.11681255e-11 1.2104708e-11 1.3226324e-11 3.7031914e-12
5.6250087e-12 6.324405e-12 7.2706936e-12 8.083512e-12 8.995522e-12 9.823104e-12 3.9393384e-12 5.9299067e-12
6.305666e-12 7.2057117e-12 7.920154e-12 8.746871e-12 9.5239944e-12 2.396138e-12 3.7778617e-12 4.825359e-12
6.011808e-12 6.7643287e-12 7.878671e-12 8.891801e-12 3.2074501e-12 4.890431e-12 5.9698115e-12 7.323606e-12
00000000: 1399 582b d8ec b62b 8bfc d12b a29a 1d2c
00000010: 6149 052c 1791 152c 7e02 122c df90 972b
00000020: 53f9 f02b e183 052c 973f 3f2c f51c 2f2c
00000030: 2570 3d2c 504b 3e2c fd97 102c d8b0 502c
00000040: 9b02 642c 9785 932c 0734 8b2c c5ad 962c
00000050: 0cde 982c ba09 1b2c 4cab 612c 4030 7a2c
00000060: 8b47 9c2c 9b48 972c 4377 a32c c040 a72c
00000070: 9a5e 212c 9fc4 6b2c 1038 7f2c dccb 9d2c
00000080: 2b27 972c 0da2 a42c eb63 a92c ca37 cf2b
00000090: f8de 232c c911 322c 8311 6d2c 8ff7 592c
000000a0: 8654 6e2c b0b5 6f2c 7c9c d92b 087a 292c
000000b0: 134f 2f2c fba7 682c 9b17 532c 10af 662c
000000c0: 02d8 682c adb2 192a 0756 8a2a c07a 9e2a
000000d0: a478 f22a 4b9e d42a 38d7 df2a a21c d52a
000000e0: 8978 4c2a 96c8 ad2a 6e54 c32a a0bd 0e2b
000000f0: bbee 022b 3e48 072b ff3e 032b 6b80 b52a
00000100: 9183 0b2b 9442 1b2b e810 4e2b 0642 462b
00000110: bd82 512b e495 522b 2536 c72a 225d 162b
00000120: 77b0 282b 830d 5c2b 8432 542b d10a 612b
00000130: dc78 642b a193 d32a 6c18 1f2b 1ef5 2d2b
00000140: 72ca 5e2b 086d 582b 3da9 642b e95b 672b
00000150: c657 8f2a 2d8d eb2a 8ea8 fe2a f132 2d2b
00000160: fdb4 242b ef4f 2e2b dd47 2a2b 74d2 8e2a
00000170: df0c e72a cf47 f12a 54c9 262b 8312 1c2b
00000180: 448e 242b 6613 212b fdc4 ca2b 14db 192c
00000190: a0ec 312c 2833 4e2c 3261 672c a054 832c
000001a0: 47f8 932c c2c0 0e2c 39eb 4e2c d6a5 6b2c
000001b0: cdbd 892c a877 9d2c b352 ac2c a6b2 bf2c
000001c0: b2e8 822c 15c1 b42c bb21 ca2c 212f e62c
000001d0: 8cfe fd2c 61d2 0a2d 925a 152d c84c 8e2c
000001e0: e7c6 c92c 361c df2c a49a fa2c 6fd9 092d
000001f0: bb55 172d f39b 222d b258 942c b918 d22c
00000200: 91eb e42c a58b fd2c 4078 0b2d a0ba 162d
00000210: fd9d 232d 0d8c 412c 87fe 912c 635d 9f2c
00000220: 64ed b22c 3723 c62c b521 d92c cc70 ee2c
00000230: bf29 492c 1431 972c d9ed 9b2c 85cd ae2c
00000240: 9808 bd2c ea34 d12c eff3 e42c 4706 232c
00000250: e4e2 732c 1c35 952c d18a b22c ac42 cc2c
00000260: 96d0 e52c 1cca 022d e5e7 5e2c 147a a12c
00000270: 3140 be2c f505 e22c 6e8c 022d ae56 0f2d
00000280: 6921 202d 81fa c22c 4bd8 052d d654 192d
00000290: c095 2f2d 851b 442d fdbb 542d fb40 672d
000002a0: 804c cf2c b98d 112d 5771 252d 0b29 3b2d
000002b0: 5a76 502d f382 632d 0f6a 752d de59 d52c
000002c0: 187d 172d 9f47 282d 9014 3c2d 5baa 502d
000002d0: 0082 602d 5505 762d 4c57 8c2c 019f d32c
000002e0: 91c6 ed2c 33b5 072d b8cb 182d 0153 272d
000002f0: 9880 382d 2318 962c bdd1 de2c d58f ee2c
00000300: de69 072d 8c2a 152d bab4 232d 7ce0 322d
00000310: bafd 132c b5c7 612c a608 892c 96db a42c
00000320: 4ba1 bb2c 883a d62c 48ad f22c 7914 4c2c
00000330: 7338 962c c403 b02c 880e d22c f298 f12c
00000340: 6768 052d 775f 142d 29c9 b42c 36cf fb2c
00000350: 1020 102d 4392 252d 7d07 382d 9892 492d
00000360: 97ac 592d 9c68 c12c 29be 082d e2ef 1b2d
00000370: e7c4 302d 86b4 432d f2ff 572d d147 692d
00000380: 3bd3 c72c c68c 0e2d 4c80 1d2d 8d6b 312d
00000390: c478 442d c2f2 542d 11ae 682d 624b 822c
000003a0: 93e9 c52c 2d85 de2c 96d0 ff2c e734 0e2d
000003b0: 3b40 1e2d 54cf 2c2d 689a 8a2c daa3 d02c
000003c0: 64dc dd2c 4887 fd2c 3455 0b2d 68e0 192d
000003d0: 428c 272d fc9c 282c f4eb 842c f8c6 a92c
000003e0: 8d85 d32c a8ff ed2c 619a 0a2d 1d6d 1c2d
000003f0: 49b4 612c 1611 ac2c 480b d22c 97d6 002d

exp_avg f4 [12]
2.21432e-06 2.4211015e-05 6e-45 6e-45 6e-45 -1.010634e-13 5.790491e-06 1.942202e-05
2.8689549e-06 6e-45 4.38095e-06 -3.0892345e-06
00000000: ba99 1436 c218 cb37 0400 0000 0400 0000
00000010: 0400 0000 1593 e3a9 f04b c236 78ec a237
00000020: 4588 4036 0400 0000 1300 9336 a550 4fb6

exp_avg_sq f4 [12]
7.469557e-10 3.5502984e-07 1.4574912e-17 1.03647114e-16 5.211199e-17 8.632802e-13 2.6593994e-09 5.0406616e-06
2.6622652e-07 2.5174142e-17 1.5650154e-06 1.3077711e-06
00000000: 5652 4d30 ee9a be34 0a6e 8623 75fe ee24
00000010: fb52 7024 e5fd 722b a6c0 3631 f422 a936
00000020: e5ed 8e34 c330 e823 850d d235 ac86 af35

exp_avg f4 [8, 12, 5, 5]
-7.207124e-08 -3.102953e-08 -1.0613973e-08 -1.2243595e-08 -5.4002967e-09 -3.681519e-08 7.865046e-09 4.0163204e-08
3.877814e-08 1.8486588e-08 -1.5724977e-08 3.3291503e-08 6.5326034e-08 6.0938774e-08 2.648051e-08 -6.086368e-08
-2.2418709e-08 1.8845231e-08 3.8016374e-08 2.7261079e-08 -1.5046461e-07 -1.2436782e-07 -2.5496355e-08 2.1078856e-08
1.9352976e-08 3.4596612e-06 4.068667e-06 5.218287e-06 5.558402e-06 4.9044306e-06 2.7022988e-06 4.1197445e-06
5.5334817e-06 6.1271567e-06 5.772783e-06 1.7024131e-06 2.0233228e-06 3.7317104e-06 5.6553727e-06 6.568146e-06
4.642388e-07 4.9582883e-07 2.065205e-06 4.034294e-06 5.0277044e-06 -6.082491e-07 -4.837652e-07 1.3737814e-06
3.6743402e-06 4.8170973e-06 0.0 0.0 0.0 0.0 0.0 0.0
0.0 0.0 0.0 0.0 0.0 0.0 0.0 0.0
0.0 0.0 0.0 0.0 0.0 0.0 0.0 0.0
0.0 0.0 0.0 0.0 0.0 -6e-45 -6e-45 0.0
6e-45 0.0 -6e-45 -6e-45 -6e-45 0.0 0.0 -6e-45
-6e-45 -6e-45 0.0 0.0 -6e-45 -6e-45 -6e-45 0.0
0.0 -6e-45 -6e-45 -6e-45 6e-45 -6e-45 -6e-45 6e-45
6e-45 0.0 0.0 6e-45 -6e-45 -6e-45 0.0 0.0
6e-45 6e-45 6e-45 0.0 0.0 0.0 0.0 0.0
0.0 0.0 0.0 0.0 0.0 6e-45 6e-45 6e-45
6e-45 6.2719317e-16 6e-45 6e-45 6e-45 6e-45 6e-45 6e-45
6e-45 -1.7448109e-15 -8.498742e-32 -1.3396185e-14 6e-45 6e-45 6e-45 6e-45
6e-45 6e-45 6e-45 6e-45 6e-45 6e-45 5.350324e-07 9.0876756e-07
1.8085431e-06 1.821446e-06 1.2242141e-06 1.12076386e-07 2.059224e-07 -3.0187312e-08 2.444582e-07 3.525606e-07
-8.0415674e-07 -2.5177803e-07 1.169725e-07 7.585316e-07 1.5628425e-06 -9.6658015e-09 1.5112408e-07 -3.8977603e-08
-9.0451415e-08 1.631357e-08 -6.956591e-08 2.057953e-07 2.928586e-07 4.2311814e-08 2.6828278e-08 1.1296757e-05
1.2383235e-05 1.2926677e-05 1.2785447e-05 1.2697024e-05 1.3462592e-05 1.5212383e-05 1.6115991e-05 1.5588228e-05
1.4464705e-05 1.5642485e-05 1.7756787e-05 1.9825677e-05 1.9965142e-05 2.02126e-05 1.4253374e-05 1.7360948e-05
2.0348201e-05 2.1214424e-05 2.1462149e-05 1.1398729e-05 1.4812324e-05 1.8837258e-05 1.9927993e-05 2.0018068e-05
2.8198822e-06 3.6416902e-06 3.9582133e-06 3.2566525e-06 2.1431981e-06 1.0042638e-06 1.9138981e-06 2.0349337e-06
1.1285647e-06 4.1908962e-07 9.441378e-07 1.7057685e-06 1.120283e-06 1.494637e-07 7.6909447e-07 2.4753464e-07
1.6229179e-06 1.4786485e-06 5.519517e-07 -7.4073375e-07 5.336884e-07 1.6938699e-06 1.5082604e-06 4.796397e-07
-1.2599621e-06 0.0 0.0 0.0 0.0 0.0 0.0 0.0
0.0 0.0 0.0 -6e-45 -6e-45 -6e-45 -6e-45 -6e-45
0.0 0.0 0.0 0.0 0.0 0.0 0.0 0.0
0.0 0.0 7.072193e-06 7.745049e-06 7.763003e-06 7.968428e-06 8.653021e-06 8.938164e-06
00000000: 95c5 9ab3 5445 05b3 bf58 36b2 e657 52b2
00000010: 838d b9b1 bb1e 1eb3 d71e 0732 e97f 2c33
00000020: 048d 2633 70cc 9e32 9713 87b2 65fc 0e33
00000030: 5e49 8c33 72dd 8233 4277 e332 29b4 82b3
00000040: 4393 c0b2 1ae1 a132 7247 2333 bf2b ea32
00000050: 668f 21b4 f789 05b4 1403 dbb2 e510 b532
00000060: a53d a632 872c 6836 9585 8836 be18 af36
00000070: 4f82 ba36 bd90 a436 2459 3536 563c 8a36
00000080: 3fac b936 e097 cd36 d4b3 c136 787e e435
00000090: 6cc8 0736 4c6e 7a36 48c3 bd36 f263 dc36
000000a0: 7f3c f934 1919 0535 f497 0a36 525e 8736
000000b0: a7b3 a836 8f46 23b5 17dc 01b5 c562 b835
000000c0: af94 7636 8da2 a136 0000 0000 0000 0000
000000d0: 0000 0000 0000 0000 0000 0000 0000 0000
000000e0: 0000 0000 0000 0000 0000 0000 0000 0000
000000f0: 0000 0000 0000 0000 0000 0000 0000 0000
00000100: 0000 0000 0000 0000 0000 0000 0000 0000
00000110: 0000 0000 0000 0000 0000 0000 0000 0000
00000120: 0000 0000 0000 0000 0000 0000 0000 0000
00000130: 0000 0000 0400 0080 0400 0080 0000 0000
00000140: 0400 0000 0000 0000 0400 0080 0400 0080
00000150: 0400 0080 0000 0000 0000 0000 0400 0080
00000160: 0400 0080 0400 0080 0000 0000 0000 0000
00000170: 0400 0080 0400 0080 0400 0080 0000 0000
00000180: 0000 0000 0400 0080 0400 0080 0400 0080
00000190: 0400 0000 0400 0080 0400 0080 0400 0000
000001a0: 0400 0000 0000 0000 0000 0000 0400 0000
000001b0: 0400 0080 0400 0080 0000 0000 0000 0000
000001c0: 0400 0000 0400 0000 0400 0000 0000 0000
000001d0: 0000 0000 0000 0000 0000 0000 0000 0000
000001e0: 0000 0000 0000 0000 0000 0000 0000 0000
000001f0: 0000 0000 0400 0000 0400 0000 0400 0000
00000200: 0400 0000 b0c6 3426 0400 0000 0400 0000
00000210: 0400 0000 0400 0000 0400 0000 0400 0000
00000220: 0400 0000 2974 fba6 d4a3 dc8b 0053 71a8
00000230: 0400 0000 0400 0000 0400 0000 0400 0000
00000240: 0400 0000 0400 0000 0400 0000 0400 0000
00000250: 0400 0000 0400 0000 269f 0f35 08f2 7335
00000260: 11bd f235 6878 f435 ad4f a435 a5ae f033
00000270: 851b 5d34 4da7 01b3 143e 8334 8f47 bd34
00000280: 3bdd 57b5 1c2c 87b4 5032 fb33 e59d 4b35
00000290: dcc2 d135 a50e 26b2 ac44 2234 5468 27b3
000002a0: 313e c2b3 eb21 8c32 4364 95b3 95f8 5c34
000002b0: 2e3a 9d34 55ba 3533 0274 e632 3487 3d37
000002c0: 97c1 4f37 a8df 5837 1481 5637 4e05 5537
000002d0: 64dd 6137 b038 7f37 d430 8737 77c3 8237
000002e0: 6fad 7237 fb37 8337 69f4 9437 514f a637
000002f0: d17a a737 3a8e a937 c621 6f37 5aa2 9137
00000300: 6eb1 aa37 a1f5 b137 9d09 b437 2b3d 3f37
00000310: 7282 7837 b404 9e37 0a2b a737 79ec a737
00000320: 353d 3d36 c363 7436 cbd0 8436 dd8c 5a36
00000330: ddd3 0f36 3eca 8635 8570 0036 e58f 0836
00000340: 3079 9735 3dff e034 a870 7d35 c2f1 e435
00000350: a15c 9635 457c 2034 c573 4e35 e7e4 8434
00000360: 09d3 d935 fa75 c635 d529 1435 d6d6 46b5
00000370: ca42 0f35 ed58 e335 6f6f ca35 97c0 0035
00000380: f81b a9b5 0000 0000 0000 0000 0000 0000
00000390: 0000 0000 0000 0000 0000 0000 0000 0000
000003a0: 0000 0000 0000 0000 0000 0000 0400 0080
000003b0: 0400 0080 0400 0080 0400 0080 0400 0080
000003c0: 0000 0000 0000 0000 0000 0000 0000 0000
000003d0: 0000 0000 0000 0000 0000 0000 0000 0000
000003e0: 0000 0000 0000 0000 ad4d ed36 bbf0 0137
000003f0: d83d 0237 23b0 0537 712c 1137 1ff5 1537

exp_avg_sq f4 [8, 12, 5, 5]
1.045791e-13 6.7289246e-14 3.8479782e-14 8.0619495e-15 1.5701742e-16 9.6667276e-14 6.098812e-14 3.7906063e-14
8.875941e-15 1.7922855e-16 3.0391377e-13 3.0075207e-13 2.675605e-13 2.0841244e-13 1.8997301e-13 4.0204073e-13
3.957435e-13 3.5040878e-13 2.6943598e-13 2.4331592e-13 1.574105e-13 1.2453953e-13 9.3148254e-14 5.5216245e-14
4.8500625e-14 3.3753953e-09 3.5542809e-09 4.0309858e-09 4.6937e-09 4.4904884e-09 1.8504771e-09 2.0280972e-09
2.3691527e-09 2.9369815e-09 2.854959e-09 2.8726719e-08 3.235047e-08 3.494332e-08 3.7422073e-08 3.725127e-08
1.21279395e-08 1.3638448e-08 1.4825614e-08 1.6134523e-08 1.6283133e-08 2.5703881e-09 2.8860385e-09 3.121012e-09
3.5359031e-09 3.6926264e-09 0.0 0.0 0.0 0.0 0.0 0.0
0.0 0.0 0.0 0.0 0.0 0.0 0.0 0.0
0.0 0.0 0.0 0.0 0.0 0.0 0.0 0.0
0.0 0.0 0.0 0.0 0.0 4.387412e-21 1.1471047e-21 0.0
2.1966955e-23 0.0 1.0426707e-20 2.4183425e-21 4.052644e-24 0.0 0.0 1.05726736e-23
2.1435002e-21 2.614648e-22 0.0 0.0 9.5205704e-23 4.821711e-22 1.0079905e-21 0.0
0.0 3.1171728e-25 4.787148e-22 3.108429e-22 7.716369e-21 1.02613177e-19 1.6223871e-18 3.2577352e-18
8.85225e-20 0.0 0.0 1.1706533e-19 8.5784704e-20 1.2225861e-21 0.0 0.0
7.342925e-20 1.7656895e-21 1.95577e-24 0.0 0.0 0.0 0.0 0.0
0.0 0.0 0.0 0.0 0.0 3.0348617e-15 2.9317155e-15 6.7456603e-15
5.8211628e-15 8.17064e-15 3.3445873e-15 3.1947717e-15 7.568913e-15 6.7353006e-15 9.44414e-15 2.8953877e-15
2.9058564e-15 7.637616e-15 6.7303675e-15 8.928721e-15 3.914346e-15 3.861531e-15 8.71425e-15 7.478769e-15
1.1382302e-14 3.734329e-15 3.6102213e-15 8.634401e-15 7.464134e-15 1.1237869e-14 1.0189605e-09 1.0167587e-09
1.2454687e-09 1.1896897e-09 1.0831379e-09 5.4012854e-13 5.301697e-13 2.5157018e-12 1.6329894e-12 1.5886165e-12
1.2321805e-08 1.3418692e-08 1.3863094e-08 1.37496805e-08 1.3296277e-08 6.783505e-13 2.3129434e-13 7.6707027e-13
1.9121569e-14 1.6186728e-14 6.1641756e-13 2.2198642e-13 3.2488633e-13 1.4142571e-14 1.32889805e-14 1.5411933e-08
1.5539717e-08 2.0045643e-08 2.0706977e-08 1.8859968e-08 2.5051387e-08 2.565966e-08 3.254671e-08 3.3529595e-08
3.031864e-08 1.6701293e-07 1.7890531e-07 1.994995e-07 2.0144867e-07 1.8921816e-07 2.6146841e-07 2.8168643e-07
3.0804424e-07 3.099992e-07 2.935979e-07 2.5042934e-07 2.6964838e-07 2.903021e-07 2.9146884e-07 2.7693955e-07
4.409813e-10 4.5518295e-10 6.0423355e-10 5.656314e-10 5.333518e-10 3.8574217e-11 3.9080524e-11 7.6309695e-11
6.626141e-11 7.4196704e-11 2.1189124e-09 2.1944715e-09 2.3210514e-09 2.0983344e-09 2.0012094e-09 9.410794e-11
6.003504e-11 5.5094863e-11 3.413057e-11 4.6448356e-11 7.383e-11 4.8296842e-11 4.080413e-11 3.1575655e-11
4.4724627e-11 0.0 0.0 0.0 0.0 0.0 0.0 0.0
0.0 0.0 0.0 4.97414e-22 6.1802337e-22 1.2387131e-21 9.912232e-22 2.6966144e-22
0.0 0.0 0.0 0.0 0.0 0.0 0.0 0.0
0.0 0.0 6.335382e-09 6.4286962e-09 7.886305e-09 8.7492085e-09 8.09637e-09 1.20926185e-08
00000000: bf7d eb29 9c85 9729 2b4c 2d29 2e3b 1128
00000010: 5d07 3525 e4ac d929 4255 8929 b7b6 2a29
00000020: 0ee5 1f28 eea2 4e25 9716 ab2a f14e a92a
00000030: 889f 962a cca6 6a2a fee3 552a 2d54 e22a
00000040: a6c8 de2a 3a43 c52a d1ad 972a 85f9 882a
00000050: 7d3a 312a 1338 0c2a 50c0 d129 ffab 7829
00000060: 6a6d 5a29 95f4 6731 923f 7431 ed80 8a31
00000070: 3946 a131 c14a 9a31 e053 fe30 aa5e 0b31
00000080: 93ce 2231 edd3 4931 f830 4431 b9c2 f632
00000090: b8f1 0a33 9614 1633 01ba 2033 34fe 1f33
000000a0: 3e5b 5032 874e 6a32 bdb3 7e32 3198 8a32
000000b0: fdde 8b32 bfa2 3031 ba53 4631 6c79 5631
000000c0: 44fc 7231 5fc1 7d31 0000 0000 0000 0000
000000d0: 0000 0000 0000 0000 0000 0000 0000 0000
000000e0: 0000 0000 0000 0000 0000 0000 0000 0000
000000f0: 0000 0000 0000 0000 0000 0000 0000 0000
00000100: 0000 0000 0000 0000 0000 0000 0000 0000
00000110: 0000 0000 0000 0000 0000 0000 0000 0000
00000120: 0000 0000 0000 0000 0000 0000 0000 0000
00000130: 0000 0000 72c0 a51d 7758 ad1c 0000 0000
00000140: 8c73 d419 0000 0000 76f4 441e 8cb9 361d
00000150: 71c7 9c18 0000 0000 0000 0000 5881 4c19
00000160: 53f5 211d b80b 9e1b 0000 0000 0000 0000
00000170: 7a31 e61a 2fba 111c be52 981c 0000 0000
00000180: 0000 0000 93f1 c016 c3ae 101c 9ce4 bb1b
00000190: 12c2 111e dc49 f21f 0d6c ef21 e160 7022
000001a0: 9104 d11f 0000 0000 0000 0000 d334 0a20
000001b0: ac8d ca1f 82c0 b81c 0000 0000 0000 0000
000001c0: 4261 ad1f 6769 051d 0452 1718 0000 0000
000001d0: 0000 0000 0000 0000 0000 0000 0000 0000
000001e0: 0000 0000 0000 0000 0000 0000 0000 0000
000001f0: 0000 0000 51af 5a27 9b40 5327 bc09 f327
00000200: c0ba d127 6d30 1328 bf00 7127 2335 6627
00000210: 7359 0828 2faa f227 6921 2a28 7aa2 5027
00000220: 9763 5127 4996 0928 af7c f227 75d8 2028
00000230: 7807 8d27 5620 8b27 63fb 1c28 bcb9 0628
00000240: 9a0b 4d28 1b8b 8627 6a12 8227 258b 1b28
00000250: 3e76 0628 8671 4a28 7c0b 8c30 04be 8b30
00000260: 092d ab30 7c82 a330 87dd 9430 5d08 182b
00000270: c13a 152b db06 312c a5d2 e52b f193 df2b
00000280: dfaf 5332 0888 6632 882a 6e32 bc37 6c32
00000290: a56d 6432 4ef0 3e2b 0735 822a 3de9 572b
000002a0: 563b ac28 0ecc 9128 9181 2d2b 3bef 792a
000002b0: 0ee5 b62a 19c5 7e28 9b64 6f28 3363 8432
000002c0: 337c 8532 d630 ac32 20df b132 8201 a232
000002d0: 9530 d732 306a dc32 7cc9 0b33 2e02 1033
000002e0: b237 0233 2a54 3334 1e19 4034 0136 5634
000002f0: ca4d 5834 e42b 4b34 f25f 8c34 b03a 9734
00000300: 4761 a534 f76d a634 ca9f 9d34 bf72 8634
00000310: 31c4 9034 d1da 9b34 2c7b 9c34 48ae 9434
00000320: 9a6e f22f 4e3d fa2f 2817 2630 c57a 1b30
00000330: 4c9b 1230 b5a6 292e c2e0 2b2e 8ace a72e
00000340: dcb5 912e 0829 a32e 4d9c 1131 8dcd 1631
00000350: 5e80 1f31 4a32 1031 a685 0931 0ff2 ce2e
00000360: b904 842e 4d4f 722e 9b1b 162e 3348 4c2e
00000370: 985a a22e 6969 542e 5e75 332e 07df 0a2e
00000380: 74b3 442e 0000 0000 0000 0000 0000 0000
00000390: 0000 0000 0000 0000 0000 0000 0000 0000
000003a0: 0000 0000 0000 0000 0000 0000 8b55 161c
000003b0: 3ec9 3a1c 6430 bb1c 17ca 951c 1600 a31b
000003c0: 0000 0000 0000 0000 0000 0000 0000 0000
000003d0: 0000 0000 0000 0000 0000 0000 0000 0000
000003e0: 0000 0000 0000 0000 9cae d931 69e3 dc31
000003f0: 567c 0732 6d4f 1632 3618 0b32 e6bf 4f32

exp_avg f4 [8]
2.352268e-06 -1.145282e-05 1.7175626e-05 -2.3214414e-05 4.251081e-05 -3.0759095e-06 6e-45 8.431534e-06
00000000: a8db 1d36 7d25 40b7 6014 9037 93bc c2b7
00000010: a24d 3238 b96b 4eb6 0400 0000 2a75 0d37

exp_avg_sq f4 [8]
6.081104e-08 5.055457e-06 8.344605e-09 2.6586571e-08 6.3222406e-06 9.7791514e-08 1.8420261e-14 1.5020452e-06
00000000: 3997 8233 0ca2 a936 f65b 0f32 7d60 e432
00000010: a223 d436 7401 d233 3bea a528 e199 c935

exp_avg f4 [3, 8, 3, 3]
2.755384e-06 4.3641976e-06 4.4438906e-07 1.3885293e-06 -1.7618257e-06 1.7691692e-06 1.7645265e-06 4.208044e-06
3.4078896e-06 7.371474e-05 0.00010677153 0.000113365255 7.723377e-05 9.445009e-05 0.00010824257 7.539533e-05
8.227692e-05 0.000118558644 -1.1627137e-06 -2.7654735e-06 5.4576644e-06 -9.857704e-07 -4.94917e-07 4.417593e-06
-8.5131956e-07 2.2239715e-06 1.7582413e-05 4.0387167e-06 7.1306554e-06 4.977318e-07 -1.7324161e-06 7.1621653e-06
7.599623e-08 -7.934208e-07 3.9222473e-06 1.142872e-09 0.00022099646 0.00027695822 0.00029393763 0.00022050101
0.00026803635 0.00028853354 0.00024761772 0.00029414898 0.00031019817 0.00013472638 0.00011478476 9.630492e-05
0.00012729167 6.605769e-05 8.952956e-05 9.038475e-05 0.00010979439 0.00014451264 -6e-45 6e-45
-6e-45 6e-45 6e-45 -6e-45 0.0 0.0 -6e-45 0.00019636398
0.00029106077 0.00032070762 0.00017684352 0.0002607435 0.00027303776 0.00017383326 0.00025549313 0.00029723687
2.863833e-12 1.6792981e-08 9.34062e-09 -3.185318e-06 -7.6294424e-07 4.8300612e-06 -1.6471997e-06 -2.0429768e-06
-2.7421377e-06 1.1675917e-08 3.7231597e-08 1.4196412e-07 -3.6881581e-06 -4.426376e-06 2.3021397e-07 -3.9909437e-06
-5.1608663e-06 -8.3635676e-08 5.793128e-31 3.302439e-30 8.404242e-08 2.3909263e-07 -3.693944e-06 -3.50855e-06
-3.6119026e-08 -2.7263677e-06 -2.0841294e-06 7.733863e-21 4.7953865e-21 7.360568e-39 2.7774402e-06 9.866588e-07
-1.4423722e-07 8.9054316e-07 2.9816778e-07 1.1393613e-08 1.8600046e-07 1.8986425e-07 1.4722588e-07 -2.6798903e-06
-1.0632925e-06 4.3062937e-06 -6.775597e-07 4.418992e-06 1.0219614e-05 1.4394212e-07 2.2950793e-07 1.8994024e-07
-3.9683196e-06 6.807218e-07 9.841946e-06 3.5135372e-07 4.7739163e-06 -2.520799e-06 6e-45 -6e-45
-6e-45 -6e-45 -6e-45 -6e-45 -6e-45 -6e-45 -6e-45 2.2987024e-07
2.0848839e-07 1.65602e-07 -1.1929333e-06 -1.8071041e-06 1.8973253e-06 -3.993247e-06 -2.8887011e-06 1.8857836e-06
1.0892674e-05 9.192771e-06 1.5560781e-05 5.2511414e-06 3.4536936e-06 8.001525e-06 2.9796931e-06 1.7425511e-06
1.5367449e-06 -0.00013749428 -0.00012606637 -0.00012325199 -9.477472e-05 -0.00010872589 -8.503698e-05 -6.3925814e-05
-6.84033e-05 -6.604328e-05 -3.9337905e-07 -9.250896e-06 -1.5478714e-05 -1.4676494e-06 -1.7348271e-05 -1.8974792e-05
-8.590002e-06 -1.5354315e-05 -1.8734007e-05 7.900458e-06 1.8747332e-06 8.0564996e-07 1.0253113e-05 1.4764113e-06
3.8531257e-06 9.337414e-06 2.844863e-06 2.8751622e-06 -0.0002709047 -0.00019242226 -0.00018664367 -0.0002335656
-0.00015403298 -0.00014564484 -0.0002284088 -0.00015931534 -0.00015458597 -2.38022e-05 -5.0354574e-05 -2.0068612e-05
-2.0992251e-05 -5.00453e-05 -6.8836116e-06 -6.107518e-05 -2.3583088e-05 -2.126635e-05 -6e-45 0.0
0.0 6e-45 -6e-45 0.0 0.0 0.0 0.0 -0.00034168
-0.00023394005 -0.00020521214 -0.0002814139 -0.00020748624 -0.00016603268 -0.00025809396 -0.00019071926 -0.00015750925
00000000: 23e9 3836 2c70 9236 5e94 ee34 815d ba35
00000010: df77 ecb5 3174 ed35 abd4 ec35 d332 8d36
00000020: 19b3 6436 4d97 9a38 87ea df38 82be ed38
00000030: 91f8 a138 8213 c638 4a00 e338 8f1d 9e38
00000040: 168c ac38 b0a2 f838 8a0e 9cb5 7996 39b6
00000050: fb20 b736 d04e 84b5 70da 04b5 d63a 9436
00000060: 3c86 64b5 8a3f 1536 f27d 9337 5084 8736
00000070: dd43 ef36 de9b 0535 5d85 e8b5 8852 f036
00000080: 5f33 a333 76fb 54b5 d99b 8336 3c13 9d30
00000090: 49bb 6739 b434 9139 a41b 9a39 4a36 6739
000000a0: 3b87 8c39 5146 9739 b0d2 8139 0238 9a39
000000b0: 18a2 a239 5645 0d39 99b8 f038 4ff7 c938
000000c0: 9979 0539 7488 8a38 d1c1 bb38 f18c bd38
000000d0: 6a41 e638 5188 1739 0400 0080 0400 0000
000000e0: 0400 0080 0400 0000 0400 0000 0400 0080
000000f0: 0000 0000 0000 0000 0400 0080 0ee7 4d39
00000100: 8499 9839 a624 a839 126f 3939 66b4 8839
00000110: 8226 8f39 0347 3639 b5f3 8539 75d6 9b39
00000120: 3b86 492c 2840 9032 7b78 2032 59c3 55b6
00000130: 21cd 4cb5 e911 a236 5a15 ddb5 131a 09b6
00000140: 9105 38b6 3a97 4832 93e8 1f33 cd6e 1834
00000150: 1382 77b6 4886 94b6 bc30 7734 f2e9 85b6
00000160: 812b adb6 339b b3b3 6dff 3b0d 7df6 850e
00000170: cf7a b433 a45c 8034 7ae5 77b6 6e74 6bb6
00000180: 4a21 1bb3 a4f6 36b6 12dd 0bb6 ab16 121e
00000190: 222a b51d 4526 5000 0f64 3a36 576d 8435
000001a0: a0df 1ab4 a90d 6f35 de13 a034 a4bd 4332
000001b0: 6bb7 4734 7ddd 4b34 2415 1e34 2ad8 33b6
000001c0: 74b6 8eb5 c87e 9036 8ce1 35b5 da46 9436
000001d0: e874 2b37 828e 1a34 a96e 7634 60f2 4b34
000001e0: 9b27 85b6 d9ba 3635 d61e 2537 b0a1 bc34
000001f0: a12f a036 ff2a 29b6 0400 0000 0400 0080
00000200: 0400 0080 0400 0080 0400 0080 0400 0080
00000210: 0400 0080 0400 0080 0400 0080 40d2 7634
00000220: dadc 5f34 55d0 3134 e01c a0b5 a08b f2b5
00000230: 9aa7 fe35 bbfd 85b6 82db 41b6 081b fd35
00000240: aebf 3637 a73a 1a37 8688 8237 f632 b036
00000250: 01c6 6736 4a3e 0637 bdf6 4736 9ae1 e935
00000260: 2742 ce35 572c 10b9 af30 04b9 343d 01b9
00000270: cac1 c6b8 c503 e4b8 e255 b2b8 e90f 86b8
00000280: be73 8fb8 b780 8ab8 9b31 d3b4 4c34 1bb7
00000290: 49d8 81b7 0dfc c4b5 2187 91b7 0e2c 9fb7
000002a0: c71d 10b7 24cd 80b7 f926 9db7 358c 0437
000002b0: 589f fb35 d843 5835 c904 2c37 1b29 c635
000002c0: 194a 8136 e3a7 1c37 60ea 3e36 e9f2 4036
000002d0: 3708 8eb9 f5c4 49b9 c7b5 43b9 4ae9 74b9
000002e0: ea83 21b9 3db8 18b9 0581 6fb9 e30d 27b9
000002f0: 5b18 22b9 d6aa c7b7 d033 53b8 0459 a8b7
00000300: 8418 b0b7 bbe7 51b8 c6f9 e6b6 7d15 80b8
00000310: 4cd4 c5b7 2465 b2b7 0400 0080 0000 0000
00000320: 0000 0000 0400 0000 0400 0080 0000 0000
00000330: 0000 0000 0000 0000 0000 0000 8323 b3b9
00000340: ce4d 75b9 372e 57b9 bc8a 93b9 aa90 59b9
00000350: 0f19 2eb9 c950 87b9 d0fb 47b9 1129 25b9

exp_avg_sq f4 [3, 8, 3, 3]
9.698245e-09 1.1534944e-08 1.25623885e-08 3.0290983e-09 3.6390513e-09 3.8504284e-09 1.173943e-10 1.3201583e-10
1.1638976e-10 1.2363474e-05 1.4114005e-05 1.5185695e-05 1.3872953e-05 1.5801164e-05 1.6914399e-05 1.4344717e-05
1.629518e-05 1.7392085e-05 2.8664187e-11 2.0729187e-09 2.6009703e-08 1.0136745e-09 5.584256e-09 3.7111466e-08
8.158115e-09 1.771778e-08 6.190717e-08 6.334573e-09 6.7282655e-09 2.2910773e-12 6.044637e-09 6.312548e-09
6.5161597e-13 4.8187534e-09 5.184054e-09 2.5914622e-13 0.00011023699 0.00012305015 0.000122725 0.000116586154
0.00013018526 0.00012988309 0.00011146518 0.00012453452 0.0001241959 5.5458045e-06 6.3519747e-06 6.466615e-06
5.4617735e-06 6.1605083e-06 6.2353906e-06 4.628067e-06 5.3212584e-06 5.4324123e-06 1.6541761e-17 1.654773e-20
5.460689e-18 8.723061e-19 1.7624093e-20 4.744485e-18 0.0 0.0 3.3241936e-18 0.00013822352
0.00015372294 0.00015534907 0.00014704044 0.00016353435 0.00016517885 0.00014254708 0.00015855588 0.00016044284
1.2281152e-13 1.4736915e-13 1.5962543e-14 1.2949202e-08 1.3915786e-08 1.2854223e-08 1.2918162e-10 1.5586092e-10
1.5125827e-10 6.9314786e-14 7.687334e-14 2.8903944e-13 7.17e-09 1.0930624e-08 1.200549e-08 1.0209444e-07
1.1563349e-07 1.1141115e-07 3.339367e-11 3.3914267e-11 3.2334038e-11 5.5653364e-11 3.180809e-10 5.7322425e-10
3.9600323e-11 1.7234002e-10 3.0996714e-10 7.651864e-14 1.0411543e-13 1.9238268e-13 1.3405516e-10 9.0211285e-12
1.2685731e-12 3.0172437e-11 1.8968134e-12 2.8704144e-13 1.6004633e-11 1.4934779e-11 1.2668778e-11 3.9434718e-07
4.0338153e-07 3.6801785e-07 6.775993e-07 6.9610695e-07 6.37355e-07 2.5701611e-11 2.6142536e-11 2.4353642e-11
3.2298735e-07 3.291144e-07 2.9920082e-07 3.264309e-08 3.4526497e-08 3.1498708e-08 4.1508114e-20 1.2310172e-16
2.018985e-16 4.308497e-20 1.550848e-16 2.3813341e-16 1.0594944e-21 1.4261347e-16 2.273451e-16 3.529381e-11
3.4151515e-11 2.9581445e-11 7.231229e-07 7.41881e-07 6.7730093e-07 1.0782786e-06 1.1119917e-06 1.0168299e-06
2.231693e-09 2.6210278e-09 2.5529028e-09 5.0794506e-09 5.592722e-09 5.7672818e-09 5.6482242e-11 6.762697e-11
7.8233905e-11 2.9402547e-06 3.1398586e-06 2.9198025e-06 3.3099832e-06 3.5921025e-06 3.3758115e-06 4.285593e-06
4.556011e-06 4.245636e-06 1.35432845e-11 6.074318e-09 4.7995474e-09 2.4355522e-09 4.582827e-09 6.0022223e-09
9.342511e-10 1.02275886e-08 9.538632e-09 1.540339e-09 2.102241e-09 1.4348263e-10 1.0334263e-09 1.6615599e-09
1.7307501e-10 8.749581e-10 1.4190303e-09 1.541995e-10 3.2290798e-05 3.218995e-05 2.9753566e-05 3.5643432e-05
3.5552624e-05 3.293901e-05 3.608222e-05 3.591829e-05 3.340733e-05 7.651259e-07 7.4771606e-07 6.6394057e-07
1.4578458e-06 1.4833549e-06 1.3763823e-06 9.846398e-07 9.265602e-07 8.7445034e-07 4.2137456e-20 0.0
0.0 1.5263274e-17 2.3263714e-18 0.0 0.0 0.0 0.0 3.950089e-05
3.944233e-05 3.643194e-05 4.4346147e-05 4.449166e-05 4.12038e-05 4.6151064e-05 4.598991e-05 4.2520114e-05
00000000: 559d 2632 382b 4632 f8d1 5732 7628 5031
00000010: de12 7a31 ba4c 8431 8f13 012f 2727 112f
00000020: 9cf1 ff2e b76c 4f37 31cb 6c37 10c6 7e37
00000030: e1bf 6837 be8c 8437 65e3 8d37 17aa 7037
00000040: a2b1 8837 38e5 9137 0322 fc2d 2c73 0e31
00000050: f16b df32 8051 8b30 a3df bf31 7d64 1f33
00000060: c527 0c32 cf31 9832 d4f1 8433 7ea7 d931
00000070: 732e e731 6138 212c 30b1 cf31 c2e5 d831
00000080: e169 372b 3492 a531 6c1f b231 e8e2 912a
00000090: 092f e738 0607 0139 beaf 0039 b77f f438
000000a0: 5782 0839 3a31 0839 6ac2 e938 7b95 0239
000000b0: 953a 0239 1916 ba36 0c23 d536 cdfb d836
000000c0: 4744 b736 5db6 ce36 9939 d136 cb4a 9b36
000000d0: 438d b236 1148 b636 2192 9823 f549 9c1e
000000e0: c076 c922 cbba 8021 7174 a61e 650a af22
000000f0: 0000 0000 0000 0000 3e48 7522 18f0 1039
00000100: b030 2139 33e5 2239 de2e 1a39 6b7a 2b39
00000110: dc33 2d39 b178 1539 0542 2639 8c3c 2839
00000120: 0346 0a2a 44ec 252a 1ec7 8f28 3177 5e32
00000130: 4612 6f32 78d5 5c32 6509 0e2f f35e 2b2f
00000140: 6b4f 262f 4115 9c29 771a ad29 f9b6 a22a
00000150: fd5b f631 65c9 3b32 b440 4e32 033f db33
00000160: 2f52 f833 ed40 ef33 eedd 122e 1228 152e
00000170: e434 0e2e 1ec4 742e e8dd ae2f 1291 1d30
00000180: 002a 2e2e 677d 3d2f ff67 aa2f fe4d ac29
00000190: 7672 ea29 889a 582a 2c65 132f 8db3 1e2d
000001a0: 2a89 b22b 25b3 042e f479 052c 0897 a12a
000001b0: 3bc7 8c2d 225e 832d 1bdf 5e2d aab6 d334
000001c0: 5690 d834 fd93 c534 45e4 3535 1bdc 3a35
000001d0: b416 2b35 e212 e22d c2f3 e52d 8737 d62d
000001e0: 0b67 ad34 24b1 b034 d9a1 a034 7533 0c33
000001f0: 494a 1433 3249 0733 3b04 441f 37ed 0d25
00000200: ebc5 6825 8876 4b1f f4cc 3225 4a46 8925
00000210: 341b a01c 116c 2425 370e 8325 4c39 1b2e
00000220: 3033 162e bf19 022e a11c 4235 ad25 4735
00000230: c4cf 3535 5fb9 9035 be3f 9535 027a 8835
00000240: 5c5c 1931 9c1d 3431 246f 2f31 5287 ae31
00000250: 1a2a c031 8c29 c631 5a69 782e 9ab6 942e
00000260: c609 ac2e 3151 4536 5cb6 5236 d3f1 4336
00000270: 1421 5e36 da0f 7136 008c 6236 f7cc 8f36
00000280: d6df 9836 bc75 8e36 8841 6e2d 44b6 d031
00000290: 44e9 a431 b05e 2731 f976 9d31 1b3c ce31
000002a0: 0a67 8030 69b5 2f32 59df 2332 dcb3 d330
000002b0: 0477 1031 c5c2 1d2f 7508 8e30 f15c e430
000002c0: 494c 3e2f b481 7030 b107 c330 4d8b 292f
000002d0: fb6f 0738 b203 0738 4c97 f937 d87f 1538
000002e0: 571e 1538 fe27 0a38 fd56 1738 f8a6 1638
000002f0: d91e 0c38 0d63 4d35 a8b6 4835 a639 3235
00000300: 33ab c335 b017 c735 23bc b835 f727 8435
00000310: bbb8 7835 c5bb 6a35 0ffd 461f 0000 0000
00000320: 0000 0000 63c7 8c23 eaa7 2b22 0000 0000
00000330: 0000 0000 0000 0000 0000 0000 c2ad 2538
00000340: e16e 2538 7fce 1838 5000 3a38 8e9c 3a38
00000350: 3ed2 2c38 5492 4138 4ae5 4038 a057 3238

exp_avg f4 [3]
7.539346e-05 -1.6029323e-06 -8.03785e-05
00000000: 8e1c 9e38 5624 d7b5 e190 a8b8

exp_avg_sq f4 [3]
5.440839e-05 2.4229496e-07 1.639201e-05
00000000: 9034 6438 c414 8234 9381 8937

exp_avg f4 [8, 3, 3, 3]
5.2366453e-05 7.7421646e-05 5.3493004e-05 4.1512907e-05 5.8419013e-05 6.867484e-05 4.610363e-05 4.2765296e-05
6.3502746e-05 -3.8329786e-06 -1.3522606e-06 -1.543087e-07 3.637736e-06 2.2997888e-06 3.1163247e-06 1.4312403e-09
3.774951e-09 1.7785411e-09 9.64387e-06 3.265875e-05 3.9049905e-07 6.9269386e-06 3.487958e-05 2.4117631e-05
2.1934795e-05 8.83429e-06 1.3868854e-05 -0.0003559371 -0.00037933298 -0.00034022404 -0.00029847323 -0.0003692028
-0.00036420493 -0.00032504066 -0.00033859705 -0.00033670967 -7.3937726e-06 -1.4584889e-05 -1.9728353e-05 1.024798e-06
4.3936754e-07 -3.6813304e-07 -2.5206928e-21 -3.107042e-21 -4.481508e-21 -0.00013397519 -0.00015150562 -8.85818e-05
-7.06739e-05 -0.0001530228 -0.00011088496 -9.090791e-05 -0.0001234489 -6.889967e-05 -0.00025918384 -0.00025803433
-0.00025929423 -0.00026205412 -0.00026271108 -0.00028058505 -0.00028975838 -0.00030104836 -0.00029240022 -1.2451563e-05
-1.3132936e-05 -1.8891418e-05 -5.9327544e-06 -4.804358e-06 -9.123967e-06 -3.6574364e-09 -4.5307336e-09 -3.955706e-09
-9.0782436e-05 -0.00010700671 -9.577609e-05 -9.941457e-05 -9.421705e-05 -9.821137e-05 -9.779499e-05 -0.00010160548
-8.644249e-05 -0.00018496298 -0.00022597813 -0.00022544363 -0.00021413283 -0.00023930223 -0.00020527294 -0.00020101827
-0.0002458103 -0.0002303852 3.32289e-06 4.7095255e-06 -7.547927e-07 3.2534983e-06 3.301543e-06 3.7241848e-06
-1.3648854e-10 -5.3230353e-10 -4.428805e-10 -3.8443402e-05 -7.660352e-05 -6.923216e-05 -8.288544e-05 -0.00011887871
-5.020863e-05 -2.9160758e-05 -8.7476794e-05 -2.363544e-05 1.0188597e-06 4.4676785e-06 -1.696533e-06 3.675457e-06
1.4265116e-06 2.6268203e-06 4.4858893e-06 4.034953e-06 -9.3420823e-07 7.7860363e-07 4.8154703e-07 7.350039e-10
-1.1953354e-07 7.474366e-09 -3.3155818e-08 6.720317e-14 5.635367e-32 6e-45 2.6665802e-07 -1.851267e-06
-5.2823566e-06 5.960685e-06 -1.0685254e-05 -2.3924208e-06 1.9877095e-06 -9.207455e-06 2.0142909e-06 9.213074e-05
6.772097e-05 4.787588e-05 9.6776355e-05 9.7070806e-05 7.557269e-05 9.24725e-05 8.7200955e-05 7.49281e-05
2.868335e-06 6.161593e-06 8.621816e-06 2.269816e-06 5.4965326e-06 8.178157e-06 2.2000695e-09 1.4410406e-09
9.188549e-10 3.468953e-05 8.926716e-06 2.07901e-06 3.5094745e-05 3.6763686e-05 2.9827823e-05 2.9638752e-05
2.0982776e-05 1.9790576e-05 0.00025959747 0.0002456724 0.0002135672 0.0002356701 0.0002483389 0.00023538106
0.00026496427 0.00026281615 0.00023724898 -2.6957167e-07 4.504324e-06 9.647776e-06 -8.9434127e-07 5.6145177e-07
5.62847e-06 4.0266785e-09 4.130826e-09 3.498666e-09 0.00010396668 9.607265e-05 5.234233e-05 8.718032e-05
9.377893e-05 7.938887e-05 0.00010919477 8.612513e-05 5.93006e-05 -3.3438566e-05 -3.928071e-06 1.1680334e-05
-4.6209872e-05 -4.154098e-05 -9.20352e-06 -2.1705302e-05 -1.115515e-05 -1.2108297e-05 4.688707e-06 2.4705769e-06
3.741619e-06 -2.7717151e-06 -6.2205004e-06 -6.025539e-06 -9.56048e-22 1.05605927e-13 1.0205776e-13 -2.2586466e-05
5.5767896e-06 2.2458582e-05 -3.3117332e-05 -5.0354178e-05 -3.187941e-06 -3.740987e-06 -6.865841e-06 -5.593138e-06
00000000: 0da4 5b38 6e5d a238 ad5d 6038 251e 2e38
00000010: f006 7538 8605 9038 655f 4138 e35e 3338
00000020: c72c 8538 099d 80b6 527f b5b5 0db0 25b4
00000030: d41f 7436 1256 1a36 0d22 5136 4bb5 c430
00000040: d2b4 8131 da70 f430 1bcc 2137 11fb 0838
00000050: c8a5 d134 f36d e836 aa4b 1238 3850 ca37
00000060: 9d00 b837 fd36 1437 46ae 6837 129d bab9
00000070: 36e1 c6b9 1960 b2b9 667c 9cb9 9091 c1b9
00000080: c2f2 beb9 386a aab9 ba85 b1b9 6888 b0b9
00000090: 0618 f8b6 9fb1 74b7 517e a5b7 cb8b 8935
000000a0: 37e2 eb34 d2a3 c5b4 4a75 3e9d efc2 6a9d
000000b0: 7c4e a99d b17b 0cb9 7bdd 1eb9 fec4 b9b8
000000c0: c336 94b8 bf74 20b9 e98a e8b8 d0a5 beb8
000000d0: 1072 01b9 3b7e 90b8 11e3 87b9 c848 87b9
000000e0: e2f1 87b9 4f64 89b9 7cbc 89b9 7d1b 93b9
000000f0: b6ea 97b9 07d6 9db9 4b4d 99b9 0ee7 50b7
00000100: 8855 5cb7 0379 9eb7 f911 c7b6 1f35 a1b6
00000110: 2413 19b7 4d56 7bb1 c1ac 9bb1 c2ea 87b1
00000120: 7362 beb8 ca68 e0b8 66db c8b8 ca7c d0b8
00000130: 6596 c5b8 d4f6 cdb8 4917 cdb8 0715 d5b8
00000140: 7548 b5b8 9ff2 41b9 8bf4 6cb9 1065 6cb9
00000150: d888 60b9 34ed 7ab9 893e 57b9 6ec8 52b9
00000160: 1ae0 80b9 8e93 71b9 d1fe 5e36 8406 9e36
00000170: f69c 4ab5 ad56 5a36 1490 5d36 02ed 7936
00000180: 1c12 16af 8851 12b0 e479 f3af 4a3e 21b8
00000190: 34a6 a0b8 bc30 91b8 c8d2 adb8 854e f9b8
000001a0: 1b97 52b8 409e f4b7 bf73 b7b8 b944 c6b7
000001b0: c1bf 8835 11e9 9536 6eb4 e3b5 dfa7 7636
000001c0: 9176 bf35 6e48 3036 7f85 9636 fb63 8736
000001d0: 4dc6 7ab5 3c01 5135 a943 0135 4d09 4a30
000001e0: 2159 00b4 9c68 0032 3567 0eb3 fd53 9729
000001f0: 704d 920b 0400 0000 3329 8f34 0d79 f8b5
00000200: 193f b1b6 e501 c836 d144 33b7 7a8d 20b6
00000210: 9764 0536 b879 1ab7 412d 0736 5036 c138
00000220: 6b05 8e38 56ce 4838 69f4 ca38 7e92 cb38
00000230: c77c 9e38 cced c138 a8df b638 b822 9d38
00000240: 9f7d 4036 aebf ce36 6ba6 1037 2453 1836
00000250: db6e b836 eb34 0937 0830 1731 1c0e c630
00000260: aa92 7c30 997f 1138 f4c3 1537 1f85 0b36
00000270: b232 1338 b532 1a38 c336 fa37 bca0 f837
00000280: 2b04 b037 f003 a637 951a 8839 97cd 8039
00000290: 02f1 5f39 361e 7739 7c33 8239 9fd0 7639
000002a0: e7ea 8a39 96ca 8939 0ac6 7839 a6b9 90b4
000002b0: d923 9736 e2dc 2137 aa12 70b5 acb6 1635
000002c0: 30dc bc36 0a5b 8a31 21ef 8d31 2f6d 7031
000002d0: b008 da38 9c7a c938 268a 5b38 94d4 b638
000002e0: 2eab c438 937d a638 7fff e438 149e b438
000002f0: 89b9 7838 6340 0cb8 dfcd 83b6 a7f6 4337
00000300: 79d1 41b8 4a3c 2eb8 d168 1ab7 c813 b6b7
00000310: 0127 3bb7 bd24 4bb7 b053 9d36 30cc 2536
00000320: 8618 7b36 b401 3ab6 b1b9 d0b6 fc2e cab6
00000330: 5179 909c accd ed29 4bd0 e529 1178 bdb7
00000340: 4220 bb36 7065 bc37 77e7 0ab8 6333 53b8
00000350: 69f0 55b6 ab0d 7bb6 2061 e6b6 b1ac bbb6

exp_avg_sq f4 [8, 3, 3, 3]
1.0139328e-05 1.1299506e-05 1.0780403e-05 1.1780264e-05 1.3101218e-05 1.2449911e-05 1.15303965e-05 1.2802425e-05
1.2140768e-05 3.6812746e-09 4.297475e-09 4.424774e-09 4.8301247e-09 5.4544733e-09 5.452902e-09 8.7352115e-16
9.563341e-16 7.8729267e-16 9.3685975e-07 9.981482e-07 9.5347275e-07 1.1014453e-06 1.1697445e-06 1.1158069e-06
1.0283101e-06 1.0949565e-06 1.0541521e-06 0.00013023907 0.00013115739 0.00011506 0.00012746597 0.00012831172
0.000113231436 0.000114447845 0.0001151165 0.00010148778 5.2997358e-08 5.575496e-08 5.2373053e-08 3.2447725e-10
3.0684147e-10 2.7383149e-10 4.1210067e-11 4.2168526e-11 3.8035207e-11 1.3462448e-05 1.3505769e-05 1.2091187e-05
1.1568228e-05 1.1707603e-05 1.0681495e-05 1.079456e-05 1.1093826e-05 1.023765e-05 0.00010802273 0.000111662535
0.00010050103 0.00011174198 0.00011532869 0.0001036703 0.00010075885 0.0001038304 9.3226525e-05 3.596194e-08
3.8751985e-08 3.7279868e-08 9.534618e-09 1.0205887e-08 9.708819e-09 7.018939e-11 7.238944e-11 6.674421e-11
1.1233429e-05 1.1480581e-05 1.0390328e-05 1.1628921e-05 1.1919975e-05 1.0830417e-05 1.0610965e-05 1.0903404e-05
9.934044e-06 7.5909615e-05 7.473091e-05 6.74561e-05 7.578774e-05 7.444033e-05 6.7127294e-05 6.868802e-05
6.712816e-05 6.0506252e-05 1.4277777e-08 1.5161808e-08 1.43391565e-08 9.0630764e-10 9.684834e-10 9.582872e-10
2.7365582e-11 2.8465588e-11 2.6140916e-11 7.737086e-06 7.459554e-06 6.8327317e-06 7.738352e-06 7.5119387e-06
6.895651e-06 7.221318e-06 6.975347e-06 6.409409e-06 4.4136396e-08 4.3265597e-08 3.759241e-08 2.4341537e-08
1.9214943e-08 1.3946184e-08 1.443539e-08 8.52478e-09 4.9115205e-09 5.0741553e-11 4.345686e-11 3.903986e-11
5.0660233e-11 4.344859e-11 3.952675e-11 3.4657145e-11 3.5414387e-11 3.4162576e-11 3.0600689e-09 2.9520304e-09
2.240117e-09 5.84245e-09 6.076523e-09 5.511669e-09 2.431775e-09 3.170973e-09 1.8877608e-09 1.3433428e-05
1.293995e-05 1.1082045e-05 1.5034551e-05 1.4469461e-05 1.2403864e-05 1.4420618e-05 1.3864088e-05 1.1908136e-05
7.7409394e-09 8.05752e-09 7.357004e-09 3.214271e-09 3.2941363e-09 2.9680065e-09 7.919496e-11 8.1325814e-11
7.2404124e-11 1.3354768e-06 1.2483904e-06 1.1022904e-06 1.4257927e-06 1.3389031e-06 1.1826548e-06 1.3559988e-06
1.2824398e-06 1.1420608e-06 8.687507e-05 8.8800196e-05 7.9810554e-05 9.248939e-05 9.438674e-05 8.46782e-05
8.5853986e-05 8.757315e-05 7.852488e-05 3.396619e-08 3.6145174e-08 3.4159108e-08 1.1426567e-08 1.206096e-08
1.1234282e-08 2.720911e-15 2.177009e-15 7.794842e-16 8.904217e-06 8.915401e-06 8.053819e-06 9.354007e-06
9.393136e-06 8.49681e-06 8.642288e-06 8.715755e-06 7.9221345e-06 1.9015446e-06 2.3604587e-06 2.4794977e-06
1.7722374e-06 2.1443284e-06 2.233806e-06 1.5317686e-06 1.8147529e-06 1.8866696e-06 4.665483e-10 5.342925e-10
5.777975e-10 9.021045e-10 9.718443e-10 8.5172286e-10 6.776549e-17 1.10905604e-16 1.07460813e-16 9.17503e-08
1.2291714e-07 1.1389652e-07 8.421036e-08 1.0974344e-07 1.01229666e-07 7.7630354e-08 9.498453e-08 8.933781e-08
00000000: 151c 2a37 0293 3d37 7add 3437 d9a3 4537
00000010: 4ecd 5b37 f6df 5037 ad72 4137 ffc9 5637
00000020: 34b0 4b37 abf9 7c31 fda8 9331 b908 9831
00000030: 3af6 a531 0e6a bb31 3c5c bb31 7cc6 7b26
00000040: 80d2 8926 f2eb 6226 837c 7b35 1cf8 8535
00000050: 26f2 7f35 5fd5 9335 1d00 9d35 d5c2 9535
00000060: 7704 8a35 6bf6 9235 647c 8d35 c990 0839
00000070: 4b87 0939 5e4c f138 63a8 0539 6a8b 0639
00000080: aa76 ed38 b803 f038 b36a f138 d6d5 d438
00000090: 369f 6333 3a77 6f33 c8f0 6033 1d62 b22f
000000a0: 19b0 a82f 5b8a 962f 693e 352e 8a75 392e
000000b0: d647 272e c6dc 6137 d696 6237 41db 4a37
000000c0: 2915 4237 c66b 4437 ac34 3337 481a 3537
000000d0: 9f1f 3a37 5fc2 2b37 438a e238 5e2c ea38
000000e0: 14c4 d238 0557 ea38 9edc f138 9269 d938
000000f0: 7f4e d338 86bf d938 9c82 c338 9274 1a33
00000100: 4270 2633 a61d 2033 b2cd 2332 f755 2f32
00000110: d6cb 2632 1d59 9a2e a22f 9f2e a6c5 922e
00000120: 3677 3c37 b89c 4037 1e52 2e37 d619 4337
00000130: e7fb 4737 49b4 3537 bf05 3237 c3ed 3637
00000140: 65aa 2637 aa31 9f38 dab8 9c38 3877 8d38
00000150: 3cf0 9e38 d91c 9c38 b1c6 8c38 9a0c 9038
00000160: 28c7 8c38 18c8 7d38 544a 7532 2b3d 8232
00000170: 4758 7632 bb1f 7930 7b1b 8530 bcb4 8330
00000180: d0b5 f02d ce62 fa2d 1cf0 e52d 88ce 0137
00000190: 154d fa36 b844 e536 f8d3 0137 100f fc36
000001a0: 3161 e736 a64e f236 c60d ea36 6710 d736
000001b0: 7b90 3d33 07d3 3933 4b75 2133 9b17 d132
000001c0: 1b0e a532 f797 6f32 84ff 7732 6174 1232
000001d0: 31c2 a831 e929 5f2e 1320 3f2e fab2 2b2e
000001e0: 5ace 5e2e c316 3f2e 2ad7 2d2e 7a6c 182e
000001f0: 0ec1 1b2e a43f 162e 4d49 5231 abdc 4a31
00000200: 8ef0 1931 bcbe c831 a9c9 d031 2761 bd31
00000210: 3d1c 2731 59e8 5931 d7b9 0131 2260 6137
00000220: a918 5937 05ed 3937 e83c 7c37 ddc1 7237
00000230: 311a 5037 15f0 7137 ce99 6837 0ec9 4737
00000240: 03fd 0432 596d 0a32 e4c8 fc31 0ee2 5c31
00000250: 0f5f 6231 b9f5 4b31 cd26 ae2e 5dd6 b22e
00000260: e637 9f2e a23e b335 5e8e a735 69f2 9335
00000270: dd5d bf35 5cb4 b335 b6bb 9e35 c4ff b535
00000280: 4c20 ac35 e948 9935 b330 b638 3e3a ba38
00000290: f75f a738 ddf6 c138 7ff1 c538 4395 b138
000002a0: 820c b438 7aa7 b738 b9ad a438 39e2 1133
000002b0: 0a3e 1b33 56b6 1233 934e 4432 aa34 4f32
000002c0: e500 4132 f30f 4427 bade 1c27 c8ab 6026
000002d0: 5263 1537 5b93 1537 e41e 0737 27ef 1c37
000002e0: 3697 1d37 858d 0e37 58fe 1037 e239 1237
000002f0: 4fe9 0437 9338 ff35 5f68 1e36 7265 2636
00000300: 9ddd ed35 48e7 0f36 7fe8 1536 2b97 cd35
00000310: 6f92 f335 7939 fd35 6b3e 0030 7edd 1230
00000320: e2d2 1e30 f6f7 7730 bb91 8530 ab1e 6a30
00000330: af41 9c24 1dbb ff24 abc9 f724 4308 c533
00000340: 35fb 0334 4697 f433 23d7 b433 18ac eb33
00000350: 9963 d933 bdb5 a633 4cfa cb33 fbd9 bf33

exp_avg f4 [8]
-5.611388e-06 -0.00036068872 -0.0004040346 -0.00024296947 -2.0261408e-05 0.00010195908 0.00022052825 -6.647545e-05
00000000: 7549 bcb6 d21a bdb9 9bd4 d3b9 9fc5 7eb9
00000010: 0bf7 a9b7 ddd2 d538 9a3d 6739 bc68 8bb8

exp_avg_sq f4 [8]
1.9886835e-05 0.00014956278 0.00012293254 7.4080344e-05 6.7594534e-08 1.9548927e-05 0.0001048661 6.4268e-06
00000000: a7d2 a637 f4d3 1c39 74e7 0039 955b 9b38
00000010: 7d28 9133 00fd a337 8feb db38 cba5 d736
