logs/trained_model_15E-64B-0.001L.pt (torch_old, 51353 bytes, 12 tensors)

conv1.weight f4 [12, 6, 7, 7]
00000000: 4fda 51bd fe1b 1abd 4911 ab3b 3e5d 9ebb
00000010: 48aa 95bd a63b 9bbd 8102 a53b 0018 f8bc
00000020: 1002 abbc acb3 d13c c95f 3cbd 8d72 84bb
00000030: 61cb 12bc 9d31 5cbd 2d6b c9bc 68f0 53bd
00000040: 92a6 22bd 67fa 56bd 4216 2bbd 6db6 51bb
00000050: 7d61 1abb f712 c5bb 399b 8abc 946c 75bc
00000060: 5314 a33c 9633 22bb 6f4c f23c 3eb1 56bd
00000070: b286 18bd 267a 33bd b40c 90bd c7a9 20bd
00000080: 6d7d 22bd ecbc 843b 839e 6bbd 18b5 e2bb
00000090: 51ef fbbc 8396 46bd cbfe aaba 96b5 12bd
000000a0: daef 21bd c782 24bd 847f a73d 6589 cc3b
000000b0: c81b b6bc 5f20 193d bb9e 1b3d f51d f73b
000000c0: b5bc 02bd 8deb edbc 4d1f 80bd 91cf e3bd
000000d0: 76f1 a0bd b826 83bd ca94 9dbd e262 96bd
000000e0: d944 66bd 3274 bc3b 59f5 f5bc 1492 71bd
000000f0: a986 cbbd 7109 1ebc de7d bbbd 104b fabc
00000100: aa92 ccbc ece7 a8ba 1606 97bc 75e0 d0bd
00000110: 7ba0 a1bb 4406 c7bd 23ce a5bd 320f b8bc
00000120: 0c39 e7bc 0ef6 88bc f939 653c 503a 25bd
00000130: 0f4a 48bd f81a a4bd 6111 85bd d3e8 10be
00000140: 313c 15bd c850 29bd de15 eebc 1e8a 73bd
00000150: dc0c 89bd 0be6 90bd 6078 55bd d89c d1bd
00000160: 784b b3bc 90c6 babd 6c77 a4bd b225 48bd
00000170: 1b2a f1bc 9e11 52bd c579 543c 6b22 1e3c
00000180: 8377 0fbb fb22 80bd c213 2b3b ec30 2ebd
00000190: 30f1 853c 43e1 323d 54a5 c53d eb1e d73b
000001a0: d526 013d 92db f8bc cfcd 5abc 01a6 633d
000001b0: 9813 073e 0c46 123d 1d1c f03d 8830 113d
000001c0: fd68 a73c b22c adbc d0ef 3c3d e164 953d
000001d0: daab fa3c 626c 823d 3db2 773d 9441 c53c
000001e0: a019 6c3d 8ff8 8a3d 7ba7 ca3d 8c36 593d
000001f0: bdb3 b73d 3fbb 34bc d08b a2bb 0a1c 043d
00000200: 8109 be3c 9997 853d 4968 bf3d f78f a33d
00000210: 27cb 133d 51d6 843d e0ce b03c ab53 fe3c
00000220: 929e f6bb d229 133d 770a 823c ac7f c53c
00000230: 2032 153c ae12 093d 316b 9abc 7a45 b33b
00000240: a293 463c c48c 24bd 96ce 3dbd c2a3 ea3c
00000250: 70d1 b8bc d571 14bd 3f11 853d 088e b13c
00000260: 72b9 0b3d 323e 7a3a c88f eebc 467e e0bc
00000270: 54ec ae3d d47b d33d ae87 083d fbab 52bc
00000280: 0446 393b 0169 d33c 723c 3c3d be52 f6bb
00000290: 9fa8 b83a 375f a83d 5cc0 9b3d 739c 01bc
000002a0: 4f9a 2bbd f470 af3d 1954 8c3d 45ba a23d
000002b0: 35c0 4a3d 4937 953d 7c89 bf3c 1ac1 0abd
000002c0: 7eec 0c3d f945 643c a542 173b 7e42 0abc
000002d0: e25d 13bd e019 f3ba dfed f83c 8530 373a
000002e0: bba9 f1bc b8f4 72bc 2994 f1bb 82b8 423c
000002f0: ed63 9e3c 6b9a efbc c5a5 8bbb 172c 233d
00000300: c8b1 98bc b132 62bd 04c0 893c 473c eb3b
00000310: 5f66 c93c cc1d 1f3d 31f5 313d b2b7 b23d
00000320: 24b0 d1bc bbe0 38bb a0d0 92bd fa07 d13c
00000330: 97ec 4d3d a9f1 7c3c 5044 833d f0d0 33bb
00000340: 1494 363d 3073 a53c c403 fc3c abd6 16bd
00000350: ed00 99bb ad6d 9f3c ba83 f1b9 bda9 b3bc
00000360: 5fd0 febb 814f 4c3d 7118 43bc 6cbb 733d
00000370: 0e4b db3d 35bd 983b 20dc 693d 2526 02bd
00000380: c87b 00bd 5957 aebc b57a 1b3d 6006 503d
00000390: e33c f63c af45 24bc 46af dabc d692 17bd
000003a0: addd 95bc a8ac 8c3d 2296 873d 43d4 703b
000003b0: d0bd 2f3b 4b72 aabc 879b a6bc a55b 19bd
000003c0: 0bed 39bc e8de ca3c 0156 ebbc 8c8a 1a3c
000003d0: 03a0 06bd f3f4 79bd 1762 79bd c073 73bc
000003e0: 16c9 5e3d f4d6 283d e308 bc3c 89b8 ebbc
000003f0: bd0f 903c 120e f9bc 19d6 d5bc aec8 643d
-0.051233586 -0.03762435 0.0052205664 -0.0048328927 -0.07307869 -0.075797364 0.005035699 -0.030284882
-0.020875007 0.02559837 -0.045989785 -0.004041976 -0.008959622 -0.053758252 -0.024587238 -0.05174294
-0.039709635 -0.052484896 -0.041769274 -0.0031999603 -0.0023556643 -0.0060142237 -0.016919719 -0.0149795
0.019907152 -0.0024749986 0.029577462 -0.052415125 -0.03723783 -0.04381766 -0.07033673 -0.039224412
-0.039670397 0.0040508416 -0.057524215 -0.0069185607 -0.030753763 -0.048483383 -0.0013045905 -0.035817705
-0.03953538 -0.04016378 0.081786186 0.0062419646 -0.022230044 0.037384387 0.037993174 0.007541413
-0.031918246 -0.029042983 -0.0625597 -0.111235745 -0.07858555 -0.064038694 -0.07694395 -0.07343079
-0.056218002 0.0057511562 -0.030024217 -0.0589772 -0.09937794 -0.009645806 -0.09154867 -0.03055337
-0.024972279 -0.0012886501 -0.01843552 -0.10199062 -0.004932461 -0.09717992 -0.08095958 -0.022468183
-0.028225444 -0.01671889 0.013990873 -0.040338814 -0.048898753 -0.080129564 -0.064974554 -0.14151315
-0.036434356 -0.041336805 -0.029063161 -0.05945789 -0.06691906 -0.07075127 -0.05211675 -0.10234994
-0.021886572 -0.09119904 -0.080305904 -0.048864074 -0.029439023 -0.051286332 0.012968485 0.009651761
-0.0021891303 -0.06256672 0.0026104306 -0.042527124 0.016350359 0.043671858 0.096506745 0.006564965
0.031531174 -0.030378137 -0.013354733 0.055578236 0.13191068 0.035711333 0.11724112 0.035446674
0.020435805 -0.021139476 0.04612714 0.07294632 0.030599523 0.06368329 0.060472716 0.024079122
0.057641625 0.0678569 0.098952256 0.053030536 0.08969829 -0.011030971 -0.0049605146 0.032253303
0.023197891 0.065230556 0.09346063 0.079864435 0.036082413 0.0648619 0.02158302 0.031045755
-0.0075262273 0.035928555 0.01587413 0.02410873 0.009106189 0.03346508 -0.018849941 0.0054709287
0.012120159 -0.040173307 -0.046339594 0.028642539 -0.022560805 -0.03624137 0.0649743 0.021674171
0.0341124 0.0009546011 -0.029121295 -0.027403962 0.0854117 0.10326353 0.03333252 -0.012858386
0.0028270492 0.025806906 0.045956083 -0.007517188 0.0014088339 0.08221286 0.07605049 -0.007910836
-0.041895207 0.08566466 0.06851978 0.07945684 0.04949971 0.072859354 0.023380987 -0.033875562
0.034405224 0.013932698 0.0023080495 -0.008438705 -0.035978206 -0.001854714 0.030386863 0.0006988126
-0.02949988 -0.014828853 -0.0073723984 0.01188481 0.019334758 -0.029248437 -0.0042617046 0.03983697
-0.01863946 -0.055224124 0.016815193 0.0071788165 0.024584947 0.038846776 0.043446723 0.08726443
-0.025596686 -0.0028210122 -0.07168698 0.025516499 0.050274458 0.015438476 0.06409514 -0.002743777
0.044574812 0.020196527 0.030763514 -0.036825817 -0.0046693 0.019461477 -0.00046065246 -0.021931523
-0.0077763046 0.04988051 -0.011907683 0.05950491 0.10707675 0.004661227 0.057094693 -0.03177466
-0.031368047 -0.021281885 0.03795882 0.05078733 0.03005833 -0.0100263795 -0.026694905 -0.037005268
-0.01829418 0.06868869 0.066204324 0.0036747612 0.0026816018 -0.020806452 -0.020337833 -0.037440915
-0.011348019 0.024764493 -0.028727533 0.009432446 -0.032867443 -0.061024617 -0.06088456 -0.01485914
0.05439099 0.04122062 0.022953456 -0.028774517 0.01758563 -0.030402217 -0.026103066 0.055855446

conv1.bias f4 [12]
00000000: fd08 2d3e 7cf6 bc3e 8d23 893d 7c64 863e
00000010: e448 093e 0c7b fe3e d0b1 4c3d e403 a93e
00000020: 984a 5e3e b99f 733e b6be 22be 83cf 35be
0.1689796 0.36906803 0.06696234 0.26248538 0.13406712 0.49703252 0.049974263 0.3301078
0.21708143 0.23791398 -0.15893063 -0.1775494

conv2.weight f4 [8, 12, 5, 5]
00000000: 9b72 fe3b 5576 22bd 6f8a 23bd e3e6 073d
00000010: 314a 193b 96ef a83b a9bd fabc 22d1 82bd
00000020: be3d 35bd 162a 4c3d d4ea 133d 3cec cdbc
00000030: 8b32 843d 81f2 8a3d 672d 193c 46af 26bc
00000040: 8bf4 953c add7 69bc 894e 9a3c 77d8 973b
00000050: 1056 e03b 616b 6b3d 6d0f 1fbd 023e 823c
00000060: 4745 8c3d 91e4 1ebb 5f3c d63c c6dd 7d3d
00000070: 0e7b 083a d64a 123d f3cf 9e3b ce9a 59bc
00000080: a634 6d3c 3d12 64bd 8b45 04bd 8cde 8e3b
00000090: b2a9 45bc 52c2 4e3d a671 57bd 6619 afbd
000000a0: 9464 4bbc 4d05 423d 15ba 82bc 3def 4ebd
000000b0: 3572 00bd b6f2 673d 85b1 e13b f09d 463c
000000c0: 2605 54bb 737c 3e39 016a 7cbc 2459 d0bb
000000d0: 469b 403d 9491 053d 6a74 cfbc b690 383d
000000e0: 69a5 383b 9211 91bd 14af d2bc 6381 b8bb
000000f0: bb96 cc3b 04df 4e3d 459a aaba ecbc 4ebc
00000100: e01e d43c 8925 53bd 81e3 9a3c a1f0 f03c
00000110: de00 2abc 68ba fa3c 77ef b23c e5ae c6bc
00000120: d136 98bc be71 14bd 5e74 513d ee0f b63c
00000130: 4077 bd37 6c17 e9bd 9896 55bd a7bc 2ebc
00000140: 13d9 263c ba98 40bd 5059 b8bd b0a6 87bd
00000150: a7aa dcbc 1954 323d 1c79 c63c ca1c 223d
00000160: 1972 993d f83a 803d f049 113c f060 87bd
00000170: 8347 c83b dcff 243d 999a 89bc 682a a6bb
00000180: f350 c43b 4f9d 533d 45a2 1e3c ebec debb
00000190: f1d0 e33c a02f 913d 7f81 a53d 307f 1f3d
000001a0: a495 1f3d 2532 063d 57ba a7bc 1b62 a3ba
000001b0: 5939 84bc 0a5e b8bc d679 e5bc 730c 12bd
000001c0: 35c5 56bd ff4f a6bc 8459 4d3c d074 bf3c
000001d0: a553 4b3d 7b35 3e3c 3067 263d 31a3 f4bc
000001e0: 88e7 3dbc 6767 353c aa90 03bd 8387 823d
000001f0: 7a6b bd3c 860f 7c3a 9436 c4bd b3e8 a73d
00000200: f3c0 ae3d b92f 103c cf33 12bd a599 54bd
00000210: 8d4b 4b3d 96f7 643d 99cf 78bc 0455 a4bc
00000220: 9b56 8d3c 7c25 663c aa6e 87bd 2978 53bd
00000230: 7da9 e8bc b6e3 9bbd 4073 b2bc 748d 65bc
00000240: ea8f e7bd 9c08 36bd dfd9 043d daa8 653d
00000250: 746d 563d a748 9ebb 3687 393c 3aa0 d13c
00000260: d35d 113d d768 e23b 616a 10bc 511d 7d3b
00000270: 8df3 e8bb 5ff7 91bd baf6 0ebd bba7 0bbd
00000280: a112 573d 5987 9ebc a204 03bc 42d8 a5bc
00000290: 216f 07bd 25bd e63c be72 0dbc cf04 0abd
000002a0: c313 b4ba 7ec6 c5bd b671 ad3c 164d 073d
000002b0: e2ae 8bbc 9c6c 7e3d e163 cf3b 8fb4 30bd
000002c0: 58cc 403c af10 1f3d 0066 803d 8d16 21bd
000002d0: def5 563c 5bc4 5cbd f4c9 b0bc a0a7 4bbb
000002e0: 13c1 0c3e b0a3 4b3d 1658 60bd 4234 4abd
000002f0: ecc4 a5bd 600f dc3c d286 e8bc f3ed 54bb
00000300: c86f f8bb 82f5 343c d05a 173c e244 d2bb
00000310: 256a 7ebd 5363 493d 8f35 c93d 5ba6 b93c
00000320: 86ac ba3d 4935 643d bb22 aa3d df27 283d
00000330: 1eb9 12bd fdd4 123d f8ba 483c 8d9c 533d
00000340: 88bb f13a b825 963d 4736 163d 545b 5d3d
00000350: fb7f 283b 1a93 d93c ffd2 e83d 77d0 093d
00000360: 512f 2b3c 51cd eb3d cc46 663d c30e 6b3d
00000370: 1d07 6dbd d36d 833d 9c9e ca3d ced9 da3c
00000380: 1cd8 aa3c bbf7 2b3d 2bde 2cbd 2940 333c
00000390: 747e 6c3c 0ab2 923c 40bb 6bbc 1a96 8cbc
000003a0: a7eb 20bc 2959 0c3b af53 3d3d ccb0 99bb
000003b0: 5e85 833c d66a 0e3c 820b 13bd c1f7 36bd
000003c0: 47bb 263d 9afd d2ba 2dbb ef38 0f9e 5cbc
000003d0: 7113 ecb8 512c 4c3c 1219 653c 7f04 2f3d
000003e0: 585b 373d ee57 aa3c bbe2 a33d 584f 713d
000003f0: 53d2 82bd f6c0 f4bd 9c38 e0bb 5f0b 50bd
0.007765127 -0.03966363 -0.039926942 0.033179175 0.0023390169 0.005155514 -0.030608015 -0.06387545
-0.044248335 0.049844824 0.03611262 -0.02513706 0.06454953 0.06784535 0.009349204 -0.010173624
0.018305084 -0.0142726125 0.018836277 0.004633959 0.006846197 0.05747545 -0.03883307 0.015898708
0.06849151 -0.0024245123 0.026151834 0.061979078 0.0005206325 0.0357159 0.004846567 -0.013281537
0.014477884 -0.055681456 -0.032292884 0.0043600257 -0.012064384 0.050478287 -0.052598618 -0.08549766
-0.012414116 0.047368336 -0.015957871 -0.050521124 -0.031358916 0.05662795 0.006887617 0.012122616
-0.0032351702 0.00018166173 -0.015406133 -0.0063582826 0.04702308 0.032609537 -0.025324065 0.045059882
0.0028174764 -0.070834294 -0.02571825 -0.0056306585 0.0062435544 0.050505653 -0.0013015947 -0.012618285
0.025893629 -0.05154947 0.01890731 0.029411616 -0.010376183 0.030606464 0.021842701 -0.024253318
-0.018580826 -0.036241286 0.051136367 0.022224393 2.2586086e-05 -0.113814205 -0.05214557 -0.010665095
0.01018359 -0.04702065 -0.0900141 -0.0662359 -0.026936842 0.043537233 0.024227671 0.039578237
0.074924655 0.062612474 0.008867726 -0.06610286 0.0061120405 0.04028307 -0.01679735 -0.005070973
0.005991095 0.051663693 0.009682243 -0.006803145 0.027809592 0.07089162 0.0808134 0.038939655
0.038961068 0.032762665 -0.020474596 -0.0012465151 -0.016140627 -0.022505779 -0.028012197 -0.035656404
-0.052434165 -0.020301817 0.012533549 0.02337113 0.049640317 0.01160943 0.04062575 -0.029862972
-0.011590846 0.011072016 -0.032120384 0.06373503 0.023122538 0.000961535 -0.095807225 0.08198681
0.08532896 0.0088004405 -0.03569394 -0.05190434 0.049632598 0.05590018 -0.015186214 -0.02006007
0.01725321 0.014047023 -0.06612904 -0.051628266 -0.02840113 -0.07611792 -0.021783471 -0.014010776
-0.11306746 -0.044441804 0.03243434 0.056069233 0.052350476 -0.004830438 0.011323741 0.025589097
0.03548987 0.0069094705 -0.008814425 0.003862221 -0.0071091116 -0.071272604 -0.034903266 -0.034095507
0.052508 -0.019351648 -0.00799671 -0.020244721 -0.033064965 0.028166363 -0.008633314 -0.033695992
-0.00137388 -0.09657 0.021172386 0.0330325 -0.017051164 0.062115297 0.006329045 -0.043140944
0.011767469 0.03883427 0.06269455 -0.039328147 0.013120143 -0.053898197 -0.021580674 -0.0031075254
0.13745527 0.04971665 -0.054771505 -0.049366243 -0.080942005 0.0268628 -0.0283846 -0.0032490462
-0.0075816847 0.011044862 0.00923796 -0.006416903 -0.062112946 0.04916699 0.098246686 0.022662332
0.091149375 0.05571488 0.083074056 0.04105365 -0.035821073 0.035847653 0.012251608 0.05166297
0.001844273 0.07331413 0.036672857 0.054042175 0.0025711048 0.026559401 0.11368369 0.033646073
0.010448293 0.1151377 0.05621986 0.057387125 -0.057868112 0.06417432 0.098935336 0.026715185
0.020855002 0.0419843 -0.042204063 0.01094059 0.014434446 0.017907161 -0.014387906 -0.017161418
-0.009821809 0.0021415448 0.046222385 -0.0046902653 0.016054805 0.008692464 -0.035899647 -0.04466987
0.040705945 -0.0016097308 0.00011431272 -0.0134654185 -0.00011256978 0.012461738 0.013983028 0.042728897
0.044764847 0.020793881 0.0800223 0.05891356 -0.063877724 -0.11950867 -0.006842686 -0.050792094

conv2.bias f4 [8]
00000000: d979 1c3e 4aa0 5c3e d3a0 a4be 09c5 c23b
00000010: 8072 513e 30c6 163e 1bf9 96bc 8ae5 f2bd
0.15280856 0.2154552 -0.3215395 0.0059438986 0.20453835 0.1472404 -0.01842933 -0.11860187

conv3.weight f4 [3, 8, 3, 3]
00000000: f202 a7bd 2c3f 5e3c e8df a9bc 28af 313e
00000010: 775c b43d 5577 47bd 60c0 0cbe 02df b53d
00000020: c550 963d 0be3 ef3c 624b 013e 7faf 093d
00000030: cd9d a63c 6ba1 b0bc 0118 d03d 785e 313d
00000040: 6bb5 a73d 25cf 40bd df01 5dbd 36d1 a93d
00000050: d0fa 34be 3667 79bd 8951 003e b0b6 063e
00000060: 8102 5c3d 4125 a03d 1840 c3bd ee04 2fbd
00000070: cf50 b2bd e536 013e 115c e93d a672 43bd
00000080: 38b0 a1bd 25b7 e13d 63d8 b1bd 7aa2 c4bd
00000090: 6022 6c3b c37f b53d ede1 c5bc c647 cc3c
000000a0: 0ce5 093e 42c5 213b 4196 d33d b1d5 243d
000000b0: 05bb aabd 7cec 0dbd 17a1 83bd 550b cb3d
000000c0: 86d8 b1bd e0c1 a2bb 9eca 80bd 8f91 97bc
000000d0: 087b 033e 1021 083d 4087 37bd 8729 d73d
000000e0: 0a3d b13d 7ec2 a53c 48fa 033e 7da3 1f3b
000000f0: 385d b3bb e256 63bd 67dc c33d 1526 9b3d
00000100: 7266 2cbe bdbf 223c c3d8 e33d 4897 a53c
00000110: e5de 493d 8c46 95bd 065d 17be d9c7 06bd
00000120: 3878 44bd 8834 1b3d 78b7 febc 3fbb f13a
00000130: 40cf 123d 6bbb 083d 69a5 cabc 1434 963d
00000140: a470 0fbe 1054 4fbd e3e3 163e cc34 ad3c
00000150: 82cd 59bd 044c 203e ba9f a43c a949 25bd
00000160: 5e8c 82bc d670 1ebd 173a 773d e858 113d
00000170: d11b 08be 667a 0cbd 6553 58bc fa71 803d
00000180: b444 2b3c e074 07be e427 62bd 119a 5cbd
00000190: be36 aebd 9964 ac3d bc51 dd3c 69b8 d3bc
000001a0: f08b 03bd 7726 cebd 9085 e3bd 53b8 afbd
000001b0: 26ce 043c cf26 d03d 2cc0 673d bba1 dc3b
000001c0: 790d 0bbd 76e6 af3d 4338 e6bc d90d 41bd
000001d0: 288b fc3d e127 6bbb 26fe f4bd 47e2 833d
000001e0: 674d af3d f7ed 4e3e 06e4 b53d 276e 873d
000001f0: ca3c 113b 7c72 28bd b30b 903c 3a98 7a3d
00000200: 8944 543d a9e2 643c 62be f5bd a31f 63bd
00000210: 5ffe cb3b c8f2 163e 2000 dfbd 7061 8d3d
00000220: d356 b9bd a563 1bbd 13ff 453d a92a 61bc
00000230: a73b 9b3d 0072 503c ffd8 033e c004 2bbd
00000240: 546e a13d dd9a 4cbd 4e23 a73d ce66 39bd
00000250: 3e40 d7bd b864 f93c bd1a 613d ee84 0c3e
00000260: 50fd e13c 7de1 91bd dfb8 ad3d 433f a13d
00000270: 81ed b93c 15fd 3d3e c3c1 083e 90d2 013c
00000280: fdc3 183d a520 253c 128c 443d 9f9a 71bd
00000290: 577f 403d 86ca d7bd 89eb 84bc 2bfd bebd
000002a0: f680 1ebd a50c 2f3c cae1 f8bd d898 cc3c
000002b0: a1f2 96bd f36e 58bd 3e7c 923d d6d5 c0bd
000002c0: 7982 acbc f8f1 cf3c 5141 93bc 0886 e33d
000002d0: fe4a 4c3c 5be1 073d 338a 08bd 61e7 f93d
000002e0: 9b5d ff3d cba8 4d3d 9d7a bd3d 4980 3dbd
000002f0: b1c9 5abd d02a b4bd 1aaa 8e3d f82b 7d3d
00000300: a3cf c23d f623 11bc 1b0c ee3d 5e59 ee3b
00000310: 923c 81bc 193f 4b3c d8ea c53d 7f57 9c3d
00000320: 1947 45bc 2ddb 663b 59ec 18be 309e 4dbd
00000330: c901 8c3d 650f 0cbd 46e2 5cbd 026c 2b3d
00000340: 1c59 16bd 9bcc a23d 4f31 cd3b 27b0 16be
00000350: c98c 8fbd d3bf 65bd a3c3 b6b8 4141 643d
-0.08154859 0.013564866 -0.02073665 0.17351973 0.08806699 -0.04869779 -0.1374526 0.08880426
0.07339624 0.029283067 0.12626413 0.03361463 0.020338917 -0.021561345 0.101608284 0.043302983
0.081888996 -0.04707255 -0.053956863 0.08291857 -0.17673802 -0.060889445 0.12531103 0.13155627
0.053713325 0.078196056 -0.09533709 -0.04272931 -0.08706819 0.12618597 0.113945134 -0.04771676
-0.07894939 0.1102126 -0.086838506 -0.096013024 0.0036031231 0.08862259 -0.024155581 0.024936568
0.1346628 0.0024684225 0.10331393 0.040242855 -0.083364524 -0.034649357 -0.0642721 0.09914271
-0.08683877 -0.0049669594 -0.06288646 -0.018502025 0.12839901 0.033234656 -0.04480672 0.105059676
0.086542204 0.020234343 0.12888443 0.0024358921 -0.005473759 -0.05550278 0.09563523 0.07575623
-0.16835955 0.009933409 0.111253284 0.020213738 0.049284834 -0.072888464 -0.1478158 -0.032905433
-0.047966212 0.037891895 -0.031093344 0.0018442645 0.03584218 0.03338186 -0.024737077 0.07334152
-0.14007813 -0.050617278 0.1473537 0.02114334 -0.053174503 0.15653998 0.020095695 -0.04035345
-0.015936073 -0.038681827 0.060358133 0.03548518 -0.13291861 -0.034296416 -0.013203477 0.06271739
0.010453392 -0.13228178 -0.055213824 -0.053857867 -0.08506535 0.08417625 0.027016513 -0.02584477
-0.032115877 -0.1006593 -0.111094594 -0.08580079 0.00810579 0.10163652 0.056579754 0.006733147
-0.033948395 0.08588879 -0.028103 -0.047132347 0.123312294 -0.0035881924 -0.119625375 0.06439643
0.08559685 0.20207964 0.08881383 0.06612807 0.0022161477 -0.041124806 0.017583704 0.06118033
0.051823173 0.013970056 -0.11999203 -0.055450093 0.0062253918 0.14741051 -0.10888696 0.0690335
-0.090497635 -0.037936825 0.04833896 -0.013743081 0.07579737 0.012722492 0.12875746 -0.041752577
0.078823715 -0.049952377 0.08161031 -0.045264058 -0.105103 0.030443534 0.05495714 0.13722584
0.02758661 -0.071230866 0.08482527 0.07873394 0.022696259 0.18553574 0.13355164 0.007923737
0.037296284 0.010078584 0.047985144 -0.05898535 0.04699644 -0.10536675 -0.016225593 -0.09325632
-0.038697205 0.010684167 -0.12152441 0.024975225 -0.073704965 -0.052840184 0.071526036 -0.09415786
-0.021058308 0.025383934 -0.017975481 0.11109549 0.012469051 0.0331739 -0.033334922 0.12202335
0.12469026 0.0502098 0.09251902 -0.04626492 -0.053415004 -0.08797228 0.06966038 0.06180951
0.0951226 -0.008858671 0.11623403 0.007273837 -0.015775952 0.01240518 0.096639335 0.07633876
-0.012040877 0.0035225854 -0.1493391 -0.050199687 0.06836278 -0.03419437 -0.05392673 0.04185105
-0.036706075 0.07949182 0.0062619816 -0.14715634 -0.070092745 -0.05609114 -8.7148765e-05 0.055726293

conv3.bias f4 [3]
00000000: a357 123c 90ba 2b3d 589a 883e
0.008932027 0.041925967 0.26680255

conv4.weight f4 [8, 3, 3, 3]
00000000: c87b 44bd 0f05 b53d b0ae ff3d d7dd bebc
00000010: a471 84bd 522b 883d d60c afbd 147a 653e
00000020: 3158 ac3d 3675 233e 69ab 11bd 9a4a d8bc
00000030: 1857 163b fe87 ae3d dff8 35be 8972 21be
00000040: 09e6 313e b234 ff3d 757f 36be 6c3d fb3d
00000050: 889f bebd d0b7 6e3e 2637 893e 7f46 cc3d
00000060: 5c72 05be dce7 5abd 2f4f 86bc 410e fcbc
00000070: f686 15be 9783 bd3d a551 583d f7ce d63d
00000080: 0a65 b3bc 0f2b ae3d 04e4 3cbd efc6 153e
00000090: bde9 5b3e 8f1d 453e 5e37 e43d d9a6 ffbc
000000a0: 6b92 c3bd 77d9 5f3e e55d 84bd 49f3 ecbb
000000b0: ddc5 5e3e a715 5ebe 765c 0ebe 42a5 cdbd
000000c0: 5d5e d0bd 9dab 1f3e cba9 01be ef6e 95bd
000000d0: c7f9 163e 846a 463d 32a6 12be 8419 03bd
000000e0: 0a5a c53d f14f 043e cf9f 0ebe 9855 09bd
000000f0: c39d 993d f6c2 a13e f698 033e 804d 4d3e
00000100: b7e2 2bbd 307f ca3c 4cb4 3ebe 7de8 02bd
00000110: fe3f ce3d d193 6d3e b2fc 743e ec92 05be
00000120: f5ea bcbd c924 b9ba 4cab 71bd e640 b73d
00000130: cfcb a83d 250c 19be 355a a83b 0fc4 263e
00000140: 0038 80bc a7d8 b13c f423 f73b b92b 0cbc
00000150: 881a 163e 31b8 58be 19bd 433a a228 04be
00000160: 01d5 a03d 89b0 2f3d 195a 4e3d d4de efbc
00000170: 6b54 0d3c edb4 5f3e ebba 7c3e 5f37 b9bd
00000180: 6c45 4cbd 4e75 3b3e 85e2 1d3e e442 613d
00000190: 377c 0cbe 66de 833d 1f9b 433e 4eed f03b
000001a0: 829b 19bd 61fc 91bd 78e6 b0bb d995 25bd
000001b0: 0191 a7bb 4c84 803e a90a 69bc ad69 09bd
000001c0: 1432 863e 9365 43bd 83f3 323e 5e37 863e
000001d0: 14ed 03bd 4061 09be 5d63 d33d 0ba2 f03d
000001e0: f81a 043e c72e 343d 1649 23bd 19c8 663d
000001f0: d843 adbd 5145 3bbb 44e9 59bd b92a 87bd
00000200: d326 09bd faa7 65bd db46 afbd ee60 d4bc
00000210: a5e3 2bbe 6b80 663e 2794 ba3d fa1c b43d
00000220: 7533 69bd bb68 87bd 3d32 183e e409 373e
00000230: 5a91 423e e906 c23d 216d a03d 9f0b 0a3d
00000240: 802f 73bd c115 a53b 2219 a83c cc7d ff3d
00000250: d8c0 69be e21a 203e 3960 663e e606 52bd
00000260: fc34 723e b625 9f3d b9b1 913d b17c babb
00000270: dc95 263c 4f74 91be 5305 333d e151 61bd
00000280: 549a af3d fbbc bbbd 39e4 fcbd f659 683d
00000290: a6f1 22be 49a5 6b3d 2f06 273d 9851 92bd
000002a0: dadf 3f3e 4417 55bd 52ad 9fbd b5bf 76bd
000002b0: 902d 2cbd 5a52 7cbc cb51 653d 45d9 d8bd
000002c0: 2f94 a93d 4f3f 5fbd b54e 9e3d 9b4b 9b3d
000002d0: abf6 fb3d 4998 0f3e 0b61 e83d b31e d9bd
000002e0: ddad c63d 0716 123e cf81 f53d b116 bd3d
000002f0: 241c 023d ea49 96bd b656 0a3e bd6f 553d
00000300: 93ed 01bd 192d 253e e79e ed3c 7759 2a3d
00000310: d630 6c3c dc5a 983a 0918 0e3d b075 d9bd
00000320: f869 833d 6519 6f3d 6eb9 77bc 17b1 9bbd
00000330: d085 0c3e 8f43 773d a8c2 91bd 2d85 b13d
00000340: 79a6 81bc a820 80bd 36f1 ee3c 2dca 903e
00000350: 940d 0c3e e26d c03d 6e51 0abd 8af1 2a3e
-0.04796961 0.088388555 0.12484491 -0.02329914 -0.06466988 0.06648888 -0.0854737 0.2240985
0.08415259 0.15962681 -0.03556386 -0.02640276 0.0022940096 0.08522032 -0.17770718 -0.15766348
0.17372908 0.12461223 -0.17822058 0.12267575 -0.09307772 0.23312306 0.26799887 0.099743836
-0.13031906 -0.053443775 -0.01639518 -0.030768516 -0.14602265 0.092536144 0.052812237 0.10488694
-0.021898765 0.085043065 -0.04611589 0.14626668 0.21475883 0.19249557 0.11143373 -0.031207489
-0.095494114 0.218603 -0.064632215 -0.0072311503 0.21755166 -0.21687947 -0.13902459 -0.10041286
-0.10174248 0.15592809 -0.12662427 -0.072965495 0.1474372 0.048441425 -0.14321211 -0.032006755
0.09636314 0.1292112 -0.1392815 -0.033528894 0.07500794 0.31594056 0.12851319 0.20049095
-0.04196426 0.02471885 -0.18623465 -0.03196 0.10070799 0.23200919 0.2392452 -0.13044327
-0.09224502 -0.0014125343 -0.059001252 0.08947925 0.082419984 -0.14946039 0.0051377066 0.16285728
-0.015651703 0.021709753 0.0075421277 -0.008555346 0.14658558 -0.21164013 0.00074668374 -0.12906125
0.07853127 0.042892966 0.050378893 -0.029281057 0.008626084 0.21846361 0.24680679 -0.09043764
-0.049870893 0.18306467 0.15418442 0.054995432 -0.13719259 0.064389035 0.19102143 0.0073525077
-0.03750182 -0.071282156 -0.0053985678 -0.04042611 -0.0051137214 0.25100935 -0.014223733 -0.033548046
0.26210082 -0.04770429 0.17475705 0.26214117 -0.032208517 -0.13416004 0.103216864 0.11749657
0.12900913 0.043989923 -0.039864622 0.05634317 -0.08460206 -0.0028575251 -0.053200975 -0.065999456
-0.03348429 -0.056068398 -0.085584365 -0.025925126 -0.16786058 0.22509925 0.09110289 0.08794589
-0.05693384 -0.066117726 0.14862914 0.17874867 0.1900076 0.09473974 0.07833315 0.03370249
-0.05937147 0.0050379937 0.020519797 0.12475166 -0.2282747 0.15635255 0.22497644 -0.05127611
0.23653024 0.07770865 0.07113976 -0.005691134 0.010167565 -0.2840905 0.04370625 -0.055009726
0.08574358 -0.091669045 -0.123482175 0.05672642 -0.15912494 0.057530675 0.04077738 -0.07144469
0.18737736 -0.05202414 -0.0779673 -0.06024142 -0.04203564 -0.0154004935 0.055986207 -0.10588316
0.08280217 -0.054503735 0.07729856 0.0758278 0.123029076 0.14022936 0.113466345 -0.106015585
0.097011305 0.14266215 0.1198765 0.09232844 0.03176512 -0.07338317 0.1350964 0.052108515
-0.03172071 0.16130485 0.029006435 0.041589227 0.01441594 0.0011623758 0.03469089 -0.1061815
0.06416696 0.058373827 -0.0151198935 -0.076021366 0.1372292 0.060367163 -0.07117206 0.086679794
-0.01582645 -0.06256229 0.029167753 0.28279248 0.13677055 0.093959585 -0.033769064 0.16693702

conv4.bias f4 [8]
00000000: 9e19 103e f1b3 84be c36a ca3d 091b e2bd
00000010: e5f9 60be c3c4 583e 3ee5 4b3e 1c0b 0abe
0.14072272 -0.25918534 0.098836444 -0.11040313 -0.21970327 0.21168809 0.19911668 -0.134808

conv5.weight f4 [12, 8, 5, 5]
00000000: 1b0c 81bc 8ce4 0bbe 8df1 ef3c e63b 53bc
00000010: 2217 143c 1a92 4ebd 844e e1bc b62f 2b3d
00000020: edd3 a5bc de14 b1bc a416 813d 3aba b93d
00000030: a295 bd3d 2068 ed3d 2ca8 2dbc 9399 c2bd
00000040: 6562 b5bd 344c b83d 560e ae3b 654b d6bb
00000050: ee97 7abd 9d50 843d a61e 953d 72a2 6bbc
00000060: 6565 86bd 78c2 bcbd 47e2 18bd 7aff d53d
00000070: 8b6f a43d 11be 0cbd aa17 e2bd c80d 9cbd
00000080: 91c9 cb3d 04fb e3bb 1919 33bd 7aa8 23bc
00000090: acba 9cbc c9a1 913d 34d8 7a3c acca e5bc
000000a0: b3e1 80bd f961 00be de58 843b 5aef 5fbd
000000b0: b950 bdbc 437e 2fbe 9915 eebd 2649 6f3d
000000c0: 024f 2fbd d519 1b3d 6732 1c3d fad4 55bd
000000d0: 8672 33bd 4225 8ebd ad0b 51bc d684 0e3c
000000e0: 97fd 6ebc 0f09 cc3d d65e 05bd 6071 8dbd
000000f0: 9081 52bd e221 0dbb 6081 c73c a112 ffba
00000100: d7b5 02bb 940c 55bd dc10 b03d 3f83 0ebc
00000110: cf86 4bbd ca61 09be eb2b 99bc 991e 1f3d
00000120: 0abc 613d 293e f83d c89d cd3d bd28 8b3b
00000130: f50a 25bc c0ea 9abd 0899 22bd 047c 0dbd
00000140: 0584 1ebd 0ee4 373d 9bba d43b 3917 02bd
00000150: af8c 3e3a 8b19 afbd f22a af3c 1b39 9a3d
00000160: a53f d83d 95c3 973d d13f 8fbd b788 c13b
00000170: 59db 453d c14e 3b3d 8c93 7f3c eaf0 a83c
00000180: 821d b1ba 229e 9a38 9a87 8a3c 81b6 bcba
00000190: e1a7 02bc 5987 11ba a43b a03d d6f3 53bd
000001a0: 4bf3 00be 9861 52bd 93f4 a5bb 64ce 103d
000001b0: c2c1 d8bd c5a3 11be db4f a3bc d73f c0bd
000001c0: d365 213d d0b4 96bd 6e34 62bc c05d 1ebd
000001d0: 636b 203d 72c6 14bd 4781 d4ba f4d3 cebd
000001e0: f862 553d 534b 9b3b e689 363c 2cae 90bd
000001f0: a992 7ebd c951 eabd e565 6dbd 79bc 12ba
00000200: 92df 9fbd fe19 b13c 9c4d 4fbd e81a c1bd
00000210: 351d 34bd 2816 cbbd 3f93 91bd 4964 e9bd
00000220: 3d58 eebd eb79 f6bd c770 24bd ccaa a3bd
00000230: 2d5b 55bc 289c 1abe fd0a 86bd af41 8bbd
00000240: aa7e f2bb 0cc1 80bd 7425 febc 0471 98bd
00000250: 6d06 4bbd 9e7b 60bc 2954 1e3b 3fd8 853d
00000260: 70aa d2bc fecf b1bc a813 2b3d 2da9 0e3d
00000270: 5de7 003d be20 a83d e79a 4abd c14f 3d3d
00000280: 75de 683c 25b1 243d 3852 573d 524e a9bc
00000290: b4de 7cbb 6543 18bc 424b 833c f78e c53c
000002a0: db89 113d cea8 2d3d bb16 b6bc 1cee 633d
000002b0: 18d3 d9bc 2941 b8bc c6e2 58bd 5f2c b83d
000002c0: 1b82 cf3d 414a 863d dbe6 8e3c e664 7a3d
000002d0: 7585 8a3d bdc9 853d 21e9 603d ca56 2d3d
000002e0: a2ad 6d3d 2ead 153d 8248 093e 4991 1c3e
000002f0: b09f e13d 58be 78bc 7623 c4ba 94fc 593d
00000300: 57bb a83b e60d ae3d 29d9 913d c72d 123d
00000310: fa42 df3d 92a7 f13d 5bfb 0a3b a8cc c53d
00000320: aa86 3ebd 06d8 8cba 0bf6 903d fa2c eabd
00000330: 0df0 cabd 2355 493d cc45 cd3d 748c 8f3d
00000340: 12ab 78bc b1b2 b9bd 1cc5 553d c4ca 4c3d
00000350: cdb8 c43d 2bb5 c53d 36cc b9bc e0a0 f13c
00000360: 61bb ec3d 52b7 eb3c bfd7 073d 2f9d ac3c
00000370: b65b 313d 596c d23b e79f f33b a5ca 8f3c
00000380: f8c5 fdbd 5d5a 09bd 2bd8 dc3c 878f 07bd
00000390: 65a6 a6bd 0715 97bd 3021 3c3d 8b0c 93bc
000003a0: 3583 b6bc 0927 9dbd 47e7 7cbd 6224 b53d
000003b0: ef88 573d 366a ba3d d835 153c aa89 adbd
000003c0: 0e21 513d ccc9 433d 7766 0b3c d323 96bd
000003d0: 9a65 cfbd e609 45bd c753 7bbd 91a8 40bd
000003e0: 5c35 53bd e0d9 4d3c 10d9 68bd f3e2 8cbd
000003f0: 1b5b 3d3d a1e1 693d 0e0b 253c 4fc6 cbbb
-0.015752843 -0.13661402 0.029289985 -0.012892699 0.009038718 -0.050432302 -0.02750326 0.041793548
-0.020242656 -0.021616396 0.063031465 0.09068723 0.09257056 0.11592126 -0.010599177 -0.09501948
-0.08856658 0.089989096 0.0053117676 -0.0065397494 -0.061180048 0.06460688 0.07281236 -0.014381992
-0.06562308 -0.092167795 -0.03732517 0.10449119 0.08029088 -0.03436095 -0.1103967 -0.07619816
0.09950555 -0.0069574136 -0.043725107 -0.009988898 -0.01913198 0.07110936 0.015310336 -0.028050743
-0.06293049 -0.12537374 0.004038914 -0.054671623 -0.02310978 -0.17138009 -0.11625213 0.05841937
-0.042799957 0.037866432 0.038134005 -0.052205063 -0.04381039 -0.069407 -0.012759131 0.008698663
-0.014586828 0.09962665 -0.032561146 -0.0690639 -0.05139309 -0.0021535088 0.024353683 -0.0019460508
-0.001994481 -0.05201395 0.08596966 -0.008698284 -0.04968911 -0.1341621 -0.0186977 0.03884754
0.05511097 0.12121231 0.1003986 0.0042467997 -0.010073413 -0.07564306 -0.039696723 -0.0345421
-0.038700122 0.044895224 0.0064919717 -0.031760428 0.00072688883 -0.08549794 0.021382783 0.07530423
0.10559014 0.07410351 -0.06994594 0.0059061903 0.04830489 0.045729402 0.015599143 0.02062269
-0.0013512822 7.372747e-05 0.016910363 -0.0014397652 -0.007974596 -0.00055514794 0.078238755 -0.051746212
-0.12592809 -0.051362604 -0.005064556 0.03535308 -0.10583831 -0.1422263 -0.019935539 -0.093871765
0.039403748 -0.07358706 -0.0138064455 -0.038663626 0.039164912 -0.036322065 -0.0016212844 -0.100990206
0.052096337 0.004739204 0.011141276 -0.07064471 -0.062151585 -0.114413805 -0.057958502 -0.00055975426
-0.078063145 0.02161884 -0.050611123 -0.0942896 -0.043973166 -0.09916335 -0.07108163 -0.11396081
-0.11637924 -0.12034973 -0.040146615 -0.07991561 -0.013022226 -0.15098631 -0.065450646 -0.067996375
-0.0074003534 -0.06286821 -0.031023718 -0.07443431 -0.049566675 -0.013701348 0.002415905 0.06535386
-0.025716037 -0.021705624 0.041766793 0.034829307 0.031470645 0.0820937 -0.049464133 0.046218637
0.014213194 0.040208 0.052568644 -0.020667229 -0.003858489 -0.009293412 0.016027097 0.024116023
0.03553186 0.042397313 -0.022227636 0.055647 -0.026589915 -0.022492008 -0.052950643 0.08992838
0.101322375 0.065571316 0.017444065 0.06113138 0.06763736 0.06532619 0.05490983 0.042319097
0.058026917 0.03654211 0.13406566 0.15289797 0.11016786 -0.0151821 -0.0014964181 0.053219393
0.005149286 0.08498745 0.07121498 0.035688188 0.10901447 0.117995396 0.0021206948 0.09658176
-0.046515144 -0.0010745532 0.07078179 -0.1143436 -0.09909067 0.04915346 0.10023078 0.07009211
-0.015177505 -0.09067286 0.05218993 0.04999806 0.096055605 0.09653696 -0.022680383 0.029495656
0.11559177 0.028773937 0.033164736 0.021071045 0.043300353 0.0064216075 0.0074348333 0.017552683
-0.12391275 -0.033533443 0.026958546 -0.033095863 -0.08137206 -0.073770575 0.045930088 -0.017950317
-0.022279361 -0.07673461 -0.061744 0.0884483 0.052620824 0.091022894 0.009107076 -0.08473523
0.051056914 0.04779987 0.008508316 -0.07331052 -0.10126801 -0.048105143 -0.061359193 -0.047035757
-0.05156456 0.0125641525 -0.056847632 -0.06879225 0.046229463 0.057099942 0.010073436 -0.0062187086

conv5.bias f4 [12]
00000000: 0c30 1cbd 56c7 15bd 9545 09be fb09 51bc
00000010: 3a1c e9bd e6ba 20bd 640a b8ba 947f f93d
00000020: 3636 9ebc 6538 06bd bf48 31bb 0605 253d
-0.03813176 -0.036567055 -0.1340545 -0.012758727 -0.11382337 -0.03924074 -0.0014041183 0.12182537
-0.01931296 -0.032768626 -0.0027051417 0.040287994

conv6.weight f4 [6, 12, 7, 7]
00000000: 7dbe 373d 2962 6c3d f241 023d 3eb3 36bc
00000010: 6ba5 10bd 46c4 cfbb 2c2d 8cbd e7c0 26bd
00000020: 76aa 41bd ffd6 aabd 4b0d e5bd f42a b9bd
00000030: d481 ebbd c6df c8bd 1804 bbbd 7b22 84bd
00000040: d610 2fbe 6d99 71be 4087 4fbe 90ef 40be
00000050: 0041 09be a379 21be 4c04 64be ce47 61be
00000060: f106 a2be 2ab3 86be 44e5 66be 91ff 72be
00000070: b37e 2abd 2d1c edbd 38ba 18be 2e8c 40be
00000080: f35d 44be e82a fcbd b66b a8bd 2fea 213c
00000090: 4677 87bd 682f c5bc d908 10be cb08 5abd
000000a0: 65ec 00be 8b3c 8fbd 1aa1 a33c ea05 1a3d
000000b0: 85c8 013d 4579 35bb a59b 9a3c ef07 b9bd
000000c0: ed27 44bd 6b04 e2bc 6ccf 733d 598a 773c
000000d0: 56cf 7e3b a375 d5bc 938b 9fbd 18fe 8bbd
000000e0: f90b 50bc 4190 8c3d cfe3 153d 2590 df3c
000000f0: 28b2 373d 4906 6d3b 14b5 7dbb db1b 1d3d
00000100: 3241 983d b537 323d 460c 6b3d 1372 2e3d
00000110: da8f 353d e90e 603c 34c7 af3b 1b06 223d
00000120: 020e 2f3c 3dc2 493d 4e9f 5cbc e312 3bbc
00000130: cdcc 71bc 25fa 8f3d 6382 0c3c 8f02 ba3b
00000140: 7ac1 e3bc 6b9a 04bc 589c 99bc f136 0f3c
00000150: ee71 c33c ca41 4a3d bb32 173d fb4b 0dbd
00000160: cb87 dabb 0cb9 21bd 90c6 bfba 4340 743c
00000170: a6ea 3ebd 2c57 2fbd 0eb0 933c a49e dbbc
00000180: 464f ae3b 2e1d 3cbd 45fe 743d d412 d63d
00000190: 8e2d f03d 7f03 033e 1cf0 253e 3401 fe3d
000001a0: 8dd6 a53d 62e5 533d 7866 733d 9c78 b03c
000001b0: d549 893d deed 883d 2864 fa3d d209 9f3d
000001c0: 216e d2bc cce2 06bd c8a5 a2bd 0c96 ffbd
000001d0: 807d bfbc 58db 9d3d 36ad 603d 2a9d babb
000001e0: 77ae 14be 1c9c 4ebe d020 69be 08a8 d8bd
000001f0: afea f9bc 469b db3d 196f 383d f3e1 00be
00000200: bb6b 30be 5ac3 3ebe 0014 8fbd 90a0 f93b
00000210: 1824 ee3d 2d91 633d eb1b 33bd 71b8 b9bd
00000220: 8828 08be 19af acbd 9196 943d 5844 fe3d
00000230: 0c57 883d b370 8a3c 8d64 e9bc 18d0 dbbc
00000240: 6459 2f3d baae e53d 6c3b ac3d 7666 bebb
00000250: 090b b3bc 5a06 48bd e36a 06bd 15de 033c
00000260: 9540 c53c 7804 1f3d 845b 863b e59b e8bc
00000270: 6c0b 2cbd a30b 44bd 0269 e2bc 8c72 25bd
00000280: dfc4 243d df9a 18bd a8dc 36bd b67f 44bc
00000290: 17c3 53bd 3656 0a3b 6779 35bd 3a90 033d
000002a0: 5079 54bd 2ac9 4abd ae95 91bd 24ba 0ebd
000002b0: aed5 c0bb 8abf 47bd 9dbf dbbb 4942 b4bc
000002c0: cc69 563b 4fbf 93bd 6ed7 69bc 58eb 8cbc
000002d0: 410c 25bd d244 d0bb 198b 1cbd 5da0 70ba
000002e0: 045a e73b cde6 8ebd 2162 72bb 31df 0ebd
000002f0: 464d 65bd ec7b bdbc 15e1 05bc d988 2e3d
00000300: 9fc7 b9bc d2d2 ad3c 691a 06bb e28c da3b
00000310: 27aa d2bc 20f8 803c a3c7 253d 188f 053d
00000320: fe81 ffbb 694a 923c 4f9d 803b 612a 033d
00000330: 8f64 56bc fe8c 5fbc f7aa 933c 9cdf 0abd
00000340: 2fea 763c 6a02 55bd 602e 163d 9302 e3bc
00000350: 3afa 5ebc 2f4f 85bc 2d60 fbbc 8574 0dbd
00000360: 515a 49bd 3db7 2ebd 985a 99bd 2e58 5cbd
00000370: c524 7ebd b638 44bd afe6 91bd 818c d1bd
00000380: 8f63 babc fd4d 33bc 0f8b f2bb d70a 86bd
00000390: 2e2a 8abd 97ca 2fbd 9f60 b3bb 1443 97bd
000003a0: 05cb a53c 0db7 5abb b9cf f4bc 9291 97bd
000003b0: fb7f 20bd 110f efbc ef04 60bc 725a 52bd
000003c0: 2366 9abc c36f a4bd 4594 98bd 3c41 93bc
000003d0: ec03 8abd 9118 04bd 1585 11ba 4f09 97bc
000003e0: f123 1bbd fa98 89bc 0d13 3fbd 1b93 c4bc
000003f0: 219c d7bc 7fcc 4cbd 8e37 24bc 7644 83bd
0.0448594 0.0577108 0.03180117 -0.011151133 -0.035314005 -0.0063405363 -0.06844553 -0.04071131
-0.047281705 -0.083417885 -0.11184176 -0.09041396 -0.11499372 -0.098083064 -0.0913164 -0.06451889
-0.17096266 -0.23593684 -0.20266438 -0.18841386 -0.13403702 -0.15769057 -0.22267264 -0.22000048
-0.3164592 -0.26308566 -0.22548395 -0.23730303 -0.041624736 -0.1157764 -0.14914787 -0.18803474
-0.19176464 -0.12312871 -0.08223669 0.009882494 -0.066145465 -0.024070457 -0.14065875 -0.053231042
-0.12590177 -0.069939695 0.01997428 0.037603296 0.03168537 -0.002769069 0.018873045 -0.09034716
-0.04788964 -0.027589997 0.059523985 0.015108668 0.0038880906 -0.02605707 -0.077902935 -0.06835574
-0.012698167 0.06863452 0.03659421 0.027290413 0.044847637 0.0036167076 -0.0038712667 0.038356643
0.0743431 0.043510158 0.05738475 0.04258926 0.04432664 0.01367543 0.005364323 0.039556604
0.010684492 0.049257506 -0.013465716 -0.011418077 -0.014758301 0.07030133 0.0085760085 0.0056765745
-0.027802218 -0.008093457 -0.018751308 0.008741126 0.023858037 0.049379148 0.036913615 -0.03449629
-0.00666902 -0.039483115 -0.001463132 0.014907899 -0.046610497 -0.042807743 0.018028285 -0.026809044
0.0053195087 -0.045926265 0.059812803 0.1045281 0.11727439 0.12794302 0.16204876 0.12402573
0.08097563 0.05173243 0.059423894 0.021541886 0.067035355 0.066859946 0.122261345 0.07765545
-0.02568728 -0.032931134 -0.079417765 -0.12479791 -0.023375273 0.07707852 0.054852687 -0.005695005
-0.14519678 -0.20176739 -0.22766423 -0.105789244 -0.030507414 0.107229754 0.045027826 -0.12586193
-0.17228596 -0.18629208 -0.069862366 0.0076180175 0.11627978 0.055558372 -0.043727797 -0.090683825
-0.13296711 -0.08431835 0.07255281 0.12415379 0.06657228 0.016899442 -0.02849033 -0.026832625
0.04280986 0.11214967 0.08409771 -0.005810554 -0.021855848 -0.048834182 -0.03281678 0.008048554
0.024078647 0.03882262 0.004100265 -0.028394649 -0.04200308 -0.04786266 -0.027637962 -0.040392444
0.040226813 -0.03725707 -0.044644028 -0.011993339 -0.051699724 0.0021108515 -0.04430523 0.032119967
-0.051873505 -0.04950825 -0.07108627 -0.034845486 -0.0058848476 -0.04876665 -0.0067061917 -0.022004263
0.0032716868 -0.072142236 -0.014272554 -0.017202064 -0.04029489 -0.0063558603 -0.03821859 -0.00091791694
0.0070602912 -0.069776155 -0.003698476 -0.03488082 -0.055981897 -0.02313038 -0.0081713395 0.042610977
-0.022678195 0.021218691 -0.002046252 0.0066696266 -0.0257159 0.015743315 0.04047359 0.032607168
-0.0077974787 0.017857747 0.0039250026 0.032022838 -0.0130854985 -0.013644455 0.018025858 -0.033904657
0.015070482 -0.052004255 0.03666532 -0.027711188 -0.013609463 -0.01627311 -0.030685509 -0.03453495
-0.049158398 -0.04265522 -0.074879825 -0.053795032 -0.062046785 -0.047905646 -0.071240775 -0.10231877
-0.022752551 -0.010943887 -0.007401831 -0.06545036 -0.067463264 -0.042917814 -0.0054741646 -0.07385841
0.020238409 -0.0033373267 -0.029884206 -0.07400812 -0.03918455 -0.029181989 -0.013673051 -0.051355787
-0.01884753 -0.08029129 -0.07450155 -0.017975442 -0.06739029 -0.03224999 -0.0005551142 -0.018437056
-0.037876073 -0.016796578 -0.046649028 -0.023995927 -0.026319565 -0.04999971 -0.010023011 -0.06409542

conv6.bias f4 [6]
00000000: 5b74 c13c 934c 0b3e b61a c6bd dbcc c13c
00000010: c332 983d 7eaf 543d
0.023615053 0.1360343 -0.096730635 0.023657253 0.07431557 0.051925175
