old_detector/CAE_20E-64B-0.001L.pt (torch_old, 51353 bytes, 12 tensors)

conv1.weight f4 [12, 6, 7, 7]
0.05088213 0.04190036 0.052303955 0.05145403 0.023372255 0.04745681 0.056619413 0.04531186
-0.020212866 -0.045314223 -0.022965875 0.008775525 0.05776894 -0.05177982 0.028038584 -0.01234553
-0.0133996345 0.042132348 0.013626784 -0.057435934 -0.053224735 -0.055042345 -0.044330567 0.023580253
0.047248483 -0.042677872 0.047043033 0.02509559 -0.00026390702 0.012665175 0.054392807 0.034808896
-0.034576442 -0.03134679 0.040663607 0.019009493 -0.04514598 -0.038381506 -0.05077398 -0.019299172
0.04010915 0.032945804 -0.05003733 0.02564425 0.053956874 0.015603051 -0.05789859 -0.0055771135
-0.01036007 -0.04682787 0.023394138 -0.010288402 -0.042225517 -0.017573088 0.037148185 -0.05328288
-0.004743982 0.04991933 -0.039126564 -0.057931315 -0.022412248 0.04088418 0.010656238 -0.014844947
-0.02966789 -0.0042682216 0.006283261 0.03944666 0.01056239 -0.054706585 0.0032501146 -0.029460277
-0.04949653 0.0029825978 0.048418 0.036205247 0.053624153 -0.0449557 0.011341944 0.041798413
-0.016015466 -0.051966388 0.035985447 0.021836124 -0.047219258 0.01976861 -0.035241734 0.051669158
0.021868587 0.005548589 0.036592 -0.041568756 0.019410595 0.047645725 -0.008677762 0.01796811
-0.019537017 -0.054566715 0.02371446 -0.015418246 0.0025804155 -0.00994752 -0.057771824 0.054430388
0.057964362 -0.04902324 0.008414611 -0.04921733 -0.02163849 -0.029363256 0.022182941 -0.024276938
-0.047828402 0.03151898 -0.01063405 0.027189381 -0.0037312135 -0.02555865 0.00038934126 -0.04227364
-0.020857204 -0.026030116 0.018622667 -0.00940961 -0.053095713 -0.02021655 0.012219921 -0.04643224
-0.03888119 0.017080538 0.031583846 0.0045314357 -0.006281331 -0.038453568 -0.048289828 0.008054398
0.04151144 0.048173532 0.03528917 0.04651496 0.029630981 -0.019760981 0.02585812 -0.048495945
-0.029397866 -0.03866849 0.010540962 -0.023274384 -0.009808589 -0.0050470866 -0.0010995753 -0.04319326
0.01094275 0.03810084 0.0153004825 0.057211205 0.035921156 -0.014151875 0.004582174 -0.049673647
0.0541336 -0.028085519 -0.008418277 0.05360893 0.044664644 -0.010623865 -0.0066636577 0.01993259
0.00039754063 0.025953032 0.016108863 0.018360697 0.030495323 0.031015977 -0.042182982 -0.05739433
0.025982998 -0.039709907 0.0029705577 -0.027464826 -0.049780767 0.012468584 0.04990775 -0.049540367
0.01915446 0.01909452 -0.021231726 0.01626943 -0.023674417 0.035526447 -0.055435523 0.021973073
0.034769915 -0.015158571 -0.0352059 -0.040672235 0.046317875 -0.03084817 0.054833278 -0.055252872
-0.048369113 0.02884093 -0.039655864 -0.0546838 -0.035599783 0.009221196 0.024793155 0.013771795
0.013823241 0.011604972 -0.043316443 0.058123566 -0.021703504 0.0073113292 -0.006344881 -0.03651482
-0.04913456 -0.034190692 0.052439205 0.040180884 -0.005355928 -0.046377216 -0.05486734 0.015620165
-0.052107975 -0.05589159 -0.03971369 -0.021047235 0.050059274 -0.007788997 -0.0028250068 0.053523056
0.053980388 0.0027490295 0.007783897 -0.014019251 -0.002353683 0.048947796 -0.041389022 -0.0060417503
-0.00839201 -0.0015771873 0.04453633 -0.034840226 -0.048282396 -0.050173238 0.053940177 -0.045429036
-0.015464202 -0.052962214 0.01773116 0.025001943 -0.036956258 -0.0032842308 -0.035264295 -0.027948208
00000000: c869 503d b69f 2b3d ac3c 563d 76c1 523d
00000010: 2c77 bf3c 1262 423d c2e9 673d ee98 393d
00000020: 7495 a5bc 689b 39bd ee22 bcbc 38c7 0f3c
00000030: 209f 6c3d 1417 54bd 2cb1 e53c e844 4abc
00000040: 248a 5bbc f892 2c3d e042 5f3c f141 6bbd
00000050: 2e02 5abd 1574 61bd f893 35bd 602b c13c
00000060: a087 413d fece 2ebd 32b0 403d 4495 cd3c
00000070: 005d 8ab9 9881 4f3c feca 5e3d c693 0e3d
00000080: 07a0 0dbd 7e65 00bd e28e 263d ccb9 9b3c
00000090: feea 38bd ed35 1dbd 60f8 4fbd 4c19 9ebc
000000a0: 7e49 243d 2ef2 063d f1f3 4cbd e413 d23c
000000b0: e201 5d3d f0a3 7f3c 1227 6dbd 38c0 b6bb
000000c0: 48bd 29bc 95ce 3fbd 10a5 bf3c b090 28bc
000000d0: aaf4 2cbd 70f5 8fbc b228 183d 263f 5abd
000000e0: 6873 9bbb 3678 4c3d 2d43 20bd 6349 6dbd
000000f0: e499 b7bc 2c76 273d 8097 2e3c 3838 73bc
00000100: 130a f3bc 70dc 8bbb d0e3 cd3b d292 213d
00000110: e00d 2d3c 0314 60bd e0ff 543b ae56 f1bc
00000120: e0bc 4abd b077 433b f451 463d f44b 143d
00000130: 00a5 5b3d 7823 38bd 90d3 393c d034 2b3d
00000140: de32 83bc b5da 54bd 7a65 133d ace1 b23c
00000150: fb68 41bd c8f1 a13c a359 10bd 0aa3 533d
00000160: c025 b33c f0d0 b53b 7ee1 153d 0044 2abd
00000170: f802 9f3c 2a28 433d 2c2d 0ebc dc31 933c
00000180: 180c a0bc 5981 5fbd d444 c23c d09c 7cbc
00000190: 301c 293b ecfa 22bc 26a2 6cbd 66f2 5e3d
000001a0: 0a6c 6d3d 98cc 48bd 70dd 093c 1c98 49bd
000001b0: 3443 b1bc 368b f0bc 00b9 b53c 6ee0 c6bc
000001c0: b7e7 43bd 0c1a 013d 703a 2ebc 44bc de3c
000001d0: 6087 74bb 6060 d1bc 8020 cc39 2027 2dbd
000001e0: badc aabc 1c3d d5bc 908e 983c c42a 1abc
000001f0: e47a 59bd 2e9d a5bc 1036 483c bc2f 3ebd
00000200: e241 1fbd 7cec 8b3c 105e 013d 707c 943b
00000210: a0d3 cdbb 7d81 1dbd 8ecb 45bd 98f6 033c
00000220: e607 2a3d 9c51 453d 608b 103d 7886 3e3d
00000230: acbc f23c c8e1 a1bc 68d4 d33c afa3 46bd
00000240: cbd3 f0bc da62 1ebd 00b4 2c3c eca9 bebc
00000250: 34b4 20bc 0862 a5bb a01f 90ba 6aeb 30bd
00000260: 3849 333c a00f 1c3d e0ae 7a3c 4c56 6a3d
00000270: 1022 133d 44dd 67bc 1026 963b 9876 4bbd
00000280: 32bb 5d3d 9a13 e6bc d0ec 09bc 0a95 5b3d
00000290: 46f2 363d b80f 2ebc d05a dabb ac49 a33c
000002a0: 006d d039 749b d43c bcf6 833c 2c69 963c
000002b0: 54d1 f93c 3815 fe3c 10c8 2cbd 5116 6bbd
000002c0: 4cda d43c dba6 22bd b0ad 423b eafd e0bc
000002d0: ebe6 4bbd 0849 4c3c 126c 4c3d d7ea 4abd
000002e0: d0e9 9c3c 1c6c 9c3c 28ee adbc 7847 853c
000002f0: daf0 c1bc 2e84 113d 5c10 63bd e000 b43c
00000300: e66a 0e3d a85b 78bc 1034 10bd ee97 26bd
00000310: d0b7 3d3d 4db5 fcbc dc98 603d d650 62bd
00000320: b11e 46bd d043 ec3c 306e 22bd 1ffc 5fbd
00000330: 14d1 11bd 8014 173c 041b cb3c 18a3 613c
00000340: e07a 623c c822 3e3c 956c 31bd fa12 6e3d
00000350: 8ccb b1bc e093 ef3b b8e8 cfbb 9090 15bd
00000360: 5241 49bd 8a0b 0cbd 7eca 563d b694 243d
00000370: c880 afbb 09f6 3dbd 93bc 60bd b8eb 7f3c
00000380: 2c6f 55bd 94ee 64bd d2aa 22bd 406b acbc
00000390: f40a 4d3d d83a ffbb c023 39bb fe3a 5b3d
000003a0: 8a1a 5d3d 1029 343b 1010 ff3b 00b1 65bc
000003b0: 4040 1abb 7c7d 483d 8987 29bd e0f9 c5bb
000003c0: a47e 09bc a0b9 ceba ba6b 363d a0b4 0ebd
000003d0: c3c3 45bd 7482 4dbd 60f0 5c3d cc13 3abd
000003e0: 905d 7dbc e8ee 58bd f040 913c e0d0 cc3c
000003f0: 725f 17bd 403c 57bb 4b71 10bd a4f3 e4bc

conv1.bias f4 [12]
0.014792167 -0.022640064 -0.036735438 -0.025204167 0.039773464 -0.035521075 0.04000804 0.021349475
-0.057434987 -0.0071355663 0.02640941 -0.0057103
00000000: d85a 723c a877 b9bc e677 16bd f878 cebc
00000010: 80e9 223d 8c7e 11bd 78df 233d 18e5 ae3c
00000020: f340 6bbd 78d1 e9bb 8c58 d83c 781d bbbb

conv2.weight f4 [8, 12, 5, 5]
-0.030350924 0.015693702 0.052938335 -0.008662228 0.022465795 9.819493e-05 -0.007078279 0.050187707
-0.019508544 -0.02678548 0.008725531 0.0057178885 -0.0015177615 0.02206581 0.039028004 -0.053119306
0.014546536 -0.028960606 -0.05297508 0.05151529 0.025121525 0.010683149 0.024744168 0.039484523
-0.056750737 -0.0119077 -0.0104003325 -0.017694008 0.05320199 -0.005819343 -0.03973566 -0.0075203627
0.021734908 -0.026706131 0.057257675 -0.03211703 -0.04499863 -0.027564859 -0.03325139 -0.024129704
0.004792668 0.05679538 -0.02942551 -0.017447308 -0.033077557 -0.034396537 -0.024136119 0.03879176
-0.04474474 -0.028244773 -0.026686735 0.02238305 -0.008437339 0.019719474 -0.008211531 0.016052477
-0.036142945 -0.031045696 -0.042315632 -0.05216208 -0.026572237 -0.04121256 -0.026145305 0.032653205
-0.030017292 -0.04824778 0.05330278 -0.03774667 0.017574891 0.034965217 0.04058277 0.049226858
-0.048026383 -0.028136084 -0.025729656 0.053686805 -0.056517977 -0.040342703 0.02599211 -0.0068210885
-0.030131383 -0.056364786 0.0047798604 0.013993181 0.055384666 -0.02521658 -0.05252368 -0.011204347
-0.024831545 -0.05372274 0.040289335 -0.043261394 0.043035097 -0.056778174 0.057609983 0.032620832
-0.022340238 0.035146236 0.055263206 -0.02787509 -0.04596469 -0.0068579614 -0.021354243 0.0002136752
-0.021449335 0.045104906 -0.054759555 0.013429761 -0.02357722 0.051198944 -0.005410932 0.016983017
0.017635085 -0.0153177455 0.02504827 0.010818906 0.017049193 -0.011794098 -0.0074628666 -0.051371943
-0.05474683 0.05483687 0.030395217 -0.028897425 -0.042662114 0.042319536 0.0524382 0.030375376
0.03343349 0.02046471 -0.0072595105 0.027370848 -0.009125739 -0.03896515 0.029225543 -0.020335235
-0.050634574 0.038644366 0.053207643 0.05583863 0.025021233 -0.016910262 0.053042382 0.012641817
0.020269156 -0.026996711 -0.031425543 0.04148642 0.057400748 0.0064413473 0.05022075 0.05023302
7.732585e-05 0.02527909 -0.037452698 0.039897934 -0.00088368356 0.04513698 -0.025352169 -0.03872665
-0.019803233 0.047783725 0.039752558 0.05383061 -0.04522696 -0.024480823 -0.0024882779 -0.005755011
0.01797133 -0.037559584 -0.03064037 -0.046616748 0.039518416 0.01821284 0.03513278 0.010619611
-0.019550271 -0.01542858 0.025695838 0.02147112 0.05317238 0.0075575486 -0.037001193 -0.05630544
-0.020825472 0.0073049963 -0.025048297 0.04950379 -0.045009464 -0.04433553 0.010477878 0.038115546
-0.007141672 0.047268465 0.029129796 -0.027086997 -0.028389052 0.05216234 -0.05075859 0.004316177
-0.022084579 0.055010088 0.008459121 0.01066298 0.045428738 0.018667154 -0.028096097 0.04484465
-0.01327185 -0.0055207014 -0.029313888 0.0018940717 -0.039945357 -0.02821173 -0.010629792 0.009914368
-0.027973821 -0.042579547 -0.0044107586 0.0076164454 -0.0074436367 -0.035634458 0.053497955 -0.029174186
0.015202597 -0.0045889355 -0.01968544 -0.021477744 0.046291634 0.011945248 -0.034454197 -0.026747074
0.03811139 0.046822086 -0.04847383 -0.00480124 0.055300735 -0.021922268 -0.03197825 0.0356024
-0.025304072 0.032140076 -0.00031317025 -0.007969767 0.005310394 0.008190282 -0.02975599 0.057000563
0.008362651 -0.00328134 0.0153351575 -0.042208284 -0.031106029 0.05733426 0.043427728 -0.04836821
00000000: 80a2 f8bc 1490 803c ded5 583d 04ec 0dbc
00000010: 300a b83c 00ee cd38 e8f0 e7bb a091 4d3d
00000020: 62d0 9fbc 396d dbbc 88f5 0e3c 205d bb3b
00000030: a0ef c6ba 5cc3 b43c d4db 1f3d a193 59bd
00000040: 9854 6e3c cb3e edbc 66fc 58bd b201 533d
00000050: a8cb cd3c 6008 2f3c 48b4 ca3c 86ba 213d
00000060: 7673 68bd 8418 43bc 2866 2abc 06f3 90bc
00000070: 54ea 593d 30b0 bebb dcc1 22bd 606d f6bb
00000080: 680d b23c d1c6 dabc 0687 6a3d 268d 03bd
00000090: 7c50 38bd b3cf e1bc 9c32 08bd a8ab c5bc
000000a0: d00b 9d3b 46a2 683d c40d f1bc a8ed 8ebc
000000b0: 557c 07bd 62e3 0cbd 1cb9 c5bc 1ce4 1e3d
000000c0: 4346 37bd 9561 e7bc 249e dabc a85c b73c
000000d0: c43c 0abc bc8a a13c a889 06bc 7c80 833c
000000e0: a00a 14bd 8b53 febc 2853 2dbd e8a7 55bd
000000f0: 05ae d9bc 80ce 28bd ae2e d6bc 5ebf 053d
00000100: d3e6 f5bc 779f 45bd 0454 5a3d 419c 1abd
00000110: 38f9 8f3c b037 0f3d 1e3a 263d 1aa2 493d
00000120: 50b7 44bd a57d e6bc 00c7 d2bc b2e6 5b3d
00000130: 657f 67bd 643e 25bd 68ed d43c 7083 dfbb
00000140: 17d6 f6bc c3de 66bd 60a0 9c3b a843 653c
00000150: 08db 623d 0093 cebc 1223 57bd 7092 37bc
00000160: 866b cbbc 600c 5cbd 6e06 253d dc32 31bd
00000170: 9245 303d 3b90 68bd 72f8 6b3d 6c9d 053d
00000180: e002 b7bc 80f5 0f3d ac5b 623d 4d5a e4bc
00000190: 7945 3cbd c0b8 e0bb 18ef aebc 000e 6039
000001a0: 84b6 afbc ecbf 383d 8e4b 60bd 8008 5c3c
000001b0: 0425 c1bc fcb5 513d 304e b1bb f81f 8b3c
000001c0: 7477 903c 48f7 7abc 0832 cd3c c841 313c
000001d0: c0aa 8b3c 083c 41bc 108b f4bb 636b 52bd
000001e0: 363e 60bd a09c 603d 64ff f83c 4bba ecbc
000001f0: 78be 2ebd 4057 2d3d 70c9 563d c8d5 f83c
00000200: 8ef1 083d 9ca5 a73c 30e1 edbb d438 e03c
00000210: 2084 15bc ec99 1fbd 686a ef3c 1496 a6bc
00000220: 3366 4fbd 8e49 1e3d 42f0 593d 0cb7 643d
00000230: 54f9 cc3c 6487 8abc f842 593d a01f 4f3c
00000240: 800b a63c 3528 ddbc 12b8 00bd aaed 293d
00000250: 0c1d 6b3d f011 d33b 46b4 4d3d 24c1 4d3d
00000260: 002a a238 1816 cf3c 0068 19bd 046c 233d
00000270: 00a7 67ba 8ee1 383d 5aaf cfbc d69f 1ebd
00000280: 643a a2bc deb8 433d 94d3 223d 7c7d 5c3d
00000290: e83f 39bd 028c c8bc 6012 23bb 8894 bcbb
000002a0: 9c38 933c 14d8 19bd 8301 fbbc 34f1 3ebd
000002b0: 10de 213d 1833 953c 64e7 0f3d e0fd 2d3c
000002c0: e427 a0bc 28c8 7cbc 1480 d23c 34e4 af3c
000002d0: 48cb 593d 50a5 f73b 908e 17bd 88a0 66bd
000002e0: 2e9a aabc c05e ef3b 1632 cdbc 7cc4 4a3d
000002f0: d85b 38bd 2c99 35bd 68ab 2b3c 0c1f 1c3d
00000300: b004 eabb 949c 413d 9ca1 ee3c 8de5 ddbc
00000310: 2890 e8bc 2ea8 553d 3de8 4fbd b86e 8d3b
00000320: b8ea b4bc 4252 613d 2098 0a3c c8b3 2e3c
00000330: 7c13 3a3d dceb 983c c929 e6bc 06af 373d
00000340: 2c72 59bc 00e7 b4bb ae23 f0bc 8042 f83a
00000350: be9d 23bd 491c e7bc 9428 2ebc e06f 223c
00000360: 5b29 e5bc e467 2ebd 2088 90bb 6093 f93b
00000370: c0e9 f3bb 70f5 11bd ac20 5b3d b4fe eebc
00000380: 5014 793c c85e 96bb 5c43 a1bc 18f2 afbc
00000390: 4c9c 3d3d 00b6 433c d81f 0dbd ae1c dbbc
000003a0: b01a 1c3d 84c8 3f3d 7f8c 46bd b853 9dbb
000003b0: 0683 623d 5496 b3bc a0fb 02bd d2d3 113d
000003c0: 7c4a cfbc 50a5 033d 0031 a4b9 a093 02bc
000003d0: d002 ae3b 8830 063c d5c2 f3bc 6c79 693d
000003e0: 8003 093c c00b 57bb 5040 7b3c 98e2 2cbd
000003f0: 12d2 febc 54d7 6a3d 46e1 313d bf1d 46bd

conv2.bias f4 [8]
-0.01755752 0.026707165 0.036281876 0.016767554 0.004605226 0.028967313 -0.03516233 -0.01737297
00000000: cad4 8fbc fcc8 da3c 4e9c 143d 1c5c 893c
00000010: 70e7 963b dc4c ed3c 6006 10bd c251 8ebc

conv3.weight f4 [3, 8, 3, 3]
0.010842301 0.03199292 0.10541292 0.034026988 0.11143907 0.0047668368 -0.013534069 -0.10919563
-0.052035846 -0.063054174 0.0068714544 -0.11522242 -0.10726553 -0.03130728 -0.06384946 0.009641625
-0.09754735 0.0867786 0.06590923 0.011077084 -0.013052456 -0.033146054 0.05309435 0.101723365
-0.013961829 0.0022249073 -0.05328303 0.11456139 0.07416386 -0.04932856 -0.112428784 -0.08767844
-0.1008015 0.058784045 -0.012761459 -0.020548038 -0.04844082 -0.01741419 0.10406109 0.04770907
-0.002088964 0.057351626 0.0031412914 0.09508615 -0.078056976 0.10496905 -0.10338119 0.07842041
-0.08750481 -0.061859883 -0.11105558 0.08420647 0.032606043 -0.06411789 -0.04855848 0.050727747
-0.06836 0.051018797 0.00075022876 0.03748671 0.0075174496 -0.033879705 0.0088465735 0.07567539
0.11145609 -0.073093444 0.10569432 -0.107670546 0.06667528 0.06572709 0.054949366 0.0018662363
-0.02002363 -0.05753902 -0.10105585 -0.029458754 0.11654513 0.10465933 0.094967954 0.11468931
0.10766215 0.09062982 0.11381274 -0.0479327 -0.08412181 -0.06846474 0.102996476 0.0023767203
-0.02633112 -0.087223575 0.02699525 -0.06050888 0.11538953 -0.027861819 0.03178487 -0.031172663
0.08393357 -0.043766774 -0.0539952 -0.0984474 -0.023226932 -0.11466204 -0.01836411 -0.059188128
-0.042540796 0.105125435 -0.02045668 -0.010421231 0.07101502 0.114361845 0.078257225 -0.07751879
-0.009417921 0.11025239 0.081030406 -0.0119304955 0.057180844 0.0071166754 -0.048062436 0.018856622
-0.06994219 0.051738657 -0.05500143 0.0676207 0.11511435 0.07593461 0.11334305 -0.025577165
0.112975426 -0.043227926 -0.07114336 -0.080394134 0.09134411 -0.11311905 0.10522216 -7.390976e-06
-0.0854861 0.07418888 -0.086004816 -0.055735905 0.09902417 -0.116357684 -0.004707411 0.116351075
0.08703851 -0.10425258 0.0057687387 -0.0788576 0.09076271 0.09822782 -0.04163114 -0.06984903
0.093915455 -0.019501321 0.10412938 0.11515919 -0.09398638 -0.06295844 -0.008382767 -0.07228942
-0.08410915 -0.058900967 -0.036255307 -0.116776794 -0.0910807 0.112217 -0.071238264 0.10778705
0.009256296 0.071155675 0.0031779036 0.030296542 0.041000523 0.08585345 -0.034629703 0.031157725
0.024742164 0.076955654 0.010979913 0.073605455 -0.07888354 -0.027132794 0.039190196 -0.08882687
-0.0823372 -0.09382638 0.086929284 0.00800968 -0.04704815 0.10265372 -0.053738676 0.10806317
-0.06469439 0.103040196 0.06398203 0.090475716 -0.019550167 0.09871238 0.018313833 0.08776345
-0.088600725 -0.019045457 0.1048687 -0.08200077 -0.07726699 -0.0134994835 0.02354879 0.079351656
0.07227277 0.010759331 -0.115378894 0.014589228 -0.06361173 -0.06788911 -0.044888176 -0.09307296
00000000: e8a3 313c 020b 033d bbe2 d73d e25f 0b3d
00000010: 2b3a e43d 2033 9c3b 00be 5dbc f5a1 dfbd
00000020: 8a23 55bd 8c22 81bd f029 e13b bbf9 ebbd
00000030: 08ae dbbd 103c 00bd 81c3 82bd e8f7 1d3c
00000040: e8c6 c7bd fbb8 b13d 6bfb 863d a87c 353c
00000050: f8d9 55bc 28c4 07bd 7679 593d 5754 d03d
00000060: 28c0 64bc c0cf 113b 4e3f 5abd 299f ea3d
00000070: 39e3 973d be0c 4abd 1041 e6bd c190 b3bd
00000080: 0471 cebd 8ac7 703d 7015 51bc 5c54 a8bc
00000090: e269 46bd 34a8 8ebc fb1d d53d 966a 433d
000000a0: 00e7 08bb 8ae9 6a3d 20de 4d3b 87bc c23d
000000b0: 56dc 9fbd 03fa d63d 84b9 d3bd e19a a03d
000000c0: b935 b3bd ca60 7dbd 1c71 e3bd 7174 ac3d
000000d0: ea8d 053d 3e50 83bd 42e5 46bd e6c7 4f3d
000000e0: 5400 8cbd 16f9 503d 00ab 443a aa8b 193d
000000f0: f054 f63b 72c5 0abd 38f1 103c b3fb 9a3d
00000100: 1743 e43d 04b2 95bd 4376 d83d 6082 dcbd
00000110: 0d8d 883d ed9b 863d 9612 613d 809c f43a
00000120: 9808 a4bc 09ae 6bbd 5ff6 cebd 7c53 f1bc
00000130: 37af ee3d a157 d63d 8f7e c23d 3be2 ea3d
00000140: f97d dc3d 219c b93d a716 e93d 1455 44bd
00000150: 0e48 acbd 3e37 8cbd d1ef d23d c0c2 1b3b
00000160: 5cb4 d7bc 46a2 b2bd 2425 dd3c 29d8 77bd
00000170: 5951 ec3d 783e e4bc da30 023d d05d ffbc
00000180: 5de5 ab3d ca44 33bd 122a 5dbd ca9e c9bd
00000190: 6846 bebc eed3 eabd 5470 96bc 406f 72bd
000001a0: 423f 2ebd 014c d73d c494 a7bc d0bd 2abc
000001b0: 5370 913d 8b36 ea3d 5345 a03d 2cc2 9ebd
000001c0: a04d 1abc 01cc e13d 45f3 a53d 2078 43bc
000001d0: 7636 6a3d 0033 e93b 1edd 44bd 3479 9a3c
000001e0: da3d 8fbd eaeb 533d 2e49 61bd b97c 8a3d
000001f0: 13c1 eb3d 9b83 9b3d 6720 e83d 3487 d1bc
00000200: a95f e73d c40f 31bd 9cb3 91bd aea5 a4bd
00000210: 9f12 bb3d f6aa e7bd b77e d73d 0000 f8b6
00000220: 5613 afbd 57f0 973d 4b23 b0bd 554b 64bd
00000230: 2fcd ca3d f04c eebd a040 9abb 7949 ee3d
00000240: 3f41 b23d 6082 d5bd b007 bd3b 1880 a1bd
00000250: cde1 b93d ab2b c93d 6a85 2abd 020d 8fbd
00000260: bf56 c03d 3cc1 9fbc c941 d53d 95d8 eb3d
00000270: ee7b c0bd 5bf0 80bd e057 09bc 7a0c 94bd
00000280: 6b41 acbd 2442 71bd 7280 14bd ac28 efbd
00000290: 8588 babd 07d2 e53d 5ee5 91bd 75bf dc3d
000002a0: b8a7 173c 11ba 913d 6044 503b 7430 f83c
000002b0: 2af0 273d efd3 af3d e0d7 0dbd 7c3e ff3c
000002c0: 14b0 ca3c ed9a 9d3d 18e5 333c 75be 963d
000002d0: b28d a1bd 9845 debc e685 203d ddea b5bd
000002e0: 68a0 a8bd 0c28 c0bd fb07 b23d 083b 033c
000002f0: 90b5 40bd 1d3c d23d 161d 5cbd 3950 dd3d
00000300: 7e7e 84bd bd06 d33d 0309 833d 554b b93d
00000310: ac27 a0bc b729 ca3d e406 963c 53bd b33d
00000320: 4c74 b5bd 3805 9cbc 67c5 d63d 05f0 a7bd
00000330: 283e 9ebd f02c 5dbc 64e9 c03c 1f83 a23d
00000340: bf03 943d e847 303c c54b ecbd a807 6f3c
00000350: de46 82bd 7209 8bbd aadc 37bd 099d bebd

conv3.bias f4 [3]
-0.091767386 -0.027741984 -0.041382752
00000000: 8af0 bbbd 2843 e3bc f680 29bd

conv4.weight f4 [8, 3, 3, 3]
-0.15467173 -0.14277066 0.0052725673 0.077050015 -0.08792169 -0.15906355 -0.13266146 0.15460984
-0.09548306 -0.018793955 0.026488274 -0.026686013 -0.07250546 0.14166097 0.107101396 -0.11247746
0.03778477 0.05731988 0.02087833 0.12976845 0.04426481 0.0758373 0.058114216 0.018328324
0.09351866 0.13712348 0.07498978 -0.1273467 -0.14591232 0.02942568 -0.04418476 0.06095846
-0.15043508 0.06699182 0.18004246 0.00020943582 -0.05774723 -0.14342885 0.1734048 0.023794055
-0.12492735 -0.05408378 0.11037375 0.12404509 0.033067197 0.0445372 -0.17054605 0.06028022
-0.029757425 0.035171404 -0.18362492 0.16520606 -0.026152804 0.033369318 0.12484039 -0.18830223
-0.14200337 -0.010675773 -0.12200392 0.12935142 -0.0898622 -0.1754518 -0.12785268 0.022896528
0.11074869 -0.08577075 -0.028282538 0.029475883 0.17877112 -0.13571638 0.03569098 0.020516813
0.014883637 0.11096983 -0.00314866 -0.11437979 -0.007360086 0.04034987 0.07753284 0.015552819
0.07860197 -0.05864796 -0.18311249 -0.019858107 -0.02787812 0.03790784 -0.01152575 -0.02099906
-0.14952102 -0.09381101 0.009958565 -0.024746925 -0.111102045 -0.15719414 -0.14745812 0.1262712
-0.13221395 -0.06410159 -0.05545038 0.16492169 0.17419122 -0.10297681 0.16242792 0.043283537
0.09215562 -0.08174535 -0.18551424 0.046208054 -0.086173356 -0.1818859 -0.0585317 0.13070123
0.16422887 -0.050706208 -0.18522559 0.11964725 -0.042108327 -0.0044624656 -0.07479037 -0.0055721104
0.11008592 -0.055053756 0.049522832 -0.1755434 0.05003783 -0.070116065 0.12246342 0.15019386
-0.0056468397 0.13747923 0.15898757 0.06253065 -0.041022465 -0.14177714 0.09008883 0.036350936
0.11438115 0.059645906 0.14721183 0.12151678 -0.14697021 0.1617545 0.11476673 0.16696642
-0.0723857 -0.10064628 0.19073321 0.16311745 0.13851868 -0.19053991 -0.12058981 -0.034244984
-0.085239165 0.11014785 -0.16852874 0.13850148 0.13436504 -0.065514326 0.12840013 -0.08089627
0.05557619 -0.18104744 0.10956065 -0.06463517 -0.024506286 -0.031003341 0.064933166 -0.16194107
-0.10386138 -0.13799344 -0.064922735 -0.07119619 0.049286783 -0.13501868 -0.041982204 -0.07639568
0.14278512 0.07479228 -0.06745867 0.051148757 0.099231586 -0.07459365 0.1288877 -0.0365514
0.102748945 -0.064614475 -0.018121004 0.036274165 0.028242186 -0.009215072 0.15028442 0.0027624518
0.086807266 0.031238869 0.10255699 -0.028856456 0.075961754 0.04503423 -0.13785768 -0.13985512
0.14192878 0.044716954 0.042536467 -0.16514754 -0.11169601 0.08082573 -0.13847178 0.012362137
0.079163715 0.17570142 -0.15123357 -0.1604711 -0.07875688 0.019691393 -0.19052304 -0.06768056
00000000: 4462 1ebe 7932 12be 80c5 ac3b 66cc 9d3d
00000010: 4910 b4bd 8ee1 22be 68d8 07be 0b52 1e3e
00000020: 9f8c c3bd c8f5 99bc f0fd d83c a09c dabc
00000030: be7d 94bd 930f 113e fa57 db3d 955a e6bd
00000040: 34c4 1a3d 40c8 6a3d 0809 ab3c 05e2 043e
00000050: 044f 353d 9650 9b3d 2c09 6e3d 4825 963c
00000060: b686 bf3d 196a 0c3e 3e94 993d 2c67 02be
00000070: 0a6a 15be 200e f13c 14fb 34bd 94af 793d
00000080: a70b 1abe 0233 893d 0d5d 383e 009c 5b39
00000090: 5c88 6cbd 03df 12be 0791 313e c0eb c23c
000000a0: e9d9 ffbd f486 5dbd a20b e23d 5a0b fe3d
000000b0: 7871 073d a46c 363d a0a3 2ebe 64e8 763d
000000c0: d8c5 f3bc e40f 103d 2c08 3cbe c72b 293e
000000d0: 683e d6bc 44ae 083d 52ac ff3d 4dd2 40be
000000e0: 5569 11be 70e9 2ebc 31dd f9bd b374 043e
000000f0: ac09 b8bd a3a9 33be d0eb 02be 8091 bb3c
00000100: 36d0 e23d 93a8 afbd c8b0 e7bc 6877 f13c
00000110: c70f 373e 3cf9 0abe b430 123d e012 a83c
00000120: 80da 733c 2644 e33d c059 4ebb f43f eabd
00000130: e02c f1bb e845 253d 8ac9 9e3d 40d1 7e3c
00000140: 12fa a03d d838 70bd d781 3bbe 78ad a2bc
00000150: a860 e4bc 4045 1b3d 80d6 3cbc 3806 acbc
00000160: 0a1c 19be fd1f c0bd 4029 233c 10ba cabc
00000170: 7889 e3bd 80f7 20be 43ff 16be 3d4d 013e
00000180: 1863 07be b247 83bd f01f 63bd 3be1 283e
00000190: 2f5f 323e 81e5 d2bd 8153 263e 144a 313d
000001a0: 16bc bc3d 1b6a a7bd 72f7 3dbe a844 3d3d
000001b0: a87b b0bd 4c40 3abe f0be 6fbd 8bd6 053e
000001c0: 9d2b 283e 50b1 4fbd c7ab 3dbe 9e09 f53d
000001d0: c879 2cbd e039 92bb b22b 99bd 4096 b6bb
000001e0: ba74 e13d 0c80 61bd 74d8 4a3d a6c1 33be
000001f0: 78f4 4c3d 0399 8fbd 1ace fa3d 6bcc 193e
00000200: 2009 b9bb 5bc7 0c3e a3cd 223e 1210 803d
00000210: 2c07 28bd 072e 11be 7e80 b83d b8e4 143d
00000220: aa40 ea3d 444f 743d b3be 163e cadd f83d
00000230: 5c7f 16be f9a2 253e d20a eb3d 3ff9 2a3e
00000240: f43e 94bd a31f cebd 914f 433e 4308 273e
00000250: d7d7 0d3e e51c 43be caf7 f6bd 7844 0cbd
00000260: df91 aebd 3295 e13d cc92 2cbe 55d3 0d3e
00000270: fd96 093e 602c 86bd 537b 033e f2ac a5bd
00000280: dca3 633d 8064 39be 5661 e03d 725f 84bd
00000290: 68c1 c8bc b8fa fdbc aefb 843d e1d3 25be
000002a0: 46b5 d4bd 274e 0dbe 36f6 84bd 4fcf 91bd
000002b0: f0e0 493d 5642 0abe 88f5 2bbd 5775 9cbd
000002c0: 4336 123e b22c 993d c527 8abd 5c81 513d
000002d0: ee39 cb3d 8ec4 98bd 23fb 033e ecb6 15bd
000002e0: 0a6e d23d 9854 84bd 8072 94bc 3894 143d
000002f0: 285c e73c d0fa 16bc 29e4 193e 400a 353b
00000300: 02c8 b13d a8e8 ff3c 6609 d23d 6064 ecbc
00000310: d691 9b3d d075 383d 902a 0dbe 2e36 0fbe
00000320: c755 113e 2029 373d b83a 2e3d 701c 29be
00000330: e1c0 e4bd f687 a53d 8ccb 0dbe 908a 4a3c
00000340: 9620 a23d 13eb 333e f9dc 1abe 8952 24be
00000350: 494b a1bd d84f a13c 7918 43be 1b9c 8abd

conv4.bias f4 [8]
0.033535197 0.0077316533 0.14416838 0.0898644 -0.057933748 0.1343009 -0.13776067 -0.0060448796
00000000: 345c 093d cf59 fd3b e0a0 133e d40a b83d
00000010: f04b 6dbd 2d86 093e 2211 0dbe 2014 c6bb

conv5.weight f4 [12, 8, 5, 5]
-0.0006404867 0.06406407 -0.014015575 0.043203574 -0.039313573 -0.0029318258 -0.011864714 -0.0005047257
0.057897802 0.017877076 -0.043666318 -0.037940286 0.074482515 0.034886945 -0.033216402 -0.034855407
0.043843143 -0.045515724 0.06034992 -0.022478646 -0.044731032 -0.082430184 -0.040741634 0.03054052
-0.035801668 0.042638894 -0.050961718 0.006019889 -0.037397485 -0.01231111 0.03857796 0.03971077
0.06401385 -0.042657487 -0.06620957 0.005381799 -0.022520745 0.027805388 0.038823847 0.0126060145
-0.091529325 0.030879261 0.048905 0.016227337 0.020762708 -0.0048956787 -0.041679997 -0.036668155
-0.07239509 0.024652595 0.023384389 0.019537216 0.016721692 0.035287097 0.0044983495 0.029312408
-0.015823929 -0.005520333 -0.0069498946 0.038513806 0.029300103 0.053631097 0.0312016 0.063588485
-0.027789189 -0.087636136 -0.05666478 -0.035334148 0.043606374 0.011333905 -0.05969566 -0.053634457
-0.07653956 -0.091601826 -0.07738064 0.0317764 0.06950017 -0.0074450183 0.043112695 -0.015919799
-0.020447083 0.049536552 -0.01261798 0.074247755 0.023495747 0.027290238 -0.050756153 0.07389394
0.011688208 0.01625536 -0.03752854 0.044694994 0.061331112 -0.06957969 0.046731845 0.014932632
0.018057065 -0.03482013 -0.091796204 -0.015105351 -0.039743774 0.0044048205 -0.06574061 0.06549137
0.0120502785 -0.024556912 -0.047604118 -0.0132450275 -0.055149812 -0.0099496655 0.023704313 0.055157907
0.060395963 0.06300927 0.009543605 -0.05345937 0.02292946 -0.016157165 -0.03554887 0.021816753
-0.018238291 0.05366411 -0.025637481 -0.0676237 -0.02220212 0.034901213 0.007797797 0.016907822
-0.010972377 -0.008854194 -0.036730126 -0.04371518 -0.030039946 0.033919975 0.026786502 -0.053527344
0.021865385 0.007353907 -0.010544573 0.020341257 0.010258551 0.013075265 0.0070525245 -0.06680985
0.0035100048 -0.057773724 -0.06477335 0.006665224 -0.033038825 -0.046059784 -0.070337564 -0.03369704
0.04247494 0.0035344958 -0.021646455 0.024579316 -0.02633389 0.024301484 0.06754642 -0.045615807
-0.007357992 0.020308197 0.03851437 0.034240104 -0.0010216236 -0.062737636 0.023916572 0.022501327
-0.04830261 -0.026447926 0.037560724 -0.03294965 -0.021704506 0.057221852 -0.02162335 0.042212054
0.025634125 0.0026163384 0.016919687 -0.009664945 -0.036381803 -0.00916253 -0.00949657 -0.02609142
-0.013104409 0.04217118 0.04542806 0.02355966 0.05148597 0.0638892 0.061316647 -0.010474816
-0.06852731 -0.065696105 -0.05491084 -0.04831978 -0.058169626 -0.062893115 -0.017524533 -0.01740354
0.06577121 -0.04211457 0.04737583 0.033848178 -0.0029249322 -0.032360595 0.060382824 0.017542027
-0.017089503 -0.025490476 0.017908588 -0.017152013 0.0839626 0.057004075 0.042279676 -0.07178585
0.036524504 -0.049074404 -0.044133514 -0.016049506 -0.048928633 0.037173107 -0.021273555 0.04466624
-0.0106869005 -0.0008126573 -0.0076841125 0.062535085 0.013555972 -0.05048185 0.044808347 -0.005399048
0.072744675 -0.047069594 0.06721774 -0.012115031 0.025567671 0.0682629 -0.0166142 -0.026740057
0.043791674 0.059291467 0.0702707 -0.059767835 -0.011069069 -0.07281951 -0.03138877 -0.05110431
0.026530031 -0.0358665 -0.033027317 0.07633746 -0.0496979 -0.0016404758 0.015257117 0.058044836
00000000: 56e6 27ba 0634 833d 95a1 65bc 3bf6 303d
00000010: 4507 21bd e023 40bb 3864 42bc 914f 04ba
00000020: 3f26 6d3d f272 923c 74db 32bd 4667 1bbd
00000030: 4a8a 983d 9de5 0e3d ec0d 08bd 8bc4 0ebd
00000040: de94 333d b26e 3abd 7a31 773d 2325 b8bc
00000050: e337 37bd 28d1 a8bd b3e0 26bd 1d30 fa3c
00000060: c5a4 12bd 1fa6 2e3d 3cbd 50bd 7d42 c53b
00000070: 1b2e 19bd 8ab4 49bc ec03 1e3d c3a7 223d
00000080: b219 833d 9eb9 2ebd e298 87bd cd59 b03b
00000090: 6d7d b8bc 20c8 e33c c105 1f3d 7589 4e3c
000000a0: ba73 bbbd 81f6 fc3c 9c50 483d 31ef 843c
000000b0: 8e16 aa3c ee6b a0bb a5b8 2abd 5931 16bd
000000c0: e043 94bd 3df4 c93c 9e90 bf3c 830c a03c
000000d0: eefb 883c 3489 103d e466 933b 9320 f03c
000000e0: 2fa1 81bc e9e3 b4bb f1bb e3bb a7c0 1d3d
000000f0: c506 f03c 48ac 5b3d 7f9a ff3c ae3a 823d
00000100: 27a6 e3bc 937a b3bd 5419 68bd 8aba 10bd
00000110: 999c 323d d8b1 393c 7083 74bd ceaf 5bbd
00000120: c6c0 9cbd bd99 bbbd be79 9ebd f827 023d
00000130: 1b56 8e3d 57f5 f3bb f096 303d 3d6a 82bc
00000140: a480 a7bc d7e6 4a3d a5bb 4ebc 350f 983d
00000150: 277a c03c c78f df3c afe5 4fbd b555 973d
00000160: e67f 3f3c f629 853c 87b7 19bd 1912 373d
00000170: 5536 7b3d cc7f 8ebd e469 3f3d 00a8 743c
00000180: 69ec 933c 8d9f 0ebd a6ff bbbd 6f7c 77bc
00000190: 5eca 22bd 5056 903b 03a3 86bd 5720 863d
000001a0: 886e 453c 942b c9bc 89fc 42bd ac01 59bc
000001b0: c5e4 61bd ec03 23bc 8c2f c23c 42ed 613d
000001c0: c261 773d 010b 813d c85c 1c3c 36f8 5abd
000001d0: 90d6 bb3c 085c 84bc b19b 11bd 0cb9 b23c
000001e0: 7868 95bc e6ce 5b3d b205 d2bc 4b7e 8abd
000001f0: 38e1 b5bc 93f4 0e3d aa84 ff3b 4682 8a3c
00000200: 7cc5 33bc 2e11 11bc 5472 16bd b00e 33bd
00000210: 5516 f6bc acef 0a3d 5e6f db3c 7d3f 5bbd
00000220: 091f b33c 0bf9 f03b 25c3 2cbc b5a2 a63c
00000230: 7b13 283c a339 563c dd18 e73b 9ad3 88bd
00000240: 1c08 663b 24a4 6cbd e4a7 84bd f467 da3b
00000250: b853 07bd 2fa9 3cbd 240d 90bd e805 0abd
00000260: 34fa 2d3d 00a3 673b e853 b1bc 905a c93c
00000270: 2cba d7bc e813 c73c c755 8a3d a4d7 3abd
00000280: 501b f1bb 605d a63c 3ec1 1d3d 5a3f 0c3d
00000290: 00e8 85ba 977c 80bd b0ec c33c b454 b83c
000002a0: f5d8 45bd 52a9 d8bc 46d9 193d 36f6 06bd
000002b0: a6cd b1bc 7661 6a3d 7423 b1bc 8ce6 2c3d
000002c0: a8fe d13c e076 2b3b 289b 8a3c b859 1ebc
000002d0: 1605 15bd 701e 16bc 8097 1bbc acbd d5bc
000002e0: e0b3 56bc b0bb 2c3d c612 3a3d 3000 c13c
000002f0: f4e2 523d 57d8 823d 2a27 7b3d 909e 2bbc
00000300: 0c58 8cbd ae8b 86bd 30ea 60bd f6ea 45bd
00000310: 4643 6ebd 1bce 80bd 9c8f 8fbc de91 8ebc
00000320: 0eb3 863d 5480 2cbd 290d 423d 63a4 0a3d
00000330: 38b0 3fbb 8b8c 04bd fb53 773d 4cb4 8f3c
00000340: 49ff 8bbc 67d1 d0bc 08b5 923c 6182 8cbc
00000350: 95f4 ab3d 1b7d 693d 742d 2d3d 7604 93bd
00000360: b89a 153d 3e02 49bd 58c5 34bd 417a 83bc
00000370: 6469 48bd d442 183d e145 aebc f3f3 363d
00000380: 1c18 2fbc 8208 55ba 02cb fbbb 6512 803d
00000390: de19 5e3c 0ec6 4ebd f588 373d 7fea b0bb
000003a0: 29fb 943d 0ccc 40bd 74a9 893d 1f7e 46bc
000003b0: 4b73 d13c 6bcd 8b3d 811a 88bc f70d dbbc
000003c0: e65e 333d 9cdb 723d 16ea 8f3d 1ecf 74bd
000003d0: 0a5b 35bc 6522 95bd 8391 00bd c152 51bd
000003e0: 8255 d93c c0e8 12bd a747 07bd d056 9c3d
000003f0: 0690 4bbd 3c05 d7ba fdf8 793c 6cc0 6d3d

conv5.bias f4 [12]
0.08686061 0.07190453 -0.055672128 0.07504621 0.0904331 0.053128414 0.04972598 0.09401554
0.010182496 0.032440644 0.09853084 0.0065348726
00000000: fae3 b13d af42 933d 7508 64bd d4b1 993d
00000010: fd34 b93d 2e9d 593d 78ad 4b3d 388b c03d
00000020: 7cd4 263c 7be0 043d 89ca c93d 7c22 d63b

conv6.weight f4 [6, 12, 7, 7]
0.026100954 -0.0045424346 -0.048422296 -0.03453962 -0.021018898 0.0063838386 -0.04250227 -0.028867152
-0.04687644 -0.0101222275 -0.061077442 0.0078913 0.005826149 0.004678211 -0.013652501 -0.019892
0.014804405 0.002790795 -0.05466877 -0.053619538 -0.034892116 -0.022429748 0.011630848 -0.04733549
-0.07117012 0.0058570267 -0.019242296 -0.018800817 -0.00025469175 0.010833616 0.03946947 -4.9506794e-05
-0.04420527 -0.027031418 -0.021523856 0.03784837 -0.018802332 0.022320138 -0.0032277906 -0.022116119
-0.0327609 -0.03749269 -0.037259463 0.014335654 0.034653924 -0.024977444 0.009732837 -0.0038292515
0.021866405 0.00084675226 0.006020233 -0.026167966 -0.03763518 -0.004526671 -0.003916379 -0.013733724
-0.019963037 -0.0284463 0.0022392701 -0.010327865 0.0018119687 -0.04276411 -0.023632836 -0.011614937
-0.0060008885 -0.026087156 -0.05516313 -0.039891448 0.011047593 0.008541529 -0.047172125 0.014306653
-0.023349129 -0.016366834 0.0038915526 -0.010861181 -0.021368193 0.018805195 0.014516911 -0.018724233
-0.05280291 -0.0008972655 0.015043438 0.0099214725 -0.024392728 -0.032404143 0.0062601576 -0.021668551
-0.03170321 -0.047592837 0.016533893 -0.020044615 0.020945352 0.01163944 -0.027015913 0.005538785
-0.041255202 -0.022025779 0.016059406 0.025143415 0.0075931363 -0.03882295 -0.02535942 -0.0028736182
0.031621665 0.037649848 0.010358192 -0.009312697 0.016073678 -0.009550642 0.021279648 -0.031307504
0.019171908 -0.028540473 -0.0075348467 -0.020599099 0.031379804 -0.04011949 -0.01137762 0.0046366863
0.0010873638 0.03287688 0.02302824 0.0035417303 0.021779567 0.027608737 -0.009592127 0.0001466982
-0.015432643 -0.023590522 0.030664213 0.032153726 0.037304714 0.0025856942 -0.028627502 -0.009390559
0.005223237 0.016820151 0.023392119 -0.031246766 -0.041039485 -0.025754321 -0.0076971464 -0.0012215897
0.0060410276 -0.019579709 -0.017095212 -0.049232703 -0.005466549 -0.040782224 0.010831136 0.0154994745
-0.012082907 -0.047716044 -0.041988485 -0.042419042 0.027450586 -0.021107301 0.019752711 -0.0024592872
0.017984508 0.011078497 0.022872709 -0.014503857 -0.004308625 0.024927394 0.02667435 0.027830565
-0.026069438 0.0065163467 0.009493376 -0.022986429 -0.038169038 -0.036101785 0.02011287 -0.008691442
-0.040954836 -0.012696631 0.021847842 0.024913583 -0.033372827 -0.041277975 -0.02769707 0.011148756
0.016764415 0.010426199 0.016988931 0.014115741 -0.020225447 0.03833857 0.007566159 0.02622914
0.014736545 0.024972374 -7.994405e-05 0.011889682 -0.007133928 -0.020784426 -0.010115803 -0.06534187
-0.0079420945 -0.03271619 0.009559314 -0.0049018823 -0.0319757 -0.04841553 -0.035131026 -0.05977839
-0.036376216 -0.030525064 -0.025983064 0.019929266 0.012996139 -0.016436586 0.008410933 -0.0350893
-0.055606265 -0.02678544 -0.02069067 -0.042917155 -0.05148048 -0.06533879 -0.009471778 -0.010776428
0.008329288 -0.0057953727 0.004209413 -0.0066608978 -0.01227659 -0.024307052 0.019711092 -0.00197603
-0.014574045 0.03225764 -0.0021326446 -0.02982781 -0.04274274 0.027839147 0.003881706 0.040996943
-0.035123788 -0.04382316 0.011468555 -0.009737348 -0.019537808 0.015732724 0.0019042206 -0.015510955
-0.037040394 0.0016821673 -0.014784688 -0.042920347 0.019608703 0.0113141425 0.018530333 -0.06540218
00000000: abd1 d53c b4d8 94bb 7556 46bd 6b79 0dbd
00000010: d32f acbc 852f d13b dc16 2ebd ce7a ecbc
00000020: 8301 40bd b3d7 25bc 572c 7abd 834a 013c
00000030: 48e9 be3b ae4b 993b bdae 5fbc 8cf4 a2bc
00000040: 2d8e 723c c5e5 363b 5cec 5fbd 29a0 5bbd
00000050: 09eb 0ebd 97be b7bc 508f 3e3c dce2 41bd
00000060: a4c1 91bd 4dec bf3b 05a2 9dbc 2c04 9abc
00000070: 2688 85b9 7b7f 313c bdaa 213d 84a5 4fb8
00000080: 9610 35bd fe70 ddbc cc52 b0bc e406 1b3d
00000090: 5907 9abc b9d8 b63c 5789 53bb dd2c b5bc
000000a0: 4b30 06bd ef91 19bd 619d 18bd 17e0 6a3c
000000b0: 46f1 0d3d 7f9d ccbc 7a76 1f3c 2ef4 7abb
000000c0: 2d21 b33c 95f8 5d3a 6045 c53b 345e d6bc
000000d0: 5927 1abd 7854 94bb f854 80bb 6a03 61bc
000000e0: 8689 a3bc 3708 e9bc b8c0 123b 3536 29bc
000000f0: 957f ed3a 6b29 2fbd a699 c1bc 944c 3ebc
00000100: 1aa3 c4bb bbb4 d5bc bcf2 61bd 3765 23bd
00000110: f700 353c c5f1 0b3c 8f37 41bd 7466 6a3c
00000120: ac46 bfbc bd13 86bc 6b09 7f3b 18f3 31bc
00000130: 590c afbc 5a0d 9a3c 56d8 6d3c 9063 99bc
00000140: dd47 58bd 7836 6bba c178 763c ac8d 223c
00000150: 42d3 c7bc 35ba 04bd 0222 cd3b 3f82 b1bc
00000160: 3adb 01bd b5f0 42bd 1672 873c 9b34 a4bc
00000170: 9695 ab3c 5ab3 3e3c 7a50 ddbc b27e b53b
00000180: 37fb 28bd 686f b4bc 048f 833c 90f9 cd3c
00000190: d8cf f83b d004 1fbd 8fbe cfbc 5053 3cbb
000001a0: b885 013d ba36 1a3d 68b5 293c 4894 18bc
000001b0: f2ac 833c 4c7a 1cbc a852 ae3c 4c3c 00bd
000001c0: 680e 9d3c b6cd e9bc e0e6 f6bb 71bf a8bc
000001d0: 1c88 003d 5654 24bd 3269 3abc 58ef 973b
000001e0: e085 8e3a e8a9 063d b8a5 bc3c 601c 683b
000001f0: 106b b23c b82b e23c 4c28 1dbc 00d3 1939
00000200: 32d9 7cbc e940 c1bc 8433 fb3c a0b3 033d
00000210: d4cc 183d c074 293b 3984 eabc dcda 19bc
00000220: b027 ab3b 6aca 893c d4a0 bf3c 38f9 ffbc
00000230: 0519 28bd bafa d2bc 5838 fcbb c01d a0ba
00000240: d0f3 c53b a065 a0bc 420b 8cbc 3ba8 49bd
00000250: bd20 b3bb 430b 27bd 1475 313c 82f1 7d3c
00000260: 63f7 45bc e671 43bd 1efc 2bbd 97bf 2dbd
00000270: 0de0 e03c 38e9 acbc 70d0 a13c fe2b 21bb
00000280: 3f54 933c 9682 353c 8c5f bb3c 96a1 6dbc
00000290: 5e2f 8dbb 8934 cc3c 2b84 da3c edfc e33c
000002a0: 938f d5bc 1487 d53b 1b8a 1b3c 094e bcbc
000002b0: 2357 1cbd 77df 13bd bfc3 a43c 8d66 0ebc
000002c0: 42c0 27bd 8805 50bc 3ffa b23c 9217 cc3c
000002d0: f2b1 08bd 1813 29bd f7e4 e2bc 46a9 363c
000002e0: 8755 893c a6d2 2a3c 5f2c 8b3c b545 673c
000002f0: d6af a5bc e808 1d3d 8bed f73b 7ede d63c
00000300: 8d71 713c dd92 cc3c a3a7 a7b8 f1cc 423c
00000310: bac3 e9bb 1a44 aabc c1bc 25bc f5d1 85bd
00000320: 8f1f 02bc 6901 06bd ab9e 1c3c f89f a0bb
00000330: f4f8 02bd 5d4f 46bd 8de5 0fbd 2fda 74bd
00000340: 3aff 14bd b30f fabc 6fda d4bc b342 a33c
00000350: c2ed 543c 05a6 86bc 03ce 093c ccb9 0fbd
00000360: 65c3 63bd 246d dbbc 7b7f a9bc e6c9 2fbd
00000370: 32dd 52bd 58d0 85bd 842f 1bbc 9d8f 30bc
00000380: 9177 083c 1ce7 bdbb 1eef 893b a943 dabb
00000390: c023 49bc 951f c7bc 2879 a13c 4880 01bb
000003a0: fac7 6ebc 9620 043d d7c3 0bbb 7459 f4bc
000003b0: 0313 2fbd ec0e e43c 3864 7e3b 69ec 273d
000003c0: f6dd 0fbd ea7f 33bd 9be6 3b3c 6689 1fbc
000003d0: c10d a0bc eae1 803c 0a97 f93a a921 7ebc
000003e0: abb7 17bd 2b7c dc3a 7a3b 72bc 3fcd 2fbd
000003f0: 6ea2 a03c f45e 393c edcc 973c 94f1 85bd

conv6.bias f4 [6]
-0.017231187 -0.03773719 -0.013050982 -0.0005170713 0.022035213 0.03404176
00000000: 6b28 8dbc 5092 1abd c9d3 55bc 118c 07ba
00000010: 3183 b43c 5f6f 0b3d
